trained_model.pt (torch, 326047 bytes, 6 tensors)

layers.0.weight f4 [512, 22]
000000 53 41 20 3e e2 78 d2 3d bf 72 3a bd 96 8e 5c 3e
       0.15649919 0.10276963 -0.045519587 0.21538767
000010 58 b8 21 3e 1c b3 40 bd 1c ad 55 3d 7a f8 69 3c
       0.15792978 -0.047045812 0.052167043 0.014280433
000020 83 76 42 3e c6 3b 96 bd c5 65 3b be ff 73 1b bd
       0.18990521 -0.0733562 -0.18300541 -0.03795242
000030 bd 11 0d bd 7c e1 e9 bd ac 58 3f 3e f4 b7 55 be
       -0.034440745 -0.11419961 0.1868617 -0.20870954
000040 84 e3 e9 3d 1e a6 4b 3e 00 c4 90 3d c2 b3 50 3d
       0.11420348 0.19887587 0.07068634 0.05095268
000050 c7 ac 02 3d ed f4 1f 3e b3 b1 21 be 3c c5 44 3e
       0.031903055 0.15620776 -0.15790443 0.19215864
000060 f0 48 66 bd 34 1f 96 3d c0 19 2c 3d 00 6b 26 3e
       -0.056221902 0.0733017 0.042016745 0.16251755
000070 74 f1 29 be ec 92 f3 bd 5f a1 c9 bd 30 77 59 3e
       -0.16596013 -0.118932575 -0.09845232 0.21236873
000080 4a 86 27 be 22 bc 56 be 90 63 03 3e 70 6b 56 be
       -0.16359821 -0.20970204 0.12830949 -0.20939422
000090 10 9d 34 3e 08 86 28 3d 52 d1 32 3e 18 bd d8 3d
       0.1763804 0.041143447 0.17462662 0.10582942
0000a0 a0 8c d7 3c fc 12 bd 3d 7c d9 4e bd 28 fe d8 3d
       0.026312172 0.092321366 -0.050500378 0.105953515
0000b0 be eb 56 be 9a 63 56 3e 17 f0 b7 3d f9 3c aa 3d
       -0.20988366 0.20936432 0.089813404 0.08312411
0000c0 bf b1 0b be d9 5f cb 3c e2 6e 36 3d eb d1 b7 3d
       -0.13642024 0.024825977 0.04453934 0.089755856
0000d0 fa 50 c2 bd 81 de 32 3e 62 c7 6f bd 6a b6 d9 bd
       -0.09488101 0.17467691 -0.058539756 -0.10630496
0000e0 85 9d fa bd 4e 4a 92 bb 1e 14 28 3e 9c 5f 05 3d
       -0.12237076 -0.004464424 0.16413924 0.032561883
0000f0 a9 a8 34 3e 13 37 48 3e d0 dc 35 3e ab 55 d6 3c
       0.17642464 0.19552259 0.17760015 0.026163897
000100 7a 6b 1d 3e cf cf 4b 3e 40 94 4b be c4 b7 85 3c
       0.1537303 0.19903491 -0.19880772 0.016322978
000110 ed c6 2c 3d cf 89 19 3e 4d 67 28 3d b8 50 e7 3d
       0.042181898 0.14993976 0.04111414 0.11294693
000120 4a b3 f9 bc 90 41 4f bd 42 e9 83 3d fb 54 55 be
       -0.030481 -0.050599635 0.06440975 -0.20833199
000130 9b 2e 1f 3d 0e b7 31 be 51 9c 8a 3c 3d 85 3b be
       0.038862806 -0.17354986 0.01692024 -0.18312545
000140 f5 ba 45 3e a7 08 15 3e ca bb 1e be 7f dd bf 3d
       0.193096 0.14554082 -0.15501323 0.09368419
000150 82 e3 83 3d c4 3f 20 be a4 67 18 be 6c 9c 3d be
       0.06439878 -0.15649325 -0.14883286 -0.18516701
000160 34 09 1f bd 80 0d 02 be 2e a2 30 3e 2c cc 46 be
       -0.038827136 -0.12700462 0.17249367 -0.19413823
000170 64 58 23 3e 90 05 ce 3d de 25 95 bd d0 03 21 bc
       0.15951687 0.10059655 -0.07282613 -0.009827569
000180 80 fb 63 3c 7c 04 19 bd a8 e4 71 3d b2 50 0f 3e
       0.013914943 -0.037357792 0.059055954 0.13995627
000190 bc 64 2a be 34 41 b4 bd e8 a4 3b 3d ab 8d 07 be
       -0.1663999 -0.08801499 0.045811564 -0.13237636
0001a0 10 61 81 bd 40 54 e6 3d b2 6b 57 be e8 8e 97 bc
       -0.06317341 0.11246538 -0.21037176 -0.01850076
0001b0 30 91 00 bc 30 54 2b 3d 15 94 22 bc 4b 92 bc bc
       -0.007847115 0.041828334 -0.009923001 -0.023018977
0001c0 31 d9 30 3c ba 17 66 3d ab 4e b6 bd 8b d1 8b 3d
       0.01079397 0.05617497 -0.089017235 0.068270765
0001d0 b3 bf 27 3e 83 a9 f3 bc 04 5f 28 3e f4 a7 e1 3d
       0.16381721 -0.029743915 0.16442496 0.11018363
0001e0 96 09 3a 3e b7 3c 37 bd 46 59 6a ba 1f 9e 61 bd
       0.18167719 -0.044735637 -0.00089396944 -0.055082437
0001f0 15 5a 15 3e 8c c3 80 3c c2 75 05 be e4 5f 40 3e
       0.14585145 0.015718244 -0.13033202 0.1878658
000200 df 05 31 3e 08 23 f2 3d 11 62 9f 3d 61 ce 47 3d
       0.17287396 0.11823088 0.077823766 0.048780803
000210 a7 1f 88 3d 72 17 17 be bd d9 31 3e b6 77 e3 bc
       0.06646662 -0.14755037 0.17368217 -0.027767044
000220 15 a9 9a 3d e1 55 84 3c 22 b8 e5 3b e3 04 3d 3e
       0.07551781 0.016154232 0.0070104757 0.18458895
000230 af f2 d4 bd 5f f4 1e be 62 11 35 be c8 05 c7 bc
       -0.10397851 -0.15522908 -0.17682412 -0.024294749
000240 58 19 2b be dd a5 24 bc 32 46 20 3b e0 5c 1c be
       -0.16708887 -0.0100493105 0.0024455902 -0.15269804
000250 86 ca 4b be 05 6a af bc 20 fe bb 3d 30 ca e0 bc
       -0.19901475 -0.021412859 0.0917933 -0.02744016
000260 dd fa fa 3b c0 66 5b 3c ac 12 38 3e 08 1b f0 3d
       0.0076592998 0.013391197 0.17975873 0.11723906
000270 d0 0d 29 be b5 e0 0a 3d 7b b5 a8 bd 9e 68 51 bd
       -0.16509175 0.033905704 -0.0823774 -0.05112516
000280 a0 7c 34 be 77 53 72 bd 86 2c f9 3d f2 4e c1 3d
       -0.17625666 -0.05916163 0.12166695 0.09438886
000290 67 34 b5 3d 79 99 9b 3d 8c fa a7 bd 03 33 e4 3d
       0.088478856 0.07597632 -0.08202085 0.11142542
0002a0 ae 2e ff bd d3 b2 57 bd a8 e6 0b 3c 1d 45 95 3d
       -0.12460075 -0.052660774 0.008538879 0.07288573
0002b0 47 a9 20 3e 4c 61 d2 3d 92 37 fd 3d d7 61 d8 bd
       0.15689574 0.10272464 0.12364115 -0.105655365
0002c0 17 c8 a9 3d 27 1c 2f be 35 62 1e be 94 05 31 be
       0.08290117 -0.17100583 -0.1546715 -0.17287284
0002d0 fd 19 a1 bc 87 9d d6 3d e3 d5 36 bc 54 7e b0 bd
       -0.019665712 0.10479265 -0.011159393 -0.08617845
0002e0 c0 26 26 3d 9a 27 0f 3e dc 5e 49 3c cf 9f 37 be
       0.0405643 0.1397995 0.012290683 -0.17932056
0002f0 16 1b 2a 3e c6 c3 88 bd 03 b5 44 3d 7d 68 25 3e
       0.16611895 -0.06677966 0.04802419 0.1615314
000300 3d 31 d7 3d 41 74 bf bd 6d 25 28 3d 6b b0 1b 3d
       0.10507438 -0.093483455 0.041051317 0.038010042
000310 dc 92 52 be 5c 56 2b 3e 88 d5 d7 3d 74 20 86 bd
       -0.20563835 0.16732162 0.10538775 -0.06549159
000320 78 71 32 3e d0 7c 1b 3c 30 2e bc 3d 98 ad 10 3e
       0.17426097 0.009490207 0.09188497 0.14128721
000330 88 db 3a bd 41 d2 34 be 3a 51 25 be e9 b4 56 be
       -0.045619518 -0.1765833 -0.16144267 -0.20967449
000340 60 20 0d 3d 04 5d b7 3d 80 75 18 3e 88 87 1f bd
       0.034454703 0.08953288 0.14888573 -0.038947612
000350 b4 f1 8d 3d d0 06 4d 3e 14 d8 c9 3d d2 d4 0b be
       0.06930867 0.2002213 0.09855667 -0.13655403
000360 64 74 8a bd fc 9e 2f 3e a0 8b b6 bb 44 1d a3 3d
       -0.06760481 0.17150491 -0.005570844 0.07964566
000370 fc c3 15 3c 5e 79 ad bd 01 32 a0 bd de 51 9d bd
       0.009140965 -0.084704146 -0.078220375 -0.076816306
000380 11 65 35 3e b8 86 e4 3d 65 e0 cd 3d 93 04 d9 3d
       0.17714335 0.11158508 0.100525655 0.105965756
000390 64 08 f8 bb 06 f9 51 3e 50 5d 4e bd 5b 0b fd bd
       -0.0075693596 0.20505151 -0.05038196 -0.123556815
0003a0 c0 72 4e bd 95 8b 27 be c0 6a f7 3d 85 a4 44 3c
       -0.050402403 -0.1636184 0.12080908 0.012002115
0003b0 2b 0b 2f bd bc 10 c9 bc d0 1d 50 be b8 79 51 bd
       -0.04273526 -0.024544112 -0.20323873 -0.05114147
0003c0 a6 af 61 bd e7 ca 30 3e ce de 4c be 15 ed f7 bd
       -0.055099152 0.17264901 -0.20006868 -0.12105767
0003d0 a6 5d 0f 3e c2 a8 3f 3e fa b0 40 3e c0 53 a8 bc
       0.14000568 0.1871672 0.18817511 -0.020547748
0003e0 88 68 2f 3e 28 de 65 3d 7c 1e 09 be 90 4c f9 3d
       0.1712972 0.056120068 -0.13390535 0.12172806
0003f0 38 61 30 3d 42 a4 04 3e e2 6d 8d bd 6e 6e 0e 3e
       0.043061465 0.12953284 -0.06905724 0.13909313

layers.0.bias f4 [512]
000000 22 b3 e3 bd b8 d5 1d be 22 eb d2 3d 30 f8 b3 3d
       -0.11118151 -0.15413558 0.10298754 0.087875724
000010 f0 1a 22 3d dc 2e 2a be 46 30 e0 3d cc 8b 0d 3e
       0.03957647 -0.16619438 0.109467074 0.1382286
000020 6a fb 1f be 6e a8 44 be 88 01 52 bd 62 1a 46 be
       -0.1562325 -0.19204876 -0.05127099 -0.19346002
000030 a8 5a c6 3c 35 ae b8 bd d0 e4 50 bc 4d d8 31 3d
       0.02421315 -0.09017602 -0.012749866 0.04341917
000040 88 50 71 3c aa 71 43 be 80 40 0d be 16 5a 49 be
       0.014728673 -0.19086328 -0.13794136 -0.19663271
000050 7b 64 0f be 8a 9e 24 3e bc c3 b1 bd 7c 8f 86 3d
       -0.14003174 0.16076103 -0.086799115 0.06570336
000060 2b bc 12 3d ce e5 b6 3d b0 8f ce 3c e0 41 d0 3b
       0.035823982 0.089305505 0.025215 0.006355509
000070 c1 6c 9a bc 3a 35 ac 3d 27 99 ec bb 5f 08 08 3e
       -0.018850686 0.0840859 -0.0072204056 0.13284443
000080 e0 ac 97 3c d2 ca 41 be 78 87 b3 bd 66 6f 04 3e
       0.01851505 -0.18925026 -0.08766073 0.1293312
000090 81 3a 29 bd f1 ed 08 3e e2 41 2f 3e 44 57 2f 3e
       -0.04131556 0.13372017 0.17114976 0.17123133
0000a0 6d 87 c7 bd 10 e3 b6 3d c2 8a c4 bc a0 c5 ec bd
       -0.09742627 0.089300275 -0.023991946 -0.115611315
0000b0 40 07 08 be 32 21 0d be 9f 74 e2 bd b1 c7 1f 3e
       -0.13284016 -0.13782194 -0.110574 0.1560352
0000c0 e2 d2 ad bd 5f b7 34 be 6d 1b c5 3c 72 de 1e 3e
       -0.08487488 -0.17648076 0.02406093 0.15514544
0000d0 80 e2 c0 3c 14 fa 02 3d 39 2f 26 3b e2 0f 12 be
       0.023545504 0.031976774 0.0025357737 -0.14263871
0000e0 a4 72 15 3e db 17 ee bd b3 5a 04 3e 73 16 3a 3e
       0.14594513 -0.11625644 0.12925224 0.18172626
0000f0 5a c5 32 be 6c 35 eb 3d 2c eb 14 3e 73 8c 30 bd
       -0.17458096 0.11484799 0.14542836 -0.043102693
000100 d4 80 0a 3e a8 10 59 be e4 2b 85 bd de fa ab 3d
       0.13525707 -0.2119776 -0.06502512 0.083974585
000110 65 6a 32 3e 11 fe 38 be e7 e5 c1 3d b0 95 4a bd
       0.17423399 -0.18065669 0.094676785 -0.04945916
000120 38 40 d3 3c 85 4f f7 3c 13 61 5a 3e e2 e5 08 3e
       0.025787458 0.030189285 0.21326093 0.13368943
000130 a3 cd 57 be 71 03 03 3e a4 98 b8 3d f5 5f 11 be
       -0.21074538 0.12794282 0.09013489 -0.14196761
000140 0d 6d b3 3d 07 d7 d2 bc 60 e6 11 3d 43 0f bc 3d
       0.08761034 -0.025737299 0.035620093 0.091825984
000150 98 65 a7 bd 4e 28 12 3e 6c b2 6e bd 05 3b 93 bc
       -0.08173674 0.14273188 -0.058275625 -0.017972479
000160 cd a2 e6 bb d7 52 9d 3d 1b 95 84 3d 9e b3 03 be
       -0.0070384503 0.07681816 0.06473752 -0.12861487
000170 7a 51 24 be c9 ed d1 3c b8 f2 a7 3d a9 74 93 3d
       -0.16046706 0.02562608 0.08200592 0.071999855
000180 1c 83 a7 3d dd 97 13 bd 72 2d 42 bd 90 5d cd bc
       0.08179304 -0.0360335 -0.04740662 -0.025069028
000190 22 14 0c 3e db a5 c7 3d 66 fe 34 bd 6c 15 2d bd
       0.13679555 0.09748431 -0.044187926 -0.042256758
0001a0 c3 21 18 3e 35 95 cb bd e9 71 9a bc 19 ad 3e be
       0.14856629 -0.09940568 -0.018853145 -0.18620719
0001b0 a2 1c b9 3d 2d af 38 be d8 e4 79 3d a2 d9 83 3d
       0.090386644 -0.18035574 0.061009258 0.064379945
0001c0 36 f8 fb bd b7 95 f9 3d 74 8a fb 3c 64 d0 88 bd
       -0.12303202 0.12186759 0.030705668 -0.06680372
0001d0 50 c2 28 3e 33 50 48 3e 6e e7 99 bd bc dc 89 3d
       0.16480374 0.19561844 -0.07514845 0.06731555
0001e0 9a fa cc 3d fd 37 92 bd bd 93 e8 3d c4 3b 9e 3d
       0.10008736 -0.07139585 0.11356304 0.07726243
0001f0 29 34 cb 3d 7d 91 3b be 00 e6 5c bd 9a de a9 bd
       0.09922058 -0.18317218 -0.053930283 -0.08294411
000200 0f e0 0a 3e 1d 98 65 3e 64 6f 04 3d 86 48 3a be
       0.13562034 0.22421308 0.032332793 -0.18191728
000210 92 0d 18 be c1 09 f8 3d 89 2e 53 3d aa bd 3d be
       -0.14848927 0.121112354 0.05155805 -0.18529382
000220 58 60 3d 3e 41 ac aa bd 3c 45 03 bd ec 66 2b be
       0.18493783 -0.08333636 -0.03204845 -0.1673848
000230 98 66 aa 3c 0b ba c6 3d 45 03 c6 3b dc 2b 27 be
       0.020800874 0.09703454 0.00604287 -0.16325325
000240 86 fa 0f 3e d8 cb d8 3d bd e8 86 3d 6f ca 5d 3b
       0.14060411 0.10585755 0.0658736 0.0033842584
000250 67 30 40 be dd be 15 3e 65 9a c8 bd 82 f0 15 be
       -0.18768464 0.1462359 -0.097950734 -0.14642528
000260 92 ab 06 3e 30 4a 59 be af 2b 06 3e 6a 27 27 be
       0.13151386 -0.21219707 0.13102601 -0.16323629
000270 17 30 2e 3d f0 96 0d bd ca 1d 26 3e 7f 2c 36 3e
       0.04252633 -0.034567773 0.16222301 0.17790411
000280 f5 a5 32 3e 3c f4 d8 3c ad 34 19 be a2 46 54 3e
       0.1744612 0.026483648 -0.149615 0.2073007
000290 61 25 8d bc ac fe 45 be de 68 14 be ba 67 32 3d
       -0.017229738 -0.19335431 -0.14493129 0.043555953
0002a0 b0 71 13 3e 65 02 64 3e 23 d3 e3 bd 30 ac c8 bd
       0.14398837 0.22266538 -0.111242555 -0.09798467
0002b0 08 d4 fd 3d c8 50 44 be 52 3a cd bd de 29 41 3e
       0.123939574 -0.1917144 -0.10020889 0.18863627
0002c0 65 25 91 3c 35 e1 cd 3d 52 35 06 bd 42 39 1d 3e
       0.017718026 0.100527205 -0.032765694 0.15353873
0002d0 88 56 b3 bc da f3 9f bd 0d 89 d5 bd 0c 36 16 be
       -0.021891847 -0.07810183 -0.10426531 -0.14669055
0002e0 4f ea 4b be 6f f5 09 be 2d 39 06 3d 74 a1 37 3e
       -0.199136 -0.13472532 0.03276937 0.17932683
0002f0 f8 01 2b bd 26 dc b8 bd 07 de 24 3e b2 4c 95 bd
       -0.041749924 -0.09026365 0.16100322 -0.07290019
000300 3b 6b 45 be 2c 23 52 3e d5 c6 a6 3d 68 77 15 bd
       -0.19279186 0.2052123 0.08143393 -0.036490828
000310 01 d5 59 be b0 b8 1d 3e ac e5 43 3e aa 73 e8 bd
       -0.21272661 0.15402484 0.19130582 -0.11350186
000320 7c 41 3d bd ea 10 17 be 34 9c 06 3c 14 b5 15 be
       -0.04620503 -0.14752546 0.008215953 -0.14619857
000330 b0 31 85 3d f1 c2 ac bd 87 25 0b be 8a fc 5d 3e
       0.06503618 -0.084356196 -0.13588534 0.21678367
000340 c0 fe 75 bd 48 b3 b7 3d e4 61 95 bc c5 dd fb 3d
       -0.0600574 0.08969742 -0.018235154 0.122981586
000350 db ea 43 3d dc 90 bd 3d f8 68 2d bd 7a 48 99 bd
       0.047831398 0.09256145 -0.042336434 -0.07484527
000360 91 49 4f be f9 51 cd 3b a0 3e b1 bb 0a 91 e0 3d
       -0.20242907 0.0062658754 -0.005409077 0.10965164
000370 94 99 cb 3d f8 c0 c2 3d b8 23 21 3d 5c dc 05 3d
       0.09941402 0.09509462 0.039340705 0.032680854
000380 0f 20 fd 3d a3 25 ff bb 11 95 1d be 20 e1 0f 3e
       0.1235963 -0.007786469 -0.15388896 0.14050722
000390 6d db ab 3c bf c9 f2 bd 76 6e 2c 3e ce b1 42 3e
       0.020978654 -0.11854886 0.16839013 0.1901314
0003a0 7e d4 9f bc 98 dc 54 3d 5c 80 dc bd ef 78 ba 3d
       -0.019510504 0.051968187 -0.1076667 0.091050975
0003b0 64 43 93 bb 1c b3 b5 3d 30 08 2f be c1 da 85 3c
       -0.0044941176 0.08872053 -0.17092967 0.016339662
0003c0 58 e7 c9 bd 62 e1 5a bd 4c 02 dc 3d e8 1c 9e 3c
       -0.098585784 -0.053437598 0.107426256 0.019300893
0003d0 0f 88 2e 3e ea 78 0a be b0 69 4d bd 1c 6b 58 be
       0.1704409 -0.13522688 -0.05014962 -0.21134609
0003e0 fc 95 91 3d 38 52 82 bd 20 bf 41 bd 76 d2 8d bb
       0.071086854 -0.06363338 -0.04730141 -0.0043280674
0003f0 88 a7 c5 3d 5c 3e 76 bd 50 ff 08 be 7f 71 c7 3d
       0.09651095 -0.060118064 -0.13378644 0.097384445

layers.2.weight f4 [128, 512]
000000 e1 06 33 bb bc bc 03 bc dd e7 24 bd 51 84 81 bc
       -0.0027317333 -0.008040603 -0.040260185 -0.015810164
000010 80 0f 4b bb 15 f3 3e bd e3 70 3e bd 89 0a 33 bd
       -0.003098458 -0.04661854 -0.046494376 -0.04371122
000020 59 e0 10 3d 56 e5 9e 3c 53 4d 49 3c 60 cf 3d 3b
       0.035370205 0.019396465 0.012286502 0.0028962716
000030 f0 d8 f2 bc 24 4c 28 3c 1e cd d0 3c 86 7e 36 bd
       -0.02964446 0.01027206 0.025488432 -0.044554256
000040 e5 f6 22 3d 9b 35 85 bc 40 dc f0 ba 7a 71 17 bd
       0.03978624 -0.016260913 -0.0018376186 -0.036973454
000050 58 d2 27 bd e1 cc ac 3c 4b 26 19 3d 52 d7 8a bc
       -0.040972084 0.021093788 0.037390035 -0.016948376
000060 51 7f 11 bd 5d c3 84 3c e8 7c 50 bc 08 03 49 3c
       -0.03552181 0.016206438 -0.0127250925 0.012268789
000070 09 b5 80 39 89 53 a4 bc ed 31 92 3c b4 ff 0b bd
       0.00024548944 -0.020059364 0.017846072 -0.034179404
000080 10 a4 82 bb 2c 4d 13 bd 91 a2 06 bd fc 63 0b bd
       -0.003986843 -0.03596227 -0.03286988 -0.0340309
000090 ee 21 02 bd 1f 62 5b bc a1 dd 97 bc 07 08 be bc
       -0.03177064 -0.013390093 -0.018538298 -0.023197187
0000a0 36 2a cb 3c 1b 15 97 3c 7c f2 eb 3c 3c 25 ea bc
       0.024800401 0.018442681 0.028802149 -0.028582208
0000b0 d7 2b 1a bd be c1 9a 3c 5f 56 1b 3c 87 20 03 3d
       -0.037639465 0.018891212 0.009481042 0.032013442
0000c0 48 7a 02 bd c4 10 37 3c b1 19 05 3a b9 04 91 bb
       -0.031854898 0.011173431 0.00050773757 -0.004425612
0000d0 61 45 9d bc 8e 23 a2 bc 11 70 d5 3c e0 8a c4 3a
       -0.019198122 -0.019792344 0.026054414 0.0014995001
0000e0 da 5a ca bc bb 69 bb 3c db 6b 1b bd 2f 54 19 3d
       -0.024701525 0.022877565 -0.037944656 0.0374338
0000f0 04 be 27 bd a2 ac e9 3c e0 ed 88 bc 36 20 8a 3c
       -0.040952697 0.0285247 -0.01671499 0.016861062
000100 d2 d1 78 3c 06 75 ac 3c d5 ad 2a 3d d7 5f b1 3c
       0.015186744 0.021051895 0.041669685 0.021652145
000110 17 c9 18 3d 06 1d 01 3c aa d1 28 bd 99 77 09 bd
       0.03730115 0.007880455 -0.041215576 -0.033561323
000120 36 68 d2 3c 14 c1 15 3d b4 db 72 3c 9f cf a5 3c
       0.025684457 0.036561087 0.014822889 0.020240603
000130 18 7c 05 3d 19 21 c2 bc 7c e2 b0 bc dd 83 28 3d
       0.03258905 -0.023697423 -0.021592371 0.04114138
000140 74 d7 8b 3b 33 6c 49 bd d2 66 b3 3c a6 4b 23 bd
       0.0042676274 -0.049175452 0.021899614 -0.039867066
000150 90 52 ea 3b 72 2f f0 3c 9d d2 10 3d 41 3d c5 bc
       0.0071509555 0.029319499 0.035357106 -0.02407706
000160 92 3a a5 b9 a6 35 0a bd f2 97 01 3c 84 39 2a bc
       -0.0003151489 -0.03374257 0.007909762 -0.010389689
000170 e9 35 18 3d 1f 45 8b 3c ba c9 96 bc 84 44 54 bc
       0.037160788 0.017000733 -0.018406738 -0.0129557885
000180 67 4f fc bc cc 6c 6e bc 03 49 c0 3c 3a dd e1 bc
       -0.03079958 -0.014552306 0.023472315 -0.02757131
000190 7f b3 d4 3c a4 25 4c bd d4 bc c6 bc c8 3b ac 3b
       0.025964497 -0.049840584 -0.024259962 0.00525615
0001a0 fb 36 38 3d 8c 8d 22 bd 89 9f 47 bd b1 ce d6 bc
       0.04497431 -0.03968577 -0.04873613 -0.026221605
0001b0 41 1a d2 bc df 45 58 bc 4a 98 85 3c 96 e4 11 3c
       -0.025647284 -0.013200252 0.016307969 0.008904597
0001c0 20 87 51 bc bb b7 31 bd 6d a4 1c bd 1d eb 3e bd
       -0.012788564 -0.04338811 -0.038242746 -0.04661094
0001d0 aa 89 e9 3c f8 df 10 bd 48 54 34 bd 14 10 a2 bb
       0.028508026 -0.035369843 -0.04402569 -0.0049457643
0001e0 f9 9a 17 3c 6f 76 ae 3c 6f c6 38 bd 6e 7f 81 3c
       0.009253257 0.021296708 -0.045111116 0.015807834
0001f0 d9 af 75 bc a4 10 36 bd b0 dd 80 3c 43 d0 31 bd
       -0.014995539 -0.044449463 0.015730709 -0.043411504
000200 1b 5a b5 3c 4c ce 32 bc 00 09 9f 3b f5 84 8f bc
       0.022137692 -0.010913443 0.004853368 -0.017519454
000210 36 b1 8e 3c 34 55 ac 3a f4 80 07 bd e6 f3 58 bc
       0.017418485 0.0013147951 -0.033081964 -0.013241744
000220 bb 6a 9a bc 3a 38 e9 3c 3a 11 17 3d 02 04 16 bd
       -0.018849721 0.028469194 0.036881663 -0.036624916
000230 93 c3 aa 3c a0 d3 34 bb ee d5 b3 3c e0 0d a0 3b
       0.02084521 -0.0027591959 0.021952596 0.0048844665
000240 3a af 87 3c 20 08 e8 3a bc 35 e8 3c 4f 0a 38 bc
       0.016563047 0.0017702617 0.028345935 -0.0112329265
000250 eb d0 f6 bc b5 66 6f b9 5a e8 e7 3c 80 51 41 bc
       -0.030128917 -0.00022831078 0.028309036 -0.011799216
000260 8a 7d 93 3c 78 08 af 3b de 18 38 3c e2 6d 94 3c
       0.018004198 0.0053415857 0.011236398 0.018118802
000270 be 7f 4e 3b b2 09 4b bd d9 e9 4f 3c 4d 23 16 bb
       0.0031509246 -0.049569793 0.012690031 -0.0022909224
000280 e6 ec ee 3c 5d cc 83 bc 0b b6 19 bc b6 37 15 3d
       0.029165696 -0.016088659 -0.009381781 0.036430083
000290 0e 7e 04 bc a3 0d 12 3d 0b 27 30 3d be 07 9d 3c
       -0.008086694 0.035657536 0.043005984 0.01916873
0002a0 55 8e 90 bb 93 87 ac 3c 2a 31 15 bd 10 a5 21 bd
       -0.0044114986 0.02106074 -0.03642384 -0.039464056
0002b0 f0 19 4b bb d8 42 99 3b 47 da d6 bc 45 87 ec 3c
       -0.0030990802 0.004677158 -0.02622713 0.028873095
0002c0 eb 30 3e bd 53 ae 09 3d c4 87 b7 3c 64 7b a4 bc
       -0.04643337 0.033613514 0.022403605 -0.020078368
0002d0 7e eb ec 3c bc 8e ab bc 98 61 09 3c 1a 85 f3 3c
       0.028920885 -0.020942084 0.008385085 0.029726554
0002e0 02 fb ab 3c 12 df 3d 3c 80 df 48 3c b6 fd 85 3c
       0.020993713 0.011588829 0.012260318 0.01635633
0002f0 c6 2b fc 3c 6a fc c2 bc b9 f8 66 3c 00 68 e9 39
       0.030782592 -0.023802001 0.014097386 0.0004451871
000300 08 fb 9a bc f5 60 d4 3c e2 e9 a1 39 86 6b a6 bc
       -0.01891853 0.025925139 0.0003088257 -0.020314943
000310 e4 55 93 3b c0 af 98 bb 36 89 7a ba 39 96 03 3d
       0.004496323 -0.004659623 -0.0009557189 0.032125685
000320 3c 9b 0e 3c 97 c6 22 3d b5 83 26 3b a1 e3 83 bc
       0.008704003 0.03974017 0.0025408093 -0.016099753
000330 d8 8f 36 bc 15 3e 9f bc d5 d0 ba 3c b6 27 58 3b
       -0.011142693 -0.019438783 0.022804657 0.0032982654
000340 67 c8 11 3d a4 a3 2c bd 29 99 d7 3c 9f 8e 57 bc
       0.03559151 -0.042148247 0.02631815 -0.013156562
000350 db e1 06 bd 22 6b 4b bd ce a8 25 bd 10 2b fd bc
       -0.032930236 -0.049662717 -0.040444188 -0.030904323
000360 44 b1 6a 3c 90 53 8d bc 0a 73 a5 3c 6e f2 9f 3c
       0.01432449 -0.01725176 0.020196456 0.01952478
000370 b4 da 60 3b 4c e6 05 bd d2 67 5e bc 6c f1 db bc
       0.0034310045 -0.03269033 -0.013574557 -0.026848517
000380 08 08 13 b9 24 ab bf 3c 08 3a 0b 3c 3d 14 4b 3c
       -0.00014022004 0.023397036 0.008497722 0.012394962
000390 5e 33 0d bd 51 87 65 3c 62 83 8f 3a 36 6d e7 3c
       -0.034472816 0.014009313 0.0010949189 0.028250318
0003a0 80 9d 08 3d 20 90 b6 3b 1f 14 c9 3c f9 4b e6 ba
       0.03335333 0.0055713803 0.024545727 -0.0017570249
0003b0 83 58 af 3b 6f a2 21 bc 00 41 27 ba 50 1d 19 bd
       0.0053511276 -0.009865387 -0.000638023 -0.03738147
0003c0 d4 67 10 bc 8e d8 46 3b ca d9 9e bc c0 e8 5b bc
       -0.008813817 0.003034148 -0.01939096 -0.013422191
0003d0 ab 7f 03 bc 02 2a a8 bc 31 30 98 bc c7 92 b6 bc
       -0.008026044 -0.020527843 -0.018577667 -0.022286786
0003e0 a5 cb 11 3d ac a9 10 3d 7c bf 26 3c 3d e7 dc 3b
       0.0355946 0.03531806 0.010177489 0.006741433
0003f0 5f 49 28 3d 4d ae 09 3d 0a e1 f5 3c 6b e3 e4 3c
       0.041085597 0.03361349 0.030014534 0.027940473

layers.2.bias f4 [128]
000000 d0 9d 1d 3d dd 1e 10 bd 3f a5 0f 3d 10 de 17 bd
       0.03848058 -0.035185684 0.0350697 -0.03707701
000010 5f 11 13 3c 00 9d c1 bb 27 a9 b9 3c 34 37 2b bc
       0.00897631 -0.0059086084 0.022663666 -0.010450173
000020 33 59 86 3c ff 3b bf 3c 6d 63 e3 3c 20 35 a0 3c
       0.016399955 0.023344038 0.02775737 0.019556582
000030 6e 4a b9 bb bc 97 84 3c ee 91 25 bd dc e0 87 3c
       -0.0056546247 0.016185634 -0.040422373 0.016586713
000040 b5 41 be bc 81 c4 bd 3c 43 9c 2c bd a4 6b 2b bd
       -0.02322469 0.02316499 -0.04214121 -0.0418507
000050 2d be 8d 3c 20 09 e0 3c 68 00 cf 3b 58 ca 9e bb
       0.017302597 0.027348101 0.006317187 -0.0048458986
000060 67 04 9e 3c 95 9e 1a 3b 16 67 b9 3c 28 16 a7 3c
       0.019289209 0.0023593057 0.022632163 0.020396307
000070 e1 38 e2 b9 5e 0b f5 3c 99 9d 8d bc cc bc ac bc
       -0.00043148457 0.029912647 -0.017287062 -0.02108612
000080 91 27 54 bc 30 6a 26 3c 1a 8e 62 bc fa b5 2e bd
       -0.0129488865 0.010157153 -0.013827825 -0.042654015
000090 ac 63 1d bd 46 df c2 bc 0b 44 29 bc d5 55 49 bd
       -0.038425133 -0.023788106 -0.010331164 -0.04915412
0000a0 d0 77 66 3b 66 b3 5b bb 82 1e 9f bc 3b 01 ae bb
       0.0035166629 -0.0033523678 -0.019423727 -0.0053102053
0000b0 85 d5 81 ba 00 38 62 3c 8f 11 27 bd 60 8a a4 3a
       -0.0009905553 0.013807297 -0.04078823 0.0012553446
0000c0 12 ec e6 3c ed e2 ca bc af b5 1f 3d 6d 4a 01 3d
       0.028188739 -0.02476641 0.038991626 0.03156512
0000d0 0a f2 02 3d 38 0a 10 bd 31 fa 51 bc c5 87 27 3d
       0.031969108 -0.035165995 -0.012815998 0.040900964
0000e0 b1 98 e3 3b 6f 5e 13 bd d3 80 e4 bc f7 31 12 3d
       0.0069456925 -0.03597873 -0.02789346 0.03569218
0000f0 99 f1 92 bc 0f 78 1c 3c 23 e2 58 3d 28 17 9a bc
       -0.017937468 0.009550109 0.052950036 -0.01880987
000100 59 17 e4 bc 7f c1 be 39 4c 44 68 3c be 06 ea 3c
       -0.027843164 0.0003638379 0.0141764395 0.028567668
000110 e8 d8 90 3c 69 08 42 bc b1 a7 22 3d 14 55 fd 3c
       0.017681554 -0.011842825 0.039710704 0.030924357
000120 97 6e 1c bd 53 6b 04 3c 28 08 b6 3b 45 ac 17 3c
       -0.038191404 0.008082229 0.0055551715 0.009257381
000130 9c 2a 0e 3b e8 4a 2f bd de ff 81 3c e4 07 3d bc
       0.0021692878 -0.042796046 0.015869077 -0.011537526
000140 d9 4a 1d bd a0 92 23 3c b9 5f ad bc 90 3c 89 3b
       -0.03840146 0.009983689 -0.021163808 0.004188128
000150 ad 67 2f bd ae b6 83 3c 74 4e 0c 39 70 20 bd 3b
       -0.042823482 0.01607832 0.00013380666 0.005771689
000160 25 e6 b8 bc c0 c0 08 ba a0 40 b6 3b c6 3e 87 3b
       -0.022570679 -0.000521671 0.005561903 0.004127356
000170 3f 2f e6 bc da 76 b0 bc 23 7d d1 bc 54 c8 0f bc
       -0.0280987 -0.021541048 -0.025572365 -0.008775789
000180 48 97 ea 3b d4 ef 27 bc 65 df 3f 3c 2f eb 9d 3c
       0.0071591474 -0.010250051 0.011710976 0.019277183
000190 78 f3 be 3b b0 8d cf bb 38 a8 53 bc 98 68 60 3c
       0.0058273636 -0.006334029 -0.012918524 0.013696812
0001a0 2d 42 a0 3c 26 ef cf bc de 68 af 3c e0 56 e6 bb
       0.019562805 -0.02538259 0.02141231 -0.0070293993
0001b0 07 7b 3e 3c 8e 49 98 bc 3e 86 b5 bc dd 0f 86 3c
       0.011626012 -0.018589761 -0.022158738 0.016364986
0001c0 95 3c 81 3c d8 74 8e 3c 2f f6 1d bd 85 49 0d 3d
       0.015775958 0.0173897 -0.038564857 0.03449394
0001d0 5a 86 ff 3c f4 00 1c bd c1 aa 1c 3d 94 30 22 bd
       0.031191994 -0.038086846 0.03824878 -0.03959711
0001e0 62 e6 f9 3b 06 c8 8b 3c ff 7e 27 bd 20 ae ce bc
       0.0076263407 0.017063152 -0.040892597 -0.025229514
0001f0 7e e9 b4 3c 38 35 3f bd 9a 65 7a 3c 5c 73 b8 bb
       0.022083994 -0.046681613 0.015283013 -0.0056289863

layers.4.weight f4 [27, 128]
000000 78 f5 4a bc b6 83 7e bd 80 a1 8d bc 6d 8c ab 3d
       -0.012387626 -0.062137328 -0.017288923 0.083763935
000010 25 92 0e bd e8 a8 0a bd 57 67 8b bd 20 2d 8f bb
       -0.034807343 -0.033852488 -0.0680682 -0.004369393
000020 3d ce 36 3d 00 87 6f bd 97 76 2f 3d 35 cd 47 bd
       0.044630278 -0.058478355 0.042837705 -0.048779685
000030 d1 3f 2f 3c 10 9e d9 3c 1f 65 ab 3d 91 6a 8c 3d
       0.010696367 0.026564628 0.08368897 0.068562634
000040 81 76 8f ba 4c 83 93 3d 62 a0 a8 bd 51 1b 7a 3b
       -0.0010945351 0.07202777 -0.082337156 0.0038163255
000050 d9 f2 80 3d 25 ab 2d bd 08 ee 6e 3c 2e 90 29 bd
       0.062963195 -0.042399544 0.014583118 -0.041397266
000060 5a 01 93 3d 13 3a 90 3d 61 f7 62 bd 4d 29 4e bd
       0.07177992 0.07042327 -0.0554117 -0.050332356
000070 92 d1 61 3d ff 11 56 3d d6 67 7c bd 2e 87 b5 bd
       0.055131502 0.052263256 -0.061622463 -0.08863674
000080 2d 04 22 bc b4 6d 29 3d 71 96 74 bd 17 d0 8c 3d
       -0.009888691 0.041364387 -0.059713785 0.068756275
000090 2c 03 93 bd 31 36 a2 3d 0f 08 92 3d ec 6f 2a 3d
       -0.07178339 0.079204924 0.07130443 0.041610643
0000a0 42 c9 24 3d 5b 96 31 bd 00 48 cc bb df 6f 37 3d
       0.040230997 -0.04335628 -0.006234169 0.044784423
0000b0 1b ad b2 bd c5 e7 6f bd 70 17 15 3d 48 4e 97 bd
       -0.087244235 -0.058570642 0.036399305 -0.07387978
0000c0 c7 2b 88 3d ed f3 a7 3d 52 8c a4 bd 48 58 75 bd
       0.06648975 0.08200822 -0.080345765 -0.059898645
0000d0 8a 7f 49 3d d1 98 ce 3c a7 2a 26 3d ef c3 63 ba
       0.049193896 0.025219353 0.04056802 -0.0008688559
0000e0 51 47 59 bd 6a 1e 1b 3d 3d 42 c9 3c 7a c2 37 bd
       -0.05304653 0.037870802 0.024567718 -0.0448632
0000f0 c6 aa b0 bd 4c b9 11 bd 4c 2f 8e bd ad 27 54 bd
       -0.086263224 -0.035577103 -0.06942615 -0.05179565
000100 a3 d1 a5 3d 64 77 8d bd 8c f7 96 bc 89 c7 88 3d
       0.08096626 -0.069075376 -0.018428586 0.06678683
000110 f4 49 3e 3d 35 60 af 3c 62 5c e4 bc e1 e0 ac 3b
       0.046457246 0.02140818 -0.027876083 0.005275831
000120 82 95 32 3d 42 ba 54 bd 5c c7 a4 bc b9 a3 de 3c
       0.043599613 -0.05193544 -0.020114593 0.027177678
000130 dd 77 f2 bc 6f 71 03 3c 82 07 af 3b fc 53 dc 3c
       -0.02959817 0.00802265 0.005341471 0.026895516
000140 82 9f 57 3d 7f 8c 8d bd e6 f6 e2 bc 7f 44 ab 3d
       0.052642353 -0.06911563 -0.027705621 0.08362674
000150 fe e7 e3 3c 33 5b 55 bd 02 01 4e 3d 6c 30 9d bc
       0.027820583 -0.052088927 0.05029393 -0.019188128
000160 2b 0f 55 3d 0d 25 8c 3d bc e5 aa 3c 86 bc 84 bd
       0.05201642 0.068430044 0.020861499 -0.064812705
000170 0e 87 de bb 08 c4 62 bd 1c 49 01 bd 3e 51 2b 3d
       -0.006791002 -0.05536273 -0.031563863 0.041825525
000180 32 28 54 3d 12 0e a9 bd b1 c7 ab bd 72 62 95 bd
       0.051796146 -0.08254637 -0.083876975 -0.072941676
000190 54 03 95 3c 7d eb 46 bd b8 21 03 3d 54 ae f7 3d
       0.018190064 -0.048564423 0.03201458 0.12093797
0001a0 ac 37 ba 3c cc 8f 01 3d 29 4f 94 ba 00 41 b6 bc
       0.022731625 0.031631276 -0.0011315095 -0.022247791
0001b0 a9 f7 fb 3c 3c 40 39 bd 2f e1 80 3d e1 f8 b3 3d
       0.030757742 -0.045227274 0.0629295 0.08787704
0001c0 5e 1b 8b 3d 8c 61 e4 3c 02 7d 49 3d f0 69 6f 3c
       0.06792329 0.027878545 0.049191482 0.01461266
0001d0 df d6 ad 3d 2d 8e 85 3d 66 a7 0c 3d b8 5e b3 3c
       0.08488249 0.065212585 0.03433933 0.021895751
0001e0 a6 d6 50 bb 1a f1 3e 3c 32 b7 3b 3d 48 54 50 bd
       -0.0031866222 0.011654163 0.045829006 -0.050861627
0001f0 a9 93 69 3d ea 11 6b bd 76 da 2d 3c 1e df 6f bd
       0.057025585 -0.05739013 0.010611167 -0.05856239
000200 16 22 98 3d 7c e1 4d bd c6 37 22 3d 78 19 42 bc
       0.074283764 -0.050263867 0.03960397 -0.011846893
000210 f6 4b 68 3c 5b e6 51 bd eb cc 31 bd a9 a4 0c bd
       0.014178267 -0.051245075 -0.043408316 -0.03433672
000220 11 7d a6 bc c8 6d 05 bd 73 97 07 bd a5 9d b6 3c
       -0.020323308 -0.0325754 -0.033103418 0.022291968
000230 d9 15 40 bc a0 b9 f2 bb 20 f4 40 bc 88 f5 d9 bc
       -0.011723959 -0.007407382 -0.011776954 -0.026606336
000240 c4 b9 14 3d c5 d8 a0 3d 5a ab 3b bd 05 6c 58 3d
       0.036309972 0.078538455 -0.04581771 0.05283739
000250 d7 f1 3d 3d 26 33 33 bd 0c 0c c9 bc 6e 98 0c bd
       0.046373215 -0.04374995 -0.024541877 -0.034325056
000260 a1 a8 f7 3c af e9 f3 bc 38 67 a5 bc 4e 16 80 3d
       0.030231776 -0.029774515 -0.02019082 0.06254254
000270 02 26 85 3d 73 50 2f bd ce fc 57 3d 90 37 a8 bd
       0.0650139 -0.04280133 0.052731328 -0.08213723
000280 1e 27 99 bd 42 18 96 3b 13 be 9b bb ac 98 c2 3c
       -0.07478164 0.0045805285 -0.004752883 0.02375444
000290 4e e6 8b bc 72 10 79 bc 8c ae 4b bd 2f 9a fe 3a
       -0.017077591 -0.015201675 -0.049727008 0.0019424612
0002a0 10 29 c4 3c fb aa 28 3d 97 4b 93 3d e5 b1 a9 3d
       0.023945361 0.041178685 0.07192152 0.08285884
0002b0 61 ec 8a 3d 22 5e 9f 3d 3f 6d 68 3d aa 06 90 bd
       0.06783367 0.07781626 0.05674481 -0.07032521
0002c0 42 c4 ac bd b7 f9 a1 3d e5 9a a7 3d 3e 88 04 3d
       -0.08435871 0.079089575 0.08183841 0.032356493
0002d0 23 90 ae bc e8 29 d6 bc 26 0b 77 3d e0 31 50 3c
       -0.021308964 -0.02614303 0.060313366 0.012707204
0002e0 78 d9 f9 3b ac 5d 97 bc 44 86 a0 bd a4 7b a7 bc
       0.0076248012 -0.018477283 -0.07838109 -0.020444699
0002f0 8e f3 9c 3d ce ea 5d 3d d0 fb 02 3b 08 6a b7 bc
       0.07663642 0.054179005 0.0019986518 -0.022389427
000300 2a 6f 8a 3d 27 61 aa bd 1e 3d 9f 3d 1d 72 b3 3d
       0.06759484 -0.083193116 0.07775329 0.08762
000310 3c af 84 bd 28 ea c2 3d 70 06 8b 3b 41 bb bc 3b
       -0.06478736 0.09517318 0.004242711 0.005759627
000320 17 b3 aa 3d 30 33 09 bd 01 7c ae 3d 0d 51 8e 3d
       0.0833494 -0.03349608 0.085197456 0.06949053
000330 91 24 4c 3d 6f e6 5e b8 6d 24 a1 3d 26 52 8a bd
       0.04983956 -5.3143533e-05 0.07868276 -0.0675395
000340 29 3b 4f bd 99 e4 b4 3d 47 7d 53 bd b3 d9 98 bd
       -0.05059353 0.08832664 -0.051633146 -0.07463398
000350 f5 83 ed bb ae 40 ac 3c 6b a8 83 3d 3c 6b 99 3d
       -0.0072483965 0.021026935 0.064286076 0.074911565
000360 4e b9 8b bd d3 5c ae 3d 80 40 6e 3c 2a 7c 24 3c
       -0.068224534 0.085137986 0.014541745 0.010039369
000370 b4 eb bb 3c b2 0f 92 bd ec 2a b5 3d 40 54 a1 3c
       0.02293954 -0.071319 0.08846077 0.019693494
000380 20 6a 50 bc 08 c6 7f 3c 94 89 ad 3d 83 7e 48 3d
       -0.012720615 0.015611179 0.084735066 0.048948776
000390 9a d3 f0 bc 16 9f 56 3d b8 24 63 bc cb 46 2f bd
       -0.029397774 0.05239781 -0.013863735 -0.042792123
0003a0 92 5a 54 3d 5e 55 88 3c a7 89 83 3d 10 b5 a0 bc
       0.051844187 0.016642269 0.064227395 -0.019617587
0003b0 52 31 8d 3c 16 42 a0 bd 3d 3f 34 bd bd f2 f2 bb
       0.017235432 -0.07825105 -0.04400562 -0.0074141906
0003c0 65 4e 9b 3c 80 1d 6e bc 59 3a 75 bd c8 16 53 bc
       0.01895828 -0.014533401 -0.059870098 -0.012883849
0003d0 6e 02 75 3d a7 38 75 bd fc 7f 1e bd aa 2e 58 3d
       0.05981677 -0.05986848 -0.038696274 0.052778877
0003e0 6b c5 80 bc 1a 04 61 3d 5f 0a cc 3b b6 37 b5 bc
       -0.015719136 0.054935552 0.0062268223 -0.022121292
0003f0 41 17 87 bd 74 25 0a bd ef 44 66 bd da 75 4f bd
       -0.06596232 -0.033727124 -0.056218084 -0.0506495

layers.4.bias f4 [27]
000000 67 3b 64 3d 4f 00 8f bc b1 2d 93 3d a7 50 94 bd
       0.055720713 -0.017456202 0.07186449 -0.07241946
000010 a8 09 4c bd bd 98 b8 3d c1 b9 56 bc 43 4d 59 3d
       -0.049813896 0.090135075 -0.013105811 0.0530522
000020 93 b0 a5 ba f3 0d 93 bc ac 0c e2 bc b4 6e 69 bd
       -0.0012641124 -0.017950987 -0.027593933 -0.05699034
000030 72 e0 2c 3c 49 7c 91 bd 45 04 ae bd 2a 42 00 bd
       0.010551559 -0.07103784 -0.08496908 -0.0313131
000040 69 4e be bb cc 77 81 bd f4 f7 c7 bc 30 6a 76 bd
       -0.005807687 -0.063216776 -0.024410225 -0.060159862
000050 48 50 8f 3c 9c bc 42 bd 69 65 1c bc 50 d5 14 3d
       0.017494336 -0.047543153 -0.009545662 0.036336243
000060 29 c5 8b 3d a6 4a 24 bd 3f 73 82 bc
       0.06824715 -0.040110253 -0.015924094
