trained_model.pt (torch, 312671 bytes, 6 tensors)

layers.0.weight f4 [512, 20]
000000 b2 15 c9 bd 3a 7f f1 bd 78 b3 93 3d 67 92 fa bd
       -0.09818591 -0.11791845 0.07211965 -0.12234955
000010 14 6a d4 3d 78 70 72 bd 54 13 42 be 18 a8 b4 3c
       0.10371795 -0.05918929 -0.18952686 0.02205281
000020 94 d2 84 3d 48 62 f8 bc 88 39 d1 3d ac dc 19 3e
       0.06485477 -0.030320302 0.10216051 0.15025586
000030 0a 5a 3c 3e ae 06 0d 3e 02 f3 54 3e f0 34 8f bc
       0.18393722 0.1377208 0.20795825 -0.017481297
000040 7e 4d c5 bd 31 22 3b be 54 17 28 3e ee 07 23 be
       -0.09633921 -0.18274762 0.16415149 -0.15920994
000050 71 5f 2d 3e 4c e3 40 3e 2c 34 d0 bd 79 f5 bf bd
       0.1693094 0.18836707 -0.10166201 -0.09372992
000060 0e cf ef bd 5e c9 b3 3d 44 a9 ae 3d ad f4 77 3d
       -0.117094144 0.08778642 0.085283786 0.060536075
000070 cd dd 56 be b2 6c b4 bd 26 89 39 be 4c e4 38 be
       -0.20983048 -0.088097945 -0.18118724 -0.18055838
000080 26 44 48 be 05 d1 e9 bd ca a5 19 3d 5e 15 3c be
       -0.19557247 -0.114168204 0.037511624 -0.18367526
000090 fb 3a 1d bb 9c 1e 4a be c2 11 41 bd 2a 1f 13 3d
       -0.0023991454 -0.19738239 -0.047136076 0.035918392
0000a0 9e 74 8c bc d6 f2 af 3d 3f 20 54 be 2c 3a 03 3d
       -0.017145451 0.08591239 -0.20715426 0.0320379
0000b0 eb 58 4e 3b 58 c6 95 3d 84 8f f4 3d f5 e9 83 bd
       0.0031486105 0.07313222 0.11941436 -0.06441108
0000c0 e2 f5 2d be f2 dd 74 bb 14 e4 86 3d 6f ad 23 be
       -0.16988328 -0.0037363735 0.06586471 -0.15984128
0000d0 2a 1e 33 3e 78 84 f8 bd 4d b8 19 be 05 32 15 be
       0.17491975 -0.121346414 -0.15011711 -0.14569862
0000e0 8e 22 9b bc a7 cc aa bc aa 9e 49 be 4b 5a 32 be
       -0.018937375 -0.020849539 -0.19689432 -0.17417257
0000f0 79 a3 c3 3c b2 6e 5a 3e 5c 62 1f 3e aa cf 35 3d
       0.02388166 0.2133129 0.15564865 0.044387497
000100 16 41 21 be 38 fd 19 3e 86 a2 08 be 95 05 65 be
       -0.15747485 0.15038002 -0.13343248 -0.2236541
000110 23 11 83 bd 1a b8 01 bc b6 f8 56 be ff ed 5c 3e
       -0.06399753 -0.007917428 -0.20993313 0.21575163
000120 74 6e 01 bd a2 1d e6 3d 56 86 2c be ab 9c 31 3d
       -0.031599477 0.11236121 -0.1684812 0.0433623
000130 67 80 1e bd d0 18 ff 38 5f c9 b7 3d a6 ae 5a be
       -0.038696673 0.00012163969 0.08973955 -0.21355686
000140 de c6 e6 3d a8 a1 73 3d b7 fa 2d be 2d 79 01 be
       0.112684 0.05948034 -0.16990171 -0.12643881
000150 38 cf 38 be ff ed 1e be 1a 33 3f 3d 01 b7 24 3e
       -0.18047798 -0.15520476 0.046679594 0.16085435
000160 da b4 74 bd 9c 33 0c 3d 6a fb cc 3d 7e b4 8e bd
       -0.059742786 0.034228906 0.10008891 -0.0696802
000170 72 6b 11 be be a1 11 be 0e aa f6 3d a7 01 c2 bd
       -0.14201143 -0.14221856 0.12044154 -0.094729714
000180 82 a6 58 3d d1 6c 0e 3b e7 fb 39 be 30 4a b9 3d
       0.05289317 0.002173234 -0.181625 0.09047353
000190 f6 71 06 bd 1b 7a 3b 3e 3e 90 81 bd 9d a5 36 be
       -0.032823525 0.18308298 -0.0632634 -0.17836614
0001a0 73 e9 57 3e d6 c0 57 3e 73 5d 6c bc c8 ea 5b 3e
       0.21085148 0.21069655 -0.014426577 0.2147628
0001b0 b5 30 18 3e 64 f4 63 3d f6 0b c3 3d 17 1d 3b 3d
       0.1486233 0.05565299 0.09523766 0.04568204
0001c0 90 bb 80 3d dc 31 82 bc ca 10 81 bd 57 ab 54 be
       0.06285775 -0.015892915 -0.063020304 -0.20768486
0001d0 61 1f 36 3e e4 06 42 3d c6 9b de 3c 87 7e 46 bd
       0.17785408 0.047369853 0.027173888 -0.04846051
0001e0 7e 99 c1 3d 98 af 1b be 1e 1f 51 3e a4 26 30 be
       0.094531044 -0.15203702 0.20422027 -0.1720224
0001f0 bd 7a c4 3c 4e 26 de bd c3 9c 7f bd a4 f8 48 3e
       0.023984307 -0.1084715 -0.06240536 0.19626099
000200 f0 f9 c0 bd 0f 19 3b 3d 66 e2 0b be 35 cc b5 3b
       -0.09422672 0.045678195 -0.13660583 0.005548025
000210 c0 d8 42 3d 53 cb 65 3e 4e 59 45 3d 6e e4 3f 3e
       0.04756999 0.22440843 0.04818087 0.18739483
000220 fb df de 3b 47 4f 2a 3e cf be 8b 3b 16 3c 29 3e
       0.006801603 0.16631804 0.0042646895 0.16526827
000230 8a c1 3a 3e 60 02 f4 3d f0 88 c6 3d 20 8a 41 bd
       0.18237892 0.119145155 0.096940875 -0.047250867
000240 00 b2 38 be 52 30 b3 bd 5f c7 32 be 2c 3e 9c bd
       -0.18036652 -0.08749451 -0.17458867 -0.07629046
000250 ce 53 25 3e 40 75 7b bc c6 4f 13 3e 24 df 42 3e
       0.1614525 -0.015347779 0.143859 0.19030434
000260 1c cf 23 3e a6 5d 39 3e bb df 2f be 70 cb 34 3e
       0.15996975 0.1810213 -0.1717519 0.1765573
000270 18 b5 f9 bc e2 a4 82 bd 28 10 a1 3c cc d6 26 bd
       -0.03048186 -0.06379105 0.019661024 -0.04073219
000280 22 72 35 3e 8f c2 cf bd c0 5a dc bc f6 cc ac bd
       0.1771932 -0.10144531 -0.026898742 -0.08437531
000290 d5 a1 c1 3d a7 03 34 bd ba 10 f9 3d 1d a9 91 3d
       0.09454695 -0.043948796 0.121613935 0.07112334
0002a0 be 44 10 be 63 c3 14 be 06 a8 a7 3c bf 1b 25 be
       -0.14088723 -0.14527659 0.020465862 -0.16123866
0002b0 e4 2a 63 3e 1a 33 01 3e 08 0b 82 3d c8 32 b2 3d
       0.2218433 0.1261715 0.0634976 0.08701092
0002c0 44 2d f0 3d fd dd 6a 3c 80 a5 c5 bd d6 ee 95 bc
       0.11727384 0.014335153 -0.09650707 -0.018302362
0002d0 cf e6 06 be fd e9 68 3e ae 5b 0a 3e e7 e5 0e 3e
       -0.13173984 0.2274551 0.13511536 0.13954888
0002e0 d9 4a be 3d d3 ff 26 be 25 f8 9e 3d 49 20 b5 3d
       0.0929162 -0.16308527 0.077621736 0.088440485
0002f0 fb 68 94 bd 14 46 8d 3c 7f 7e f4 bd 4c 7d 93 bd
       -0.07246586 0.01724533 -0.1193819 -0.07201633
000300 d0 64 df 3d eb 04 cf 3d f0 e3 2f 3e ac bd 0b 3c
       0.109079 0.1010836 0.17176795 0.008529108
000310 2d f5 80 bd 5a 83 2f be 28 91 10 3e aa ba 60 3d
       -0.062967636 -0.1713995 0.14117873 0.054865517
000320 45 ad 30 3e 6e 9c 0f 3e 0c 01 0c be fd be 3d 3e
       0.17253597 0.14024517 -0.13672274 0.18529887
000330 d2 d8 03 3e 57 3c 38 3d 22 9a dc bd 1c 12 ab bd
       0.12875679 0.04497942 -0.10771586 -0.083530635
000340 4a c9 31 3e 74 a5 1c be ef 41 a0 bd 4f 60 08 be
       0.17361942 -0.1529749 -0.07825076 -0.13317989
000350 7a 9e 9f bd d9 27 54 be 1f 84 84 bd e9 a0 68 3d
       -0.07793899 -0.20718326 -0.064705126 0.05679408
000360 fd 4a 1a be 54 25 63 3e ef a1 3d 3e e1 f5 99 bc
       -0.15067668 0.22182208 0.18518804 -0.018794002
000370 75 ad dc 3d 05 62 8d 3c d0 1d 6f bd 62 a9 f0 bd
       0.10775272 0.017258653 -0.05837804 -0.11751057
000380 32 a7 25 be f7 3b 67 3d 2a b0 32 be 09 3b 8f bd
       -0.16177061 0.05645367 -0.17450014 -0.06993682
000390 a3 4b 0e bd 82 56 d0 3d ce 9a 48 3e 1e 61 44 3e
       -0.0347401 0.1017275 0.19590303 0.19177672
0003a0 f6 16 5f 3e 9a 45 1d 3e bd b3 09 be 39 ad 3e be
       0.21786103 0.15358582 -0.13447471 -0.18620767
0003b0 d6 2a 49 3e 0c 52 8b bd 6f 9c 5f be 01 9c f8 3d
       0.19645247 -0.068027586 -0.21837018 0.121391304
0003c0 45 1b 2d be ea a8 03 3e 20 aa 7e 3c ef e5 bc 3d
       -0.16904934 0.12857404 0.015543491 0.09223544
0003d0 7e 6e 46 3e 84 ca 8f bd c2 9b 01 3e ba 65 89 3c
       0.19378087 -0.07021049 0.12657073 0.01677214
0003e0 0d c0 d8 bd 0e 51 f7 3d da ff 02 be 2b b1 4d 3e
       -0.10583506 0.12076007 -0.12792912 0.20087115
0003f0 94 33 e8 3d ed d7 83 3c 51 4c d3 3d f8 61 19 3e
       0.11337963 0.016094172 0.103172906 0.14978778

layers.0.bias f4 [512]
000000 c6 95 5a be 87 ea 2f 3e 4f 81 34 3e b6 91 4c 3e
       -0.21346197 0.17179309 0.17627452 0.1997746
000010 44 41 36 bd b0 7b 36 3e 09 6f 62 be ec 5a 52 be
       -0.044495836 0.1782062 -0.22112669 -0.20542496
000020 a8 5d 56 bd 7d f2 10 3d 4b 4b 52 3e 6f 70 7b bc
       -0.05233541 0.035387505 0.20536534 -0.0153466305
000030 57 30 b2 3d 41 43 4b 3c 61 ee 59 bc 4e fd 17 3e
       0.08700626 0.012406171 -0.013301463 0.14842722
000040 10 00 9a 3d 9b b5 61 3e 87 c0 06 3e 7c d2 d7 ba
       0.07519543 0.22041933 0.13159381 -0.0016465927
000050 ac 30 9f bd 40 5c 44 bc 7b 3b 18 be 50 6f d0 bd
       -0.07772955 -0.011984885 -0.1486644 -0.10177481
000060 69 cc 2b be b8 d5 52 3d 68 e7 49 3e 40 c0 46 3e
       -0.16777195 0.05147335 0.1971718 0.19409275
000070 37 ca 17 bd 2a d1 2f 3d 5e 7e 7e 3d de fb 8c bd
       -0.03705808 0.042924084 0.062132232 -0.06883977
000080 03 1f 9b 3c e6 92 b8 bd 23 80 14 3e 5a e8 8a 3d
       0.018935686 -0.09012394 0.14502005 0.06782599
000090 8b fc 3f be 66 70 16 3e 64 c2 30 3e b4 04 3b be
       -0.18748681 0.14691314 0.17261654 -0.18263513
0000a0 7e dc fa ba f5 38 64 3e 43 a0 51 bb 75 4c 07 3e
       -0.0019139198 0.22287352 -0.0031986393 0.1321276
0000b0 ff 7a 23 bd d9 f2 36 be d5 b1 5b 3e 90 8b 15 bc
       -0.03991222 -0.17866077 0.21454556 -0.009127513
0000c0 c5 91 7e 3c 8b 8d 9b bd 0f 90 d8 bd f3 16 06 3e
       0.015537684 -0.075953566 -0.10574352 0.13094692
0000d0 39 ef 3c 3d fd 23 f4 bd fe d6 9b 3d 83 f2 86 3d
       0.046126578 -0.11920927 0.07609366 0.06589224
0000e0 2a 25 4e be e4 91 29 be 6e b1 dd bd 06 37 24 be
       -0.20131364 -0.16559559 -0.10824858 -0.16036615
0000f0 cd 4e 82 3d e7 b5 91 bc 88 d8 a8 bd ad 3f 64 be
       0.06362686 -0.017786933 -0.08244425 -0.22289915
000100 3a b3 87 3b 61 4b 2b be fe d0 0c be ae d1 1f 3e
       0.0041412385 -0.16727974 -0.13751599 0.1560733
000110 f7 91 27 3d 4a 3d b2 3d 3d f7 ad 3d da 4b 10 be
       0.040910687 0.08703096 0.084944226 -0.14091435
000120 5f fa 54 3e 4e d4 97 3c c9 5e 84 3d 48 df 91 bd
       0.20798634 0.018533852 0.06463391 -0.07122666
000130 ca db 24 3b b0 77 a2 bd 7b 24 38 3e fc 1b 1b 3e
       0.0025155419 -0.07932985 0.17982666 0.15147394
000140 05 5f 52 3e 32 95 05 3d 23 12 5b be 0a c9 9f 3d
       0.2054406 0.032612987 -0.21393637 0.07802017
000150 2a f1 36 3e 2b ee 88 bd 6a 3f eb bc 12 e0 eb bd
       0.17865434 -0.06686052 -0.028716762 -0.115173474
000160 46 36 41 3e cd 6c 33 3e 58 16 5f 3e 41 17 96 3c
       0.1886836 0.17521973 0.21785867 0.018321635
000170 ff 41 5d be 17 03 e5 bd a2 6d 93 3d 38 d9 d9 bd
       -0.21607207 -0.1118223 0.07198645 -0.10637134
000180 69 04 65 bb 7d 2d 84 bd da 61 d3 bd 7c ff 7c bd
       -0.0034945256 -0.06453989 -0.10321398 -0.061767086
000190 8c 3f af 3c a8 60 cf 3d 8b 84 f9 3d 80 87 b7 3c
       0.021392606 0.101258576 0.12183484 0.022403479
0001a0 d3 d1 de 3d ee 2e 92 3d 68 5c 5a be a9 f0 58 3e
       0.108798645 0.071378574 -0.21324313 0.21185555
0001b0 33 d3 36 be 29 f8 59 3e f7 ff 15 3e 64 95 9d 3d
       -0.17854004 0.21286072 0.14648424 0.076945096
0001c0 1f 09 6b 3d 56 3f 45 3e 65 0d 69 3d 0c 74 c0 3d
       0.057381745 0.19262442 0.05689754 0.09397134
0001d0 f8 fd ea bd b5 f4 95 3d 14 36 1d 3e 7a 81 8b 3d
       -0.11474222 0.07322065 0.1535266 0.06811805
0001e0 eb 31 4b bd a1 9e ca bd 90 8c d0 bd b9 9a 5a be
       -0.049608152 -0.09893537 -0.1018306 -0.21348085
0001f0 24 93 33 3e f1 67 44 bd 5e 2b 93 bd e4 e4 ac bd
       0.17536598 -0.04795069 -0.07186006 -0.08442095
000200 62 2f 26 bc 11 41 19 3e 44 07 11 3e 11 b7 a2 3c
       -0.010143133 0.14966227 0.14162928 0.019862683
000210 bd 18 1b 3e 5d 65 5f bc b8 95 35 bc 34 ec 3a be
       0.15146156 -0.013635007 -0.011083059 -0.18254167
000220 86 fe b8 bd 96 dc 0f be 0e 04 cf 3d 08 a0 5c 3d
       -0.090329215 -0.1404899 0.10108195 0.053863555
000230 29 1d 02 bd 8f cb 4f be db c8 fe bd 36 5c 5b be
       -0.03176609 -0.20292495 -0.12440654 -0.21421894
000240 43 86 24 3e a0 45 8f 3d 4f eb 3f 3b f6 a8 2a bd
       0.16066842 0.06995702 0.0029284542 -0.04166504
000250 5e 03 ed 3d 11 96 f9 bd de 40 cd 3d 1b bb 8b bd
       0.11572908 -0.12186826 0.10022138 -0.06822797
000260 1b 1e f7 39 55 38 56 bd f3 3f e4 3d 80 1d c8 3d
       0.00047133942 -0.052299816 0.1114501 0.09771252
000270 53 27 9e bd 23 06 58 3e b9 85 51 be e6 c8 b4 3d
       -0.07722344 0.21096091 -0.20461167 0.08827381
000280 c7 28 3c be ed 47 24 bd 81 91 be bc 26 77 bd 3c
       -0.1837493 -0.040107656 -0.023262741 0.023128103
000290 36 12 70 3d 0a 9b a0 bd ce f8 16 be 24 f9 32 be
       0.058611117 -0.07842071 -0.14743349 -0.17477852
0002a0 a0 19 52 3d 35 ad f2 bd c8 59 1b 3e 14 a0 ce 3c
       0.05129397 -0.11849443 0.15170968 0.025222816
0002b0 8c 41 e2 bc 68 e6 36 3e c4 f6 89 bd aa a5 5e 3e
       -0.027619146 0.1786133 -0.0673652 0.21742883
0002c0 9c 48 5d be 62 b9 7d 3d 66 a0 ae 3c 5c d4 b0 bd
       -0.2160973 0.061944373 0.021316718 -0.08634254
0002d0 83 5a c0 3d 64 e1 42 3d c8 15 25 be dd 71 10 be
       0.09392264 0.04757823 -0.1612159 -0.14105935
0002e0 4a 74 e2 3d de bb 14 bd aa 59 21 3e 47 7b 1f be
       0.11057337 -0.036311977 0.1575686 -0.1557437
0002f0 03 ba 6b 3d 2a eb cc bc d6 13 d7 bc c5 96 68 3d
       0.05755044 -0.025014479 -0.026254576 0.05678441
000300 78 80 a3 bd fe 44 2c bd 07 66 59 be 62 27 1b 3d
       -0.07983488 -0.042057984 -0.21230327 0.037879355
000310 5d 01 fa 3c 84 17 1c 3e ff 62 15 be 9c 0f cf 3d
       0.030518228 0.15243345 -0.14588545 0.10110399
000320 06 8c a9 bd 19 2a 11 be 84 a4 38 bd 41 39 4d be
       -0.082786605 -0.14176215 -0.04507877 -0.20041372
000330 9d 60 cb bd 9f 1d 24 3e a4 d8 11 be 4d 59 10 be
       -0.09930537 0.16026925 -0.14242798 -0.14096566
000340 c6 19 5c 3e b0 6a 34 be e7 9f 03 be a5 93 2f be
       0.21494207 -0.17618823 -0.12853967 -0.17146166
000350 e2 e6 34 be f2 71 0f be c5 6a 0c be 92 21 db bc
       -0.176662 -0.1400831 -0.13712604 -0.026749406
000360 a9 5f 7e 3d 99 24 2b be c6 47 be bd bb 16 0f 3d
       0.062102947 -0.1671318 -0.092910334 0.034933787
000370 ec 4a 51 be 51 2e 64 bd 35 7b 4f 3e 36 c1 1a 3e
       -0.20438737 -0.055708233 0.20261844 0.15112767
000380 cc 6a 07 bd 96 3c 86 3d fb f0 4b 3e c4 88 ef 3c
       -0.033060834 0.065545246 0.19916146 0.02924002
000390 cc 03 21 be b0 1e 5a 3e b0 9a db bd fe 87 05 be
       -0.15724105 0.21300769 -0.10722864 -0.13040158
0003a0 1f 93 2a 3e 9d a1 c3 bd ef 97 37 be d8 f7 48 be
       0.16657685 -0.0955231 -0.17929052 -0.19625795
0003b0 41 6a 57 be 31 5d 57 3e 76 93 50 be 36 6a 14 bc
       -0.21036626 0.21031643 -0.20368752 -0.009058526
0003c0 5f 0f 52 3c 35 3d 18 be 3c 83 4d 3e 09 d3 51 be
       0.012821048 -0.14867099 0.20069593 -0.2049066
0003d0 66 72 3a 3e 70 cf 12 3e d3 d7 27 be d8 4c 50 3e
       0.18207702 0.14336944 -0.16390924 0.20341814
0003e0 92 0f 3e be 99 0e 61 3e cc b2 5e bd 96 ef 05 bd
       -0.18560627 0.21978225 -0.054369733 -0.03269919
0003f0 ac 0e 55 be b0 bb bd 3d 25 83 43 3e c0 b0 4b 3b
       -0.20806378 0.09264314 0.19092996 0.0031080693

layers.2.weight f4 [128, 512]
000000 53 88 0d 3d cf 28 04 bd 80 8e 84 bb 62 91 0a bd
       0.034553837 -0.03226548 -0.0040453076 -0.033830054
000010 97 05 12 3b 8e 72 a4 bb f5 3a f1 3b 30 2f f3 3b
       0.0022281164 -0.005018539 0.0073617646 0.0074213967
000020 76 44 38 bd df 9a f0 bb 76 2c 41 bd 03 32 7c bc
       -0.044987164 -0.007342681 -0.047161542 -0.015392783
000030 3b 59 23 bd af b0 10 3d ab d7 05 3d e6 5e ae 3c
       -0.03988002 0.03532475 0.03267638 0.021285485
000040 9c 72 39 3d d8 63 df bc 9f 68 2f bd 52 4d 19 3d
       0.045275316 -0.027269289 -0.042824384 0.037427254
000050 54 33 86 3c e3 36 31 bd fe b7 25 3c ef e5 d7 3c
       0.016381897 -0.043265235 0.010114668 0.026354758
000060 ca 96 ab 3c 3e 24 c8 bc 40 8e af bc 94 ca 21 bc
       0.020945925 -0.024431344 -0.021430135 -0.009874959
000070 72 dd 9f bc f2 b5 1e bd 30 a0 46 3c 44 00 ca 3c
       -0.019514773 -0.038747735 0.012123153 0.02465833
000080 dc 53 96 bc a6 9a c3 bc 55 c5 13 bc 68 af b1 3c
       -0.018350534 -0.023877453 -0.009019216 0.021690086
000090 c0 fc 08 bb a2 c4 18 bd 24 98 b8 3c c4 ed 14 bd
       -0.0020902604 -0.0372969 0.022533484 -0.036359563
0000a0 76 7d df 3c e6 bc c6 3c 76 a3 26 3c 33 41 35 bd
       0.027281504 0.024259996 0.010170808 -0.044251632
0000b0 d0 66 0e bd d2 60 0c bc 6c 2e a4 3c 25 f0 ed bb
       -0.03476602 -0.008568006 0.020041667 -0.0072612935
0000c0 96 7a 39 3d 82 a7 f4 3c a9 86 64 3c e2 c7 03 bd
       0.045282923 0.02986503 0.013948121 -0.032173045
0000d0 0c 28 5f 3b 92 37 21 bd a6 0a bb bc 39 18 26 bd
       0.003405097 -0.039359637 -0.022832226 -0.040550444
0000e0 c6 76 09 3d bd 7f a5 bb ce cf 1f bd 9b 2e ed bc
       0.033560537 -0.005050628 -0.039016537 -0.028952887
0000f0 5e 0b ea 3b 93 84 b4 bc 0a 7d fc 3c f7 96 11 3d
       0.0071424684 -0.022035873 0.030821342 0.035544362
000100 43 3e df 3b 72 ef d1 bc d2 27 2b bd ef 5d 89 bc
       0.006812842 -0.025626872 -0.041786022 -0.016768424
000110 38 e3 a3 3c f1 8b 2b bb 91 ed 10 3d 85 44 ed bc
       0.020005807 -0.002617594 0.03538281 -0.028963337
000120 e3 a1 ff 3c 6a 88 be bc de 90 a5 3c a1 25 b7 3c
       0.031205123 -0.023258407 0.02021068 0.02235681
000130 8c d0 a3 3b a2 bb 8a 3c e8 35 d7 3c 1c c6 dd bc
       0.004999226 0.016935173 0.026270822 -0.027072005
000140 17 a7 ee bc 73 8d 2f bc e8 76 c8 3c 3d c2 f7 3c
       -0.029132409 -0.010714876 0.024470761 0.030243987
000150 e5 c7 e6 3c ad cb 05 bd a8 c1 a1 ba a9 2e fd bc
       0.028171489 -0.032664943 -0.0012341039 -0.030906038
000160 d5 4c f5 3c f9 3d 32 3a ec 23 94 bc e4 f6 f8 bc
       0.029943863 0.0006799396 -0.018083535 -0.030391164
000170 72 67 1d 3d 55 9d 97 3b 08 28 9b 3c f2 20 27 3d
       0.03842873 0.0046269097 0.018939987 0.040802903
000180 6d dd 02 bd da d7 1e 3d d1 f9 03 3d 29 ee c3 bc
       -0.03194945 0.03878007 0.032220665 -0.023917275
000190 e7 23 12 3d ae 06 25 bc c7 ea 2b bd 22 49 15 bd
       0.03567877 -0.010072393 -0.041971948 -0.036446698
0001a0 60 e1 e9 3c be 97 c3 3c 4a ea 81 3c b6 88 29 3d
       0.02854985 0.023876067 0.015858788 0.041390143
0001b0 09 22 bf 3c 94 66 2e bc 56 51 64 bc f8 0c 83 bc
       0.023331659 -0.010644574 -0.013935408 -0.015997395
0001c0 41 a8 1d bb 99 45 ac 3a ac 9b e9 bc 21 d9 c2 3c
       -0.0024056586 0.00131433 -0.028516613 0.023785176
0001d0 34 89 e2 3c ac 6b ba 3c 96 95 2b 3a 2b a1 d1 bb
       0.027653314 0.02275642 0.00065454224 -0.0063973865
0001e0 81 cb 8e bb 01 37 1f 3c a3 58 ba bc ee 4a 9e bc
       -0.0043577556 0.009717704 -0.022747343 -0.019322839
0001f0 cf 17 08 bd 00 9d 45 36 63 dd d7 bc 42 f4 25 bd
       -0.03322583 2.9446674e-06 -0.026350683 -0.040516146
000200 65 f1 26 3d d6 8e fb 3c a3 bf 2b 3d d3 4c fd bc
       0.040757556 0.030707758 0.041930806 -0.030920422
000210 37 a6 9a 3c d2 06 11 bb 3e 89 96 3c 00 0b c7 bb
       0.018878086 -0.002212931 0.018375989 -0.0060743093
000220 f6 bf eb bc ca 96 c9 3c 5c 75 9c bc 98 68 af bc
       -0.028778058 0.024608035 -0.01909893 -0.021412179
000230 24 9a 80 3c 6b 6f be 3c 09 53 ca 3b 87 1f 0c 3d
       0.0156985 0.023246488 0.0061744493 0.034209754
000240 cb 52 be bc db 98 5c 3c 93 1f d4 3c 6e 4a cf 3c
       -0.023232838 0.013464178 0.025893962 0.025304046
000250 18 73 fe bc d7 ea 4b 3c 5e fc ff 3c 96 4e 11 3c
       -0.03106074 0.012446127 0.031248268 0.008868834
000260 88 e7 c0 bc 56 18 c7 bc 48 27 16 bd ca a2 fb 3c
       -0.023547903 -0.024303596 -0.036658555 0.030717272
000270 17 7b 91 bc 19 cd ad bc f2 aa a9 3c 67 fa a1 3c
       -0.01775889 -0.021215962 0.020711396 0.019772721
000280 f5 d4 c7 bc aa 01 f9 bc 15 f2 00 ba bd 44 17 3d
       -0.024393538 -0.030396301 -0.00049188855 0.03693079
000290 f8 68 6a 3c 34 40 19 3d 08 72 31 3d 6e 6e 2f 3b
       0.014307253 0.037414744 0.04332164 0.0026768702
0002a0 d0 b9 47 3c 36 39 f5 3c cb d4 e7 3c df b4 33 bd
       0.012190297 0.029934507 0.02829971 -0.043873664
0002b0 6a 3b 2f 3d 82 7e e4 bb 18 e3 02 3c 5d 81 2d 3d
       0.04278127 -0.0069730887 0.007988714 0.0423597
0002c0 81 cb 10 bd 26 13 14 3d 86 48 9d 3c 6b ad ab bc
       -0.035350326 0.036151074 0.019199621 -0.020956716
0002d0 fc 19 5f bb a1 4d f1 3c d7 f9 b3 3b 55 07 25 3d
       -0.0034042588 0.029455962 0.0054924297 0.040290195
0002e0 ee 79 03 bb a7 1d dc ba 34 3b 24 bd 3c 42 71 bc
       -0.002006169 -0.0016793505 -0.040095523 -0.014725264
0002f0 d3 fd 20 bd 4e 53 1b bd d6 63 ac bc 9e 39 77 3c
       -0.039304566 -0.037921242 -0.0210437 0.015089421
000300 9f 33 36 3d 68 f2 29 3c 74 6e 07 bd 74 60 25 3d
       0.044482823 0.010372736 -0.03306432 0.040375188
000310 94 fa bb bc 02 a7 bf bc 90 67 08 bd 67 1c 93 bc
       -0.022946633 -0.023395065 -0.03330189 -0.01795788
000320 af 2a f7 3a a3 e4 c5 bc 5e 66 12 3d 00 c8 7f b8
       0.0018857325 -0.024156874 0.035742156 -6.0983002e-05
000330 dc c2 e9 ba 7a 3c ad 3c a7 79 96 bc a0 78 30 bc
       -0.0017834562 0.021147002 -0.018368555 -0.010770947
000340 6d fc bf 3c f3 c1 ed ba b7 66 e8 bc 7b 38 a3 bc
       0.023435796 -0.0018139466 -0.02836929 -0.019924393
000350 2b 4d 15 3c 61 1c 01 bd ac 28 33 3c c7 b1 d4 3c
       0.009112637 -0.031521205 0.01093499 0.025963677
000360 55 a7 19 3d d3 cb 81 bc 5a a2 56 bc b0 de 71 38
       0.037513096 -0.015844261 -0.013100231 5.766627e-05
000370 b0 44 1e 3b 1f e4 3f bd 83 cf f5 3c 17 30 0c bd
       0.0024149828 -0.046848413 0.030006176 -0.03422555
000380 5b 45 8b bb d1 41 05 bd 51 a9 d1 bc 2a fd 79 bc
       -0.004250211 -0.03253347 -0.025593432 -0.015258113
000390 83 3c 28 3d 16 9a 13 bc c0 b6 86 3c f5 e2 c7 bb
       0.041073333 -0.009008905 0.016444564 -0.0061000534
0003a0 d5 04 f1 bc c0 b8 31 3c 1e 04 cc 3c a3 a4 be 3c
       -0.02942125 0.0108472705 0.024904307 0.023271864
0003b0 3c ea 3e 3d 9e 23 8c bc 43 01 82 bc fc cc da 3c
       0.046610102 -0.017106827 -0.015869742 0.026709072
0003c0 c2 96 13 3d 44 78 0b 3d 9b 6b 99 3b ce d8 e3 bc
       0.036032446 0.03405024 0.004682017 -0.027813341
0003d0 4b 34 02 3c 38 88 67 bc 28 60 f1 3c 46 f5 84 bc
       0.007947038 -0.014131598 0.029464796 -0.016230237
0003e0 6e a4 46 3c 1e 02 b8 3c 67 ab 55 3c 43 90 1e bd
       0.012124164 0.022461947 0.013041354 -0.038711797
0003f0 8f fa 30 3d c1 c6 89 bc d3 05 ca 3c ec ea 09 3c
       0.0432077 -0.016818406 0.02466098 0.008417826

layers.2.bias f4 [128]
000000 7e 14 4b 3c c0 a5 9c 3c 15 ef 1b 3c 10 91 ac bc
       0.012395022 0.019122005 0.009517451 -0.021065265
000010 8c 3e 7a 3c de 5d 2a bc df 71 52 3b 13 3c d8 bc
       0.015273701 -0.010398356 0.003211133 -0.026395833
000020 cc 4e e2 bc d3 87 e8 bb 2a 41 c2 3c 84 ac df 3c
       -0.027625464 -0.0070962696 0.023712713 0.027303942
000030 0a 10 d6 bc 36 03 08 3d 4b 5c 1e bb a2 27 2d bd
       -0.026130695 0.033206187 -0.0024163898 -0.042274125
000040 1d 02 9d 3c 5b 9e 08 bd 29 e3 c0 bb dd 2f 84 3b
       0.019166047 -0.033354145 -0.0058864546 0.004034026
000050 2b 83 f6 bc 2c c9 4a 3c 14 c5 c3 3c 25 de 16 bd
       -0.030091843 0.012377065 0.023897685 -0.036832947
000060 d5 9f 97 bb 98 04 b2 bb a6 7f 12 3b c8 60 9b bc
       -0.0046272078 -0.0054326765 0.0022353916 -0.018967047
000070 4c c0 4f 3c 77 da bf bc ae 91 68 ba d7 8a 9c bc
       0.0126801245 -0.023419602 -0.00088718056 -0.019109173
000080 a5 47 b5 bc 95 7b 2e 3d e0 93 b8 ba 69 f0 2e 3d
       -0.02212889 0.042598326 -0.0014082156 0.04270974
000090 cb ad 8e 3c cc 70 3e b9 8f b7 8a bb 1d 90 4c 3c
       0.017416855 -0.00018161832 -0.0042333077 0.012485531
0000a0 4b 6f 8d 3c 7a bc 24 bd 17 41 0a 3d fa 59 12 bd
       0.017264983 -0.040218808 0.03375348 -0.03573034
0000b0 ea ec 07 bd f9 82 34 bd e9 b2 00 bc 06 0f c8 bc
       -0.033184923 -0.044070218 -0.0078551555 -0.024421226
0000c0 18 c0 df 3c 46 f0 f8 bb bc 2f da 3b 62 31 97 3c
       0.027313277 -0.007597002 0.0066585224 0.018456165
0000d0 4f 58 1b 3d 10 81 fb 3c 82 9d 54 3c 9c 6d 2c bc
       0.037926015 0.03070119 0.012977006 -0.01052418
0000e0 77 dc 83 3b f5 bf 6c 3c af 6e 17 bd 45 a2 0a 3c
       0.004024084 0.014450063 -0.03697079 0.00846154
0000f0 84 10 c8 39 a7 0f 18 bd 7e c4 0e 3d e6 32 4a 3c
       0.00038159278 -0.037124302 0.03485536 0.012341237
000100 47 2e 0c bb 9a e9 cd bc 12 85 02 3d 88 d5 c4 3c
       -0.0021389888 -0.025135804 0.031865187 0.0240276
000110 63 bf 04 bc b2 f7 cf bc 2c ad 1f bd 8d c6 0a 3d
       -0.008102271 -0.025386665 -0.03898351 0.03388076
000120 e2 89 47 3c f5 d5 cb 3c d5 07 02 bc 0a a3 b3 3c
       0.01217887 0.024882296 -0.007936438 0.021928329
000130 15 b8 26 3d 32 05 f3 3c b1 d7 09 bd 68 3f 38 bc
       0.040702898 0.029665563 -0.033652965 -0.011245586
000140 b7 01 85 bb cd 7d a3 3a 1b 8f c5 3c 4f 37 27 3d
       -0.0040590423 0.0012473405 0.02411609 0.04082423
000150 83 97 08 bd 58 e8 07 3d c2 ab c0 3c 34 74 07 ba
       -0.033347618 0.033180565 0.0235194 -0.0005167157
000160 48 13 b4 3c a7 92 10 3c 33 17 2e 3d d1 db 2d bc
       0.02198185 0.008824027 0.042502593 -0.01061149
000170 e9 68 27 3d c9 e7 93 bc 9d ba 0f bd 38 b1 fe 3b
       0.040871534 -0.01805486 -0.035090078 0.007772591
000180 d0 3b 76 3c ed fd 13 bc 43 ec d5 3c c6 32 1a 3a
       0.015028909 -0.009032709 0.026113635 0.00058821996
000190 ae 56 ed 3b a3 e3 11 bc 51 fe a9 3c 7a d2 10 bb
       0.007242999 -0.0089043705 0.02075115 -0.002209811
0001a0 70 2a 19 3d f7 67 97 3c 45 d7 94 bc 60 4a 0a 3b
       0.037393987 0.018482191 -0.018169055 0.002110146
0001b0 08 3b 02 3d 5b 4b f3 bc ad 0f c8 bc e2 93 f5 3c
       0.031794578 -0.029699018 -0.024421537 0.029977743
0001c0 f6 e0 01 bc 49 a8 12 bd a5 b9 33 bd b0 01 9b 3c
       -0.00792717 -0.03580502 -0.043878216 0.018921703
0001d0 fe f4 05 bd eb ec 0b 3d 18 ed 09 bd 96 94 06 bd
       -0.032704346 0.03416149 -0.033673376 -0.032856546
0001e0 a1 5c 55 bc cf 88 0a bd 1f 62 8d bc ea 07 0e 3c
       -0.013022573 -0.033821877 -0.017258702 0.008668879
0001f0 82 d0 00 bc 6d 7b c3 3c cf 38 80 bc 34 8b 75 3c
       -0.007862212 0.023862565 -0.015652088 0.014986802

layers.4.weight f4 [9, 128]
000000 16 81 a9 3d 98 ff 95 3d 01 ba 5d 3c 34 3c 70 bb
       0.08276574 0.07324141 0.013533116 -0.0036656978
000010 17 65 99 bd df a1 43 bd 5a 52 a9 bd 20 63 93 bc
       -0.074899845 -0.047761794 -0.082676604 -0.017991602
000020 fd ec 0a bd a4 2c cc 3c bd 73 d9 3c 04 11 26 bd
       -0.033917416 0.02492363 0.026544446 -0.04054357
000030 00 c5 a7 bc c2 e5 af 3d 98 22 94 bd 86 4e 1b 3d
       -0.02047968 0.08588745 -0.07233161 0.037916683
000040 0e 08 d0 3c af d4 2e 3d 66 84 9c bd 60 ef 93 bc
       0.025394466 0.0426833 -0.076424405 -0.018058479
000050 d1 4d 36 3d 81 86 4c bd 30 c9 ad bd a9 90 87 3d
       0.044507805 -0.04993296 -0.08485639 0.066193886
000060 f8 70 50 3d 84 81 ec 3c 88 8b 29 3d ff ea 1a bd
       0.050888985 0.028870352 0.041392833 -0.037821766
000070 99 ef 3f bd a6 5b 77 3d 90 26 33 bd fd bd 8d bd
       -0.046859358 0.060390137 -0.043737948 -0.06921003
000080 72 a1 12 3d 64 f9 7f 3d 61 ce 9f 3d af 9a 66 bd
       0.035798497 0.062493697 0.078030355 -0.05629986
000090 61 c9 50 bd fa be aa 3d cf 98 a1 3b ac a8 39 bd
       -0.0509733 0.08337207 0.0049315463 -0.045326874
0000a0 74 b7 fa bc ee 06 cf bc 0f d8 a5 bd 7e fe 76 3d
       -0.030605055 -0.025271859 -0.080978505 0.060301296
0000b0 00 43 b2 39 04 2b 15 bd 7b f0 68 bc 24 19 a5 bc
       0.00034000725 -0.036417976 -0.014217491 -0.02015359
0000c0 b5 4b 7d 3d 55 e9 ad 3d 95 03 9d bd 22 3f 5a 3d
       0.061839778 0.0849177 -0.07666699 0.053282864
0000d0 68 16 35 3b a3 a0 92 bd 6b e6 81 3c 60 f7 11 3d
       0.0027631763 -0.07159545 0.015856942 0.035636306
0000e0 59 0d a4 bc fd bc be 3b 20 83 62 3d e0 6a dd 3c
       -0.020025896 0.005820869 0.05530083 0.027028501
0000f0 2c e4 a4 3c f6 d5 9b 3d ad f4 ac bc 18 7b 4c bc
       0.020128332 0.07609169 -0.021112764 -0.01248052
000100 76 e0 12 bd 16 26 67 bd e4 07 21 bd fa 5b 59 3c
       -0.035858594 -0.056432806 -0.039314166 0.013266558
000110 c9 0c bc bb 2d 8d 93 bd 73 81 4b 3d ea 16 dc 3a
       -0.005738829 -0.072046615 0.049684 0.0016791497
000120 2b c2 0d bd dc c3 62 bd 45 29 17 bc 57 e8 83 3d
       -0.034609 -0.055362567 -0.009226148 0.064408
000130 7a e0 af bd 68 a8 81 3c 39 7b 91 bd 84 6c 77 bb
       -0.085877374 0.015827373 -0.07103581 -0.003775389
000140 27 d8 a5 3d 74 db 20 bd ea b4 96 3d e0 a9 9d 3d
       0.080978684 -0.039271787 0.07358725 0.07698417
000150 83 eb 74 3d 1b 2f 6a 3d 20 0f ad 3b fb ce 97 bd
       0.059794914 0.05717383 0.005281344 -0.07412525
000160 65 3f dc 3c 70 1e d4 38 28 09 a8 bd 33 d9 a3 bd
       0.026885698 0.00010114617 -0.082048714 -0.08000412
000170 3c e8 ed bc 33 08 59 3d 79 c3 7a 3d 96 5d 19 3d
       -0.029041402 0.052986335 0.061221574 0.037442766
000180 f6 23 25 bc 0d 94 a9 3d 4a 71 b5 3d c5 b0 a9 bd
       -0.010079375 0.082801916 0.08859499 -0.08285669
000190 f6 ca 23 bd 00 08 c0 3b a5 7f 2b bc 1b 04 aa 3d
       -0.03998848 0.0058603287 -0.010467445 0.08301564
0001a0 15 38 b2 bb e0 c3 f9 bc fe 3f 34 bc 47 e5 8b bd
       -0.0054388144 -0.030488908 -0.011001585 -0.068308406
0001b0 6f 43 2a 3d 60 2b fd bb e8 eb a8 bd b8 ae ad bd
       0.041568216 -0.007726118 -0.082481205 -0.084805906
0001c0 cb b9 79 3d cb 4b c4 3b 5e ac 36 bd de bd 76 3d
       0.0609682 0.0059904805 -0.044597976 0.060239665
0001d0 e3 e5 b1 3d 30 56 b0 bc f1 07 65 3d 8d d8 17 bd
       0.086864255 -0.021525472 0.055915777 -0.037071753
0001e0 01 2e 95 bd 9a e9 f4 3c 23 46 01 3d f6 42 92 3c
       -0.07284165 0.029896546 0.03156103 0.017854195
0001f0 51 75 b1 bc 81 12 05 bc f6 8c b2 3c 8c 75 be bc
       -0.021662386 -0.008122087 0.021795731 -0.02324941
000200 0b 37 25 bd 8a 8a 96 3d 48 02 ff 3c 05 1b 79 3d
       -0.040335696 0.07350643 0.031129017 0.060816783
000210 fa 54 85 bd fe e0 e6 3c 43 97 f5 bc b0 a0 f0 bc
       -0.065103486 0.028183457 -0.029979354 -0.029373497
000220 34 34 a8 3d a6 e3 88 bd a4 45 89 bd 08 40 68 bd
       0.08213082 -0.066840455 -0.06702736 -0.05670169
000230 ae 50 b3 bd 7b 3d 3e bd be 49 ac bd 6c 1f 06 3d
       -0.08755623 -0.04644535 -0.08412503 0.03274481
000240 f0 5b 1c bd ed 3f 48 3b 17 b1 b5 bb 52 f5 f3 3c
       -0.038173616 0.003055568 -0.0055447924 0.029780064
000250 ab 88 e4 3b 6d 1e 2f bd 46 2b 05 3b 53 04 a4 3d
       0.0069743 -0.042753626 0.0020319982 0.08008637
000260 47 04 3a 3d d8 0d ba bc f3 46 9e bd 31 d7 13 3c
       0.045414235 -0.02271168 -0.07728376 0.009023474
000270 98 50 11 bd 68 7a 0a bc aa 7e 90 bd 9f 7c 01 3c
       -0.03547725 -0.0084520355 -0.07055409 0.007903247
000280 4e 2d 3e 3d 4b 98 9c 3b 7d 63 9f 3d e0 96 26 bd
       0.046429925 0.004778897 0.07782648 -0.04067123
000290 63 73 51 3d 64 c5 b5 3d 7c 33 81 3c c5 b1 83 bd
       0.051135432 0.0887554 0.01577162 -0.06430391
0002a0 a2 01 7e bc b5 77 67 3c 49 5e 34 3d ed b3 fb bc
       -0.015503319 0.0141276615 0.04403523 -0.030725444
0002b0 67 f0 93 3d 7b 36 b3 bd a9 c1 ec 3c 92 a9 93 ba
       0.072235875 -0.08750626 0.028900938 -0.0011265746
0002c0 87 6f b2 bd 8f ff 85 bd 94 2e f3 3c ce 00 31 3d
       -0.087126784 -0.065428846 0.029685296 0.043213658
0002d0 08 51 91 bd 02 d7 93 3a 8e d3 84 bd c8 1f 8a bd
       -0.070955336 0.0011279287 -0.06485663 -0.06744343
0002e0 e2 00 66 bd 27 53 0c bd 73 3d ce bc 1b 40 3e 3c
       -0.056153186 -0.034258988 -0.025175786 0.011611964
0002f0 74 ca f2 bc 07 ab ad bc d5 ee ff 3c 81 1e 65 3c
       -0.029637553 -0.021199716 0.031241814 0.0139843235
000300 e7 20 2f 3c 84 1a 3e 39 a9 68 fd 3c 11 f9 f5 39
       0.010688997 0.0001812969 0.030933695 0.0004691561
000310 d7 0c db bb 66 3e b6 bd 80 98 8c 3d 65 29 2b bc
       -0.0066848802 -0.0889862 0.068650246 -0.010446881
000320 c8 d0 ed bc 63 d2 51 3d 4a 4a 9f 3d 96 9a 84 bc
       -0.029030219 0.05122603 0.077778414 -0.016186994
000330 d6 ac ae 3c 5e 34 7f bd ac d7 94 bd c3 7f 62 bd
       0.021322649 -0.0623058 -0.07267699 -0.055297624
000340 a6 89 ac bd 38 f9 85 3d 3d 69 a4 bd 6e 4e fa bc
       -0.08424692 0.06541675 -0.08027885 -0.030554976
000350 67 f5 2e bd 99 f2 03 3d f6 53 9c bd 2d 5a 8b bd
       -0.042714503 0.03221378 -0.07633202 -0.06804309
000360 c0 af 6a 3d f7 85 16 bd cd 49 06 bd be 0d 78 3d
       0.057296515 -0.036748853 -0.032785226 0.06055998
000370 ce 93 16 3d 1d 3d 1a 3c 66 0a 80 bd 30 5c 1a bd
       0.03676205 0.009413985 -0.06251983 -0.037685573
000380 1a 88 fb 3c c0 4f 2d 3d d8 ad 13 3d 3a 6a 68 bd
       0.030704547 0.042312384 0.036054462 -0.05674193
000390 ca 3b ab 3d 84 8b 9b bd 40 1b 18 bc f7 a2 22 3d
       0.08361013 -0.0759497 -0.009283841 0.039706197
0003a0 30 50 99 3c 92 c2 29 bc ac 34 98 3d 88 70 2d bc
       0.018714994 -0.010361331 0.07431921 -0.010585912
0003b0 de 92 8b bd e6 8f 29 3d 6c c8 f3 3c 35 95 a2 3d
       -0.06815122 0.041396998 0.029758655 0.07938615
0003c0 a1 0b 0b 3c c2 ac 6d 3d 6d 33 81 3d cb 0a 26 bb
       0.008486659 0.058026083 0.06308637 -0.0025336023
0003d0 61 1c 80 bd 1e f8 d3 bc 06 10 b2 bd d2 50 b5 bd
       -0.06255413 -0.025875147 -0.086944625 -0.08853306
0003e0 f7 e8 46 3d 48 e5 a2 3c 8b b1 35 3c 7f e3 b1 bc
       0.048562016 0.01988472 0.011089693 -0.021714924
0003f0 db 91 37 3d 04 bf aa 3d 93 8c 8a 3d c8 4f 8f 3d
       0.044816833 0.083372146 0.06765094 0.06997639

layers.4.bias f4 [9]
000000 95 2c 0f bd 16 f8 9b bc 1e 44 5b 3d ec 81 18 bd
       -0.034954626 -0.019039195 0.05353176 -0.03723328
000010 be a6 8c 3d 9c 31 a7 3b a4 fb 25 3d 06 04 97 bc
       0.06867741 0.0051023494 0.040523186 -0.018434536
000020 5b c1 b0 3c
       0.021576574
