trained_model.pt (torch, 239511 bytes, 6 tensors)

layers.0.weight f4 [512, 14]
000000 0a fa 42 3e a5 3a 2a 3e 50 5a f2 3c d0 53 87 be
       0.19040695 0.16623934 0.02958408 -0.2643113
000010 c8 79 6c bd 6a d1 11 3e 4c 64 6c be 6e e5 bb bd
       -0.057733327 0.14240041 -0.23085135 -0.091746196
000020 61 72 66 be 2a 30 24 3e 48 ce a6 bc 0c 32 a3 3d
       -0.2250457 0.16033998 -0.020362034 0.0796853
000030 38 45 79 3d c5 74 cd bd 36 de 90 be 8e 9d 90 3d
       0.060857028 -0.10032038 -0.28294533 0.07061301
000040 76 ae 7c 3e 21 18 5b 3e e5 09 8d bc 3d 86 d2 bd
       0.24675927 0.21395923 -0.017216632 -0.1027951
000050 33 66 a7 3d 59 3a 09 be f2 b0 db bd c2 b1 59 3e
       0.0817379 -0.13401164 -0.10727109 0.21259215
000060 2d 91 18 bd f1 2b 82 bc a5 2b b9 3d 75 99 2f be
       -0.037247825 -0.015890094 0.09041528 -0.17148383
000070 c5 da 36 be 9d 37 17 be f0 e1 d3 3c cc 3e 27 3c
       -0.17856891 -0.14767309 0.025864571 0.010207843
000080 47 b6 ef 39 d7 bf 85 bc 2a 86 1f 3d 30 49 9e 3d
       0.0004572144 -0.016326828 0.03894631 0.07728803
000090 d9 7c a2 3d ac 98 05 3e b5 82 8a 3e 4f d0 60 be
       0.07933969 0.13046521 0.27052847 -0.21954463
0000a0 ea e9 2c ba 45 69 40 be fe 6b ec bc 66 71 8d bc
       -0.0006596135 -0.18790157 -0.028860088 -0.017265987
0000b0 e4 42 12 bd 29 6b 07 3d a7 98 a2 3e a2 94 8b 3e
       -0.035708323 0.03306118 0.3175709 0.27261835
0000c0 9f 8e 48 3e bf 5e 19 3e 27 f1 0b 3d 18 e3 5c bd
       0.19585656 0.14977549 0.034165528 -0.05392751
0000d0 24 40 52 bd 1a d7 9b bc 4e af 57 bd f6 5e 84 be
       -0.0513307 -0.019023467 -0.052657418 -0.258537
0000e0 1a 0f e0 3d 55 03 81 3e 48 e1 35 3e 2e 27 73 be
       0.109403804 0.25197855 0.17761719 -0.23745415
0000f0 2a a0 ac 3d 0c d9 21 3e 7d 88 c8 3d 86 d4 57 be
       0.08428986 0.15805453 0.09791658 -0.21077165
000100 2d e3 92 bd 20 da ca bc dd 9f 7e be d7 00 45 bd
       -0.071722366 -0.024762213 -0.2486567 -0.048096504
000110 48 28 63 bc 85 fc 12 be e3 34 ab 3d 17 86 c8 3c
       -0.013864584 -0.14354141 0.08359697 0.024478002
000120 c2 ae 7b 3e 39 84 53 ba 68 92 27 3e 9e e4 67 be
       0.24578384 -0.0008068714 0.16364443 -0.22645804
000130 5a 98 45 3e eb ed 38 3e d3 e7 17 be 50 91 bb 3c
       0.19296399 0.18059509 -0.14834528 0.022896439
000140 27 40 06 be 01 bd 5f 3e fe 2a 04 be a2 24 81 3e
       -0.1311041 0.21849443 -0.12907025 0.2522326
000150 b2 3f fa bd d3 a9 81 3e f0 48 3c be c4 d7 2b be
       -0.1221918 0.25324878 -0.18387198 -0.16781527
000160 84 9c ca 3d 7a 07 bd bd 55 93 fa 3d 28 6e 5f 3d
       0.09893134 -0.09229942 0.122351326 0.054548413
000170 fd 39 64 3e 20 a5 55 be 5b cc f1 bd 38 f1 d5 3a
       0.22287746 -0.20863771 -0.11806556 0.0016322499
000180 ed 25 8f 3d 81 95 ab bd b0 03 5b be 6c bc 80 be
       0.06989656 -0.08378125 -0.21388125 -0.25143754
000190 cf 81 0b be 74 e3 a5 3e c1 f2 1a 3e 8e ea 5d be
       -0.13623737 0.32400095 0.15131666 -0.21671507
0001a0 7e fb fe bd 6a cf 0f 3e a1 10 4c 3e 46 86 12 3e
       -0.12450312 0.14043966 0.19928218 0.14309034
0001b0 66 de 4f 3e 66 0d d1 bd 1f 93 75 be 49 14 f9 bc
       0.20299682 -0.10207634 -0.23981903 -0.03040518
0001c0 dd 7a 3e 3e cb be 54 3d fe cb 48 3e e5 ea 97 bd
       0.18601556 0.051939767 0.19609067 -0.074178495
0001d0 05 e1 76 3e a7 02 20 3a 3a e4 3e 3e 1d fd 8b 3d
       0.24109276 0.0006103911 0.18641749 0.06835387
0001e0 af 01 16 3e 9e 3f ed bd 58 0d 7d be cf 1e 75 3c
       0.1464908 -0.115844 -0.24712121 0.014960959
0001f0 a7 57 ff bd 77 10 8b bd f6 aa 9e bd db 14 17 3e
       -0.1246789 -0.0679025 -0.07747452 0.1475405
000200 4a 05 9b bd ec bd 5d be 81 b8 97 be c6 a0 e6 bd
       -0.07569368 -0.2165448 -0.29632953 -0.11261134
000210 be 86 42 be 6d 2c 8f 3e e6 69 44 3e 68 21 11 be
       -0.18996713 0.27963582 0.19181022 -0.141729
000220 db 8f 58 bc 94 e3 8a be e6 95 07 bd 1f ad 87 3e
       -0.013217892 -0.27126753 -0.03310194 0.26499268
000230 1a 7b f0 bd 2c c6 45 be dc a9 6a 3e 05 2f 4d 3e
       -0.1174223 -0.19313878 0.22916359 0.20037468
000240 14 84 16 be 0a 8d 35 bd fa 43 38 3e 3b 6f 51 be
       -0.14698821 -0.04432396 0.17994681 -0.20452587
000250 b4 9b d3 3d f2 f9 7c 3e 67 94 23 be 62 6f d1 bd
       0.103324324 0.24704722 -0.1597458 -0.10226323
000260 07 c6 82 3d 36 d2 9d be 8f 9e ce 3d 13 c5 8b 3d
       0.06385427 -0.3082444 0.100888364 0.06824698
000270 dc 75 28 3e 9e 4f ba 3d 8f ab b7 3d 6c ce db 3d
       0.1645121 0.09097217 0.08968269 0.10732731
000280 0f 32 5e 3e 87 bd c4 bd 72 a5 05 bd b8 8e 20 3d
       0.21698783 -0.09606462 -0.032628484 0.039198607
000290 a1 7c 7b be d9 7a 02 3e b6 51 57 be 84 e7 43 be
       -0.24559261 0.12742175 -0.21027264 -0.19131285
0002a0 ae bf 6b be ec 28 72 be eb f2 0d be ac 02 9d 3e
       -0.23022339 -0.23648423 -0.13862197 0.306661
0002b0 8d 48 51 bd 37 02 18 3d 18 f6 54 3e cc af 60 be
       -0.05109458 0.037111487 0.20797002 -0.21942061
0002c0 dc 81 3f 3e 12 d7 7d 3e 2f b4 97 3d d6 36 3d 3e
       0.18701881 0.24789074 0.07407414 0.1847795
0002d0 dc 0c 27 3e f5 85 7e be 87 a9 c6 bc f0 fb 73 3e
       0.16313499 -0.24855788 -0.024250759 0.23826575
0002e0 a7 33 84 be 3e f6 ea bd fb d4 a4 bd 19 37 97 bd
       -0.25820658 -0.11472748 -0.08048435 -0.07383556
0002f0 fd 2d ac bc f4 a7 f8 3d d1 de 44 3d 2c ea ce bd
       -0.021018023 0.121414095 0.048064057 -0.101032585
000300 68 84 4e be 15 a0 63 3e b0 fc 0a be 6f 85 10 be
       -0.20167696 0.22229035 -0.13572955 -0.14113401
000310 5a c6 29 3e 89 83 8e 3d 22 a2 55 3e d8 37 cb 3d
       0.16579571 0.06958682 0.2086263 0.09922761
000320 70 a1 2b bd f0 9b 46 3e 70 71 01 be 97 5a 1f be
       -0.041902006 0.19395423 -0.12640929 -0.15561901
000330 9c ee ca bd 26 df 4a be 34 ea 35 be 73 f0 56 3e
       -0.099087924 -0.19811687 -0.17765123 0.20990162
000340 aa aa 22 3e a5 87 72 3e 86 66 34 3e 57 b4 0e 3c
       0.15885416 0.23684557 0.17617235 0.008709989
000350 77 ba 64 be 24 b3 2b be 83 05 4a 3e 2b 1d 63 3c
       -0.22336756 -0.16767555 0.19728665 0.013861935
000360 9b 34 5e 3e 9b 4d 20 be 7b d2 9f 3d 00 81 36 3b
       0.21699755 -0.15654604 0.07803818 0.0027847886
000370 80 e7 70 be b7 8c 62 3e c4 90 86 3d f2 ed 22 ba
       -0.2352581 0.22123991 0.065705806 -0.0006215266
000380 cd 18 a4 bd 4a 64 4f 3c 60 e0 db bd b8 90 9f 3b
       -0.08012543 0.012658188 -0.107361555 0.0048695467
000390 82 10 76 3e d6 4e 43 be e0 ca 21 3e 85 eb 96 be
       0.24029735 -0.19073042 0.15800047 -0.29476562
0003a0 88 24 03 3d 4a 2d 0b 3e 34 4f 46 be 69 7e 2d be
       0.03201726 0.13591495 -0.19366151 -0.16942753
0003b0 91 f4 02 be 10 bd a2 b9 a2 3e 4b 3e e9 aa c8 3d
       -0.12788607 -0.0003103991 0.19848111 0.097982235
0003c0 88 51 bf 3d cd 32 1b bd 6d 52 33 3e fc 38 68 3e
       0.09341723 -0.037890244 0.17511912 0.22677988
0003d0 5f e5 d4 bd c6 05 8f bb 80 75 94 3d c8 b3 56 3e
       -0.103953116 -0.004364702 0.07248974 0.20967019
0003e0 d4 ff aa 3d 97 9f 41 bd 0a 19 30 bd 00 cc 00 bd
       0.083495766 -0.047271337 -0.04299263 -0.03144455
0003f0 f6 f1 42 be 8e 4a 42 bb 14 84 69 3e b5 f3 6e 3e
       -0.19037613 -0.002964649 0.2280429 0.23335154

layers.0.bias f4 [512]
000000 58 10 01 3e 0a 87 b4 bd a6 97 31 3e b4 a8 0c be
       0.12603891 -0.08814819 0.17343006 -0.1373623
000010 a2 0e f8 3c 66 83 49 be af c2 7e 3e 99 95 df bd
       0.030280415 -0.19679031 0.24878953 -0.10917205
000020 a7 8e 82 3e 16 e3 33 3d e5 ae f9 bd c1 95 c6 3d
       0.2549946 0.043917738 -0.121915616 0.09696532
000030 d7 e8 35 be 04 68 6a 3e 2e aa e4 3d f3 4d 09 be
       -0.17764603 0.22891241 0.11165272 -0.13408642
000040 0b 6b 2e be 72 b4 ac bd a4 57 6a bc 62 90 6f be
       -0.17033021 -0.08432855 -0.014303122 -0.23394921
000050 4d 22 21 3e 48 c8 22 3d bc 4c 23 be ef 82 a1 3d
       0.15735741 0.039741784 -0.1594724 0.07886302
000060 44 2e 03 be fc 46 13 3d 78 e4 18 3e c9 c4 bd bd
       -0.12810618 0.035956368 0.14930904 -0.092660494
000070 15 8d 34 3e 30 92 15 bd 23 07 f8 3d f7 e3 0a 3e
       0.17631944 -0.03651637 0.12110736 0.13563524
000080 4a f7 bc 3d 9d e0 0f 3e 42 40 9e 3e ea 20 09 be
       0.09226854 0.14050527 0.309084 -0.13391462
000090 17 a8 c2 3d 89 b0 82 3e bb 3f 5b bd 88 ef 46 be
       0.09504717 0.2552531 -0.053527575 -0.19427311
0000a0 c3 b3 8c bd 66 c1 e4 bb 14 12 2a bd d9 44 f2 bd
       -0.06870224 -0.0069810627 -0.041521147 -0.11829538
0000b0 9b 46 0e 3e 4d fd f2 3c 8e de 1c be fd fd cc 3c
       0.13894121 0.029661799 -0.15319273 0.025023455
0000c0 92 a5 7d 3e 23 5e 55 be a8 2c 85 3d 5d 22 e2 3c
       0.24770191 -0.20836692 0.06502658 0.027604276
0000d0 71 b9 81 3d f6 a7 48 3d 57 1c 52 3e d2 c6 f3 3d
       0.06334198 0.048988305 0.20518623 0.11903156
0000e0 9f b4 fa bd fa 4b 0b be f8 9f 51 3e b6 aa 04 bc
       -0.12241482 -0.13603202 0.2047118 -0.008097341
0000f0 bf 14 1b 3e 63 c0 78 3e d4 8c 1a 3e e1 ae 15 3e
       0.15144633 0.2429214 0.15092784 0.14617492
000100 d3 b6 21 be 5d be 05 be a3 eb 2d be 00 22 ca bd
       -0.15792398 -0.13060899 -0.1698442 -0.09869766
000110 44 93 5f 3e 4e 36 1c 3e 4e 6e 53 be 70 3f 64 3d
       0.21833521 0.1525509 -0.20647547 0.05572456
000120 89 5a 53 be af b6 01 3e ce 35 df 3c d7 a5 1d 3e
       -0.20640005 0.12667345 0.027247336 0.15395294
000130 6a c9 c6 3d c0 c3 32 3d 3c 5b 82 bc 00 da 07 bd
       0.097063854 0.043643713 -0.015912645 -0.033166885
000140 d5 e0 26 bd 46 a9 0e bd 8c e0 6b be c9 c0 2c 3e
       -0.04074176 -0.0348294 -0.23034877 0.16870417
000150 b7 5d 4d be 7e 9d 51 bd 63 4b 4f be 3c 3e 70 be
       -0.2005528 -0.051175587 -0.20243602 -0.2346124
000160 c5 e3 87 3d 5f 6d 45 be f9 ba eb bd c6 be 56 3e
       0.066352405 -0.19280003 -0.115102716 0.20971212
000170 7a 32 94 be 37 8f 56 3e 28 da b7 3d 78 ab 47 3e
       -0.2894476 0.2095307 0.08977157 0.19499004
000180 bf c8 64 be 95 12 b7 3b 29 ae 22 3e 67 fd 3c 3c
       -0.22342204 0.005586932 0.1588675 0.011535025
000190 6b 9f fb bd 63 7b e9 3d 00 c1 29 3e ed b6 83 3e
       -0.12286266 0.11400487 0.1657753 0.257255
0001a0 56 10 f3 bd eb 3e 64 3d ca 72 cc 3c 8e 0e 76 3e
       -0.1186835 0.055724066 0.02495708 0.2402899
0001b0 96 60 fe bd a8 10 44 3e 6d cc 59 bd 5c 52 c2 bd
       -0.12420766 0.19146979 -0.05317347 -0.09488365
0001c0 86 e3 29 be 28 54 75 bd 8d 1c 9f bd 0b 90 93 be
       -0.165907 -0.05989471 -0.077691175 -0.28820834
0001d0 ce 22 aa 3d 79 96 cc 3d a0 64 47 3e 35 75 7b 3d
       0.0830742 0.09989638 0.19471979 0.061391074
0001e0 1c 27 6e 3e 99 b6 2f 3e 20 10 8f 3e c6 dd 5b 3e
       0.23257107 0.17159499 0.2794199 0.21471319
0001f0 76 11 bb 3d ee d1 c4 bd ea cb e1 bc f5 8a 5a 3c
       0.0913419 -0.096103534 -0.027563054 0.013338794
000200 10 ee fa bc 45 65 4b be 40 e3 18 3e c3 9f 69 be
       -0.030631095 -0.1986285 0.14930439 -0.2281485
000210 97 8a 19 3c 2f 81 d5 bd 2e 29 2f 3e 02 89 0d be
       0.009371421 -0.104250304 0.17105553 -0.13821796
000220 b9 55 2c 3e 58 5a 27 3e 02 ef 42 be 3e 2e 87 bd
       0.16829576 0.16343057 -0.19036487 -0.06600617
000230 47 9c 16 3d a0 8f 9a bd 6f b5 48 3d 86 ce 16 bd
       0.03677013 -0.075469255 0.049001154 -0.03681805
000240 f0 34 44 3e 35 85 2c 3d 8b 0b 23 3e 1d 3b ed 3d
       0.19160819 0.042119224 0.15922372 0.115835406
000250 cc 47 32 3e ed 56 64 3e 4d b6 14 3e fb 3c 88 be
       0.17410201 0.22298785 0.14522667 -0.26609024
000260 aa 61 36 3e a4 a6 ae bd 78 c7 5b be 8f b9 f9 bb
       0.17810693 -0.08527878 -0.2146281 -0.0076209973
000270 31 e0 8c 3d fa ad 2d 3e 6e fb 4e 3e 94 51 1d be
       0.068786986 0.16960898 0.202131 -0.15363151
000280 21 11 08 3d ba ef 58 ba fa 77 74 3e b1 86 74 be
       0.03321946 -0.0008275468 0.23873892 -0.23879506
000290 63 fb 64 bd e6 57 24 3e ea 22 58 3d f8 c0 58 3e
       -0.055903804 0.16049156 0.05276767 0.21167362
0002a0 e2 1a 3c 3e 21 fb df 3d cf 72 1d bd 4d db 25 be
       0.1836963 0.10936571 -0.038439568 -0.16196938
0002b0 14 3f 1a 3e be 79 55 be b2 68 16 3e df fb 44 3c
       0.15063125 -0.20847222 0.14688376 0.012022941
0002c0 07 12 7c 3d 78 d8 15 3e e5 3e 65 be 54 8c 30 be
       0.06154063 0.14633358 -0.22387274 -0.17241031
0002d0 37 d6 56 3e 46 18 5e 3e 3c 51 2f be 22 f6 af 3d
       0.20980154 0.21688947 -0.17120832 0.08591868
0002e0 2b 54 29 be 2c 88 9a 3d fa a4 60 3e a4 3a 9d 3d
       -0.16536014 0.07545504 0.21937934 0.076772004
0002f0 03 31 25 3e 01 ac 9b bd ba a2 33 3e 41 94 87 3d
       0.16131978 -0.076011665 0.17542544 0.06620074
000300 76 9d 47 3e 9b ae 5a 3e 2a 48 54 3e 81 d7 22 3e
       0.1949366 0.21355669 0.20730653 0.1590252
000310 46 e6 46 be 59 67 a1 bc a2 81 0f be 60 08 47 3c
       -0.1942378 -0.0197026 -0.14014295 0.012147993
000320 4d fc a2 bb 99 47 eb bd 2d a8 b7 bc bd a8 42 3e
       -0.0049739243 -0.114882655 -0.02241906 0.19009681
000330 ae 1c 3e 3e d6 2d 11 be fd 9c cc bd a2 39 26 be
       0.18565628 -0.14177641 -0.09990881 -0.16232923
000340 58 85 a0 3d b0 fa 22 be ed 1b 41 be b6 9d 95 3e
       0.07837933 -0.15915942 -0.18858309 0.29221886
000350 b3 97 c1 3c ca 6d 8d 3e 05 a4 25 be 26 f0 34 3e
       0.023631906 0.27622825 -0.1617585 0.17669734
000360 4c e2 3a 3d 1f de 15 3e 7b 0c 09 3d c6 7d 1c be
       0.04562597 0.14635514 0.033459168 -0.15282354
000370 9a a6 26 be 6d 1d 74 bd ed 57 55 bd f1 05 67 3e
       -0.16274491 -0.059598375 -0.052085806 0.2256086
000380 20 bc f7 3d 42 91 48 3e f5 a5 c7 3d bb 3b 43 be
       0.12096429 0.19586661 0.09748451 -0.19065754
000390 b7 0b 03 3e fe 9a 98 3a 15 b7 4d be 38 41 86 3d
       0.12797438 0.0011642871 -0.20089372 0.06555408
0003a0 79 e6 8b 3e 35 7b 3b 3e 5d 86 8b bd fb 33 76 be
       0.27324274 0.18308719 -0.06812737 -0.24043266
0003b0 4a 1d 3e bd dc d2 95 bc d8 40 3a be 8a ad 86 3e
       -0.04641465 -0.018289022 -0.18188798 0.26304275
0003c0 c6 a5 07 3e 66 07 1d be 83 8b 27 3e 99 07 ed bc
       0.13246831 -0.15334854 0.16361813 -0.028934287
0003d0 f2 91 0a be e2 06 63 3e 93 98 03 3e 6f 21 09 be
       -0.13532236 0.22170594 0.12851171 -0.1339166
0003e0 90 78 31 be 60 be f3 3d c0 b8 9c bc 09 42 97 3e
       -0.17331147 0.119015455 -0.019131064 0.29542568
0003f0 1e 33 5d bc 7d d7 2f 3e fa 68 02 bd 04 bb 64 be
       -0.013500957 0.17172046 -0.031838395 -0.22336966

layers.2.weight f4 [100, 512]
000000 0e 0f 14 bd 0b c9 68 3d 92 44 d3 ba fe 11 71 bd
       -0.03614717 0.056832355 -0.0016118458 -0.05885505
000010 e4 89 a6 3b 2f c1 b3 bc 36 e6 0f bd ee 67 2e 3b
       0.005082356 -0.021942703 -0.035131656 0.002661224
000020 8f 96 43 bd 35 bb 86 3c 59 28 fe bb 84 50 b7 3c
       -0.047751006 0.01644669 -0.0077562747 0.02237726
000030 a0 db 37 3d f2 f8 db 3c a1 7c b9 3c df 8d 69 bb
       0.044887185 0.026852105 0.022642436 -0.003563754
000040 65 f2 d1 3c f5 11 ee 3b a5 eb b9 bc 75 1c e3 3c
       0.025628278 0.0072653242 -0.022695372 0.02772353
000050 9c f5 c1 3b 2c fd 18 bd 48 db 44 3c d4 74 5d bd
       0.0059191715 -0.03735082 0.012015171 -0.054066494
000060 78 05 1e 3d 4c 2b c5 3c d5 1e a0 bc 58 e9 0b bd
       0.038579434 0.024068497 -0.019545952 -0.03415808
000070 88 c5 64 bc 52 e8 22 3b bc 73 bd ba 46 e1 1f bc
       -0.013963111 0.0024857712 -0.0014454047 -0.009758299
000080 9c 5e d0 bd 51 44 44 3c 1f ef c3 ba 32 53 a0 3a
       -0.10174295 0.0119791785 -0.0014948583 0.0012231825
000090 78 5b 26 bb 72 d8 8b bd 46 a1 24 bd fa f5 5c 3d
       -0.002538411 -0.06828393 -0.040192865 0.05394552
0000a0 74 50 62 3d 39 7d 2c bc 07 e0 c5 3c df fa d1 bd
       0.055252507 -0.010527902 0.024154676 -0.10252928
0000b0 cc 31 dc bb 7a 59 ba 3c d7 19 01 3d 90 0a 9b bd
       -0.0067198034 0.022747744 0.031518783 -0.07570374
0000c0 64 2c 8d bc 4f e0 a5 bc 8c 44 b5 bd 4d 64 de 3b
       -0.017233081 -0.02024856 -0.08850965 0.006786859
0000d0 d3 d1 2f bd 89 c2 eb bb 7f d0 48 3d c9 80 20 3c
       -0.042924713 -0.0071948213 0.049026962 0.00979633
0000e0 92 52 de bb cd 0b 2b bc 03 b7 8a 3d 30 34 0e 3d
       -0.0067847455 -0.010439825 0.06773188 0.03471774
0000f0 74 1a 13 3c 14 8f c0 bc 7a 08 35 3d 00 68 51 3d
       0.008978475 -0.023505725 0.044197537 0.051124573
000100 b0 d6 e8 bc a9 22 9a 3c fd 87 10 3d 4d 9c 56 bd
       -0.028422683 0.018815355 0.03528594 -0.052395154
000110 85 24 e6 3c c6 58 58 bc 45 ff 76 3c 19 c3 ec 3c
       0.028093586 -0.013204759 0.015075509 0.028901624
000120 ab f3 c6 bd 68 10 8f bd 9e 85 4a bd d2 67 2f 3c
       -0.09714445 -0.06985551 -0.049443834 0.010705905
000130 c8 43 90 3d 36 2c 12 3c 8c 87 90 3d 1f 2a 05 bc
       0.07044178 0.0089216735 0.070571035 -0.008127718
000140 bc 18 fe bb db 70 d7 3c 60 c5 e6 3a 53 35 b2 bc
       -0.0077544134 0.02629893 0.001760643 -0.021753943
000150 52 fb 6d 3c b6 03 86 3c 89 90 cf 3c 29 0f 27 3d
       0.014525251 0.016359191 0.025337474 0.040785942
000160 8d 50 66 bd 39 55 ec 3c da 97 74 3d a9 75 8e bd
       -0.056229163 0.028849231 0.05971513 -0.06956036
000170 86 68 86 3b e0 c0 b2 bd 64 a8 c9 3c b4 01 98 bc
       0.0041018156 -0.08728194 0.024616428 -0.0185555
000180 c9 99 b3 bc 8e 2d 4a bc 53 00 76 3b 4c 15 43 bd
       -0.021923916 -0.012339963 0.0037536814 -0.047627732
000190 e5 c1 86 3d 0f 90 df bd 07 f0 0a bc 89 79 b5 bc
       0.06579951 -0.10916149 -0.008480079 -0.022152679
0001a0 d1 72 0f bd e0 fe 84 3d 0b df 5a bc a2 20 75 bd
       -0.035021607 0.06493926 -0.013358842 -0.059845574
0001b0 b0 1a 03 bc 22 0f bc bc 6a 54 95 b9 ae c1 ee 3c
       -0.008001968 -0.022956435 -0.00028482388 0.029145088
0001c0 01 a7 a7 3c 94 78 b7 3a 4c 75 5f 3d 3c 37 cc 3b
       0.020465376 0.0013997727 0.054555222 0.0062321704
0001d0 8c c6 87 3b 6c 91 3e bc 43 a4 85 3b 6d 35 cb 3c
       0.0041435417 -0.011631351 0.0040784194 0.024805749
0001e0 ae b8 b5 bd 16 18 8d bd a9 37 c7 bd b4 c3 8c 3c
       -0.088731155 -0.0688936 -0.09727413 0.017183162
0001f0 fb 70 76 3b 67 33 15 bd 58 bd 98 bd c0 d8 13 3b
       0.0037603963 -0.036425974 -0.074579895 0.0022559613
000200 86 02 9f 3d 1d e9 ff 3c 70 1a 85 3d db 6b 5b 3d
       0.07764153 0.031239087 0.06499183 0.053569656
000210 99 99 2e 3d 2b d6 84 bc 0d 21 40 3d 9a f6 35 bc
       0.04262695 -0.016215404 0.04690652 -0.011106158
000220 bb 8e 04 3d 41 f5 0b bd e9 7a 2b 3d d8 6b cc bc
       0.03236268 -0.03416944 0.041865263 -0.024953768
000230 21 96 c7 3c 9c de 70 3d 3f eb b0 3c f4 e9 4c bb
       0.02436358 0.058806047 0.02159655 -0.0031267377
000240 09 39 4a bd 75 c6 59 3c 07 a0 de 3c ef df db 3c
       -0.0493708 0.013291945 0.027175916 0.026840178
000250 81 df 84 3d c9 1c 74 bd 4c 26 df 3c 5f 9c 01 3d
       0.064879425 -0.059597764 0.027239941 0.031643268
000260 1c ff 0a bd 84 17 cc 39 19 26 ec bc ec 52 b0 3c
       -0.033934698 0.00038927433 -0.02882676 0.021523915
000270 2f f9 68 bb 07 8a 59 bc 9a 98 4a 3d 3f 94 99 3c
       -0.0035548916 -0.013277537 0.04946194 0.018747447
000280 73 88 75 bd ad 6f a8 bb 05 14 81 3c 76 5b 26 bc
       -0.05994458 -0.005140266 0.015756616 -0.010153642
000290 b6 37 b4 3d 3a 9f b5 bd 3e 5a 57 3d 99 b5 00 bb
       0.087996885 -0.08868261 0.052576296 -0.001963949
0002a0 bf 61 9b bc a7 ad 36 3b 2b 43 c9 ba 86 91 83 3d
       -0.018967507 0.00278745 -0.0015355101 0.06424241
0002b0 ef 69 d6 bc 18 c4 14 3d 4a 6e 6e bd 0f 5e 5f bd
       -0.02617356 0.036319822 -0.05821065 -0.05453306
0002c0 4f a8 23 3d 11 d1 3f 3d 75 32 11 3d 5b ab 36 bc
       0.039955433 0.04683024 0.03544851 -0.011149253
0002d0 d2 83 55 3d e5 01 01 bd e6 f9 02 bc ce c5 4e 3d
       0.052127667 -0.031495947 -0.007994151 0.05048161
0002e0 39 88 cb bc f5 85 1d bd 07 6f 70 bd cf b6 94 bc
       -0.02484523 -0.03845783 -0.058699634 -0.018153576
0002f0 88 f3 9b 3c e8 20 46 3d ea 2e f6 3b 0f 8e 30 bd
       0.019037023 0.048371226 0.007512917 -0.043104228
000300 84 80 8f 3a 88 ba 02 bc 1d f1 e6 3c 27 e7 71 3d
       0.0010948335 -0.007979043 0.028191144 0.059058335
000310 87 67 65 bd c7 db fa 3a 0e ea 29 3b 33 9d 01 bd
       -0.056006934 0.0019138985 0.002592686 -0.031644057
000320 e9 cf 07 3c 95 7a 8b bd 58 e0 8d bc e6 21 30 bd
       0.008289316 -0.0681049 -0.01731889 -0.043001078
000330 76 53 bc bc 05 0f db bb c8 31 9c bc 05 81 bf 3c
       -0.022989016 -0.00668514 -0.019066706 0.023376951
000340 bc 79 33 3c 3e 92 d6 3c b5 2a 74 3d 46 29 15 bd
       0.010954317 0.02619278 0.05961104 -0.036416315
000350 32 7c 3c bc b6 8f 8d bd 71 4e c9 3c 19 02 21 3d
       -0.01150422 -0.06912176 0.024573537 0.03930864
000360 c6 78 0f 3d 7e 0e 05 3d bd bd 19 bd fe c3 32 bc
       0.035027288 0.032484524 -0.037534464 -0.010910986
000370 0b 30 d2 bb 82 66 ae 3c d7 01 86 bd 6e 30 99 bc
       -0.0064144186 0.021289114 -0.0654332 -0.01869985
000380 36 22 53 3d b2 96 6d 3d 23 11 fd 3c cb 76 44 bc
       0.051546298 0.058005042 0.03089196 -0.011991213
000390 b4 3f 35 bc ab 77 a1 bc 1b ab dc bc d7 0a 08 3d
       -0.011062551 -0.019710382 -0.026937058 0.033213463
0003a0 64 be f4 3b 07 9f c0 bc 83 bc 4f 3b 66 48 40 bc
       0.0074689854 -0.02351333 0.0031698055 -0.011736011
0003b0 ee 9d 31 3d 8c 07 a3 3c b3 75 13 3d 6b 4a b3 3b
       0.043363504 0.01990106 0.03600092 0.005471518
0003c0 e5 a1 06 bd ef 58 98 bc 56 6a df 39 e6 76 1a 3d
       -0.03286924 -0.018597094 0.000426131 0.037711047
0003d0 78 69 17 3c 8d 3e 0c 3d 69 5d 77 bb cc 38 2d bd
       0.009241454 0.03423934 -0.0037744886 -0.042290494
0003e0 4d 81 b8 3c 1a 7c e9 bc 62 04 c4 3d 7d 45 d0 bd
       0.022522593 -0.028501559 0.095711485 -0.10169504
0003f0 03 1d cd 3b 64 46 57 bc b3 fa b1 3d 84 d6 5d bc
       0.006259562 -0.013139341 0.08690395 -0.013539914

layers.2.bias f4 [100]
000000 50 43 c6 bb 9b 3b 99 bc 0e ee 17 3d 21 d0 09 3d
       -0.0060505047 -0.01870518 0.03709226 0.033645753
000010 6e 7d 56 bd 4c 84 e7 3c 66 52 8f 3d 59 9f 1a 3d
       -0.052365713 0.028261326 0.06998138 0.037749622
000020 4a 66 60 3d 73 e5 af 3c 22 10 4e 3c cd 8d d8 39
       0.05478505 0.021471715 0.012577089 0.0004130438
000030 d8 e4 49 bd 83 cf 44 bc e6 c7 52 3d a7 2a 2b bc
       -0.049290508 -0.012012365 0.05146017 -0.010447181
000040 2a a7 ae bc 6a e0 5a 3d ad 9e 1e 3d fe 13 13 bd
       -0.021319944 0.053436674 0.038725544 -0.035907738
000050 3a 70 9e 3b 2e 16 51 3d 8a d5 66 3d 00 2d 34 3d
       0.004835156 0.051046543 0.05635599 0.043988228
000060 ed 23 22 bd 10 52 03 3d bb aa fe 3c cf 8b 82 3d
       -0.039585043 0.032060683 0.03108727 0.063743226
000070 87 89 ac 3b ed 16 37 bc f5 ce 6f bd c1 48 a2 3c
       0.005265418 -0.0111748995 -0.05854698 0.019810082
000080 ed a6 0b 3d 63 de c2 3c ad 1a 78 bc 66 ba 04 bc
       0.03409474 0.023787683 -0.015143079 -0.0081010815
000090 00 0b e1 3c b2 0d 29 bd f2 97 88 3d 9f 24 7f 3d
       0.027471066 -0.041272826 0.06669606 0.062290784
0000a0 92 66 7a bc c7 5d 3b bd 77 1e 0e bb 46 bc ac 3c
       -0.015283244 -0.04574373 -0.002168564 0.02108587
0000b0 25 7a 63 3b 0a 25 7b 3c fa 19 e3 ba 82 ba a9 bc
       0.0034710255 0.015328655 -0.0017326467 -0.020718817
0000c0 e2 c5 8f bc 03 b0 39 3c 24 6d 87 bc eb 97 21 bd
       -0.017550413 0.011333468 -0.016531534 -0.03945152
0000d0 36 c0 89 3d d7 8a c6 bc ec b5 70 3c b5 57 29 bc
       0.067261145 -0.024236126 0.014691811 -0.010335852
0000e0 7c aa 95 3d f7 0b 01 3c 70 f6 69 3d 3e a5 f8 3c
       0.07307908 0.007876388 0.057119787 0.030352231
0000f0 d4 ea 1a bc 1a 77 e9 bb 72 99 77 3d 3b 47 6f 3c
       -0.009455401 -0.0071247937 0.06044907 0.014604385
000100 b8 2a 3c 3b dc 70 15 bb 87 d4 f8 3c 13 7c f4 bb
       0.0028711986 -0.0022802865 0.030374778 -0.00746108
000110 c8 27 0a 3c cf 8b 1d 3d 98 c4 bc ba cd 47 79 bc
       0.008432336 0.03846341 -0.0014401851 -0.015214873
000120 55 4f 33 bd c4 1d 8c 3d cb 9b 1d 3c 01 8f 05 3d
       -0.04377683 0.06841615 0.0096196635 0.032607082
000130 bc 0f d7 bc e6 e1 26 bc d2 69 0f 3d 49 3a be bc
       -0.02625262 -0.010185694 0.035013027 -0.023221152
000140 6e df 02 bc 9e 6a 7e 3d 5e 5f 0a 3b f3 61 39 3c
       -0.00798784 0.062113397 0.0021113972 0.011314857
000150 af 32 0a 3c 7f 64 5b bc 0d 0c c5 bc 1f a4 a2 3b
       0.0084349355 -0.013390659 -0.024053598 0.0049634124
000160 fd a8 0e bd 91 25 88 bb 43 e6 25 3c c1 61 a2 bc
       -0.03482913 -0.004154869 0.010125699 -0.019822003
000170 59 a2 9a 3c 91 a2 cc 3c af bd 8c 3d cb d2 48 bb
       0.018876242 0.024979861 0.06872117 -0.003064322
000180 9d cf 92 bc 1d 8d 17 3d 87 b6 a5 3c c1 64 38 bc
       -0.017921263 0.03699981 0.020228637 -0.01125449

layers.4.weight f4 [4, 100]
000000 eb 83 59 3d 5e d7 7b 3d d7 49 2a bd 9f cb 0f bd
       0.053104322 0.061484687 -0.041574325 -0.035106298
000010 4b e3 68 bd 46 0c 01 3c 5f 38 66 3d 42 47 b1 3d
       -0.05685739 0.007876461 0.056206103 0.086561695
000020 ee 05 8f bd f0 1a ab bd d8 ef db 3d 57 31 11 3d
       -0.06983553 -0.08354747 0.10739106 0.035447445
000030 a0 5c 3f bd b9 2c 7a 3d ce c0 c0 bd 0e c5 3d 3d
       -0.046719193 0.061077807 -0.094117746 0.046330504
000040 99 87 30 bc e6 3f f0 3d ab 19 09 3e c7 2c b5 3d
       -0.0107745165 0.11730938 0.13388698 0.08846431
000050 15 6a 2e 3b 7a 5e 87 bd 03 35 3e 3d 49 24 84 3c
       0.0026613523 -0.06609817 0.046437275 0.016130583
000060 5f ee c1 bd 37 dc d8 3d 5f c2 96 bd 06 ad e3 3d
       -0.09469294 0.10588878 -0.07361292 0.11116986
000070 2c 46 e2 bc 43 ec 93 3d 82 6d fb bc ef e2 cd 3b
       -0.027621351 0.07222798 -0.030691866 0.006283156
000080 bf 15 db bb 94 a4 e2 3c 1e 5e b0 bd ef 2b ba bd
       -0.006685942 0.027666368 -0.086117014 -0.09090411
000090 dc 59 62 bd 28 7b 28 bc 07 28 e2 bd e9 06 cd bd
       -0.055261478 -0.010283269 -0.11042791 -0.10011084
0000a0 19 55 fd 3d 0c b0 4b 3d 9f fa 27 3d af 1e 02 be
       0.12369747 0.04972844 0.041010495 -0.12707017
0000b0 ab 9a 01 be 39 a3 3c 3d 11 f7 92 bd de d1 03 bc
       -0.12656657 0.0460541 -0.071760304 -0.008045642
0000c0 52 9f 9b bc b8 59 50 3d b2 07 8f 3d dc 80 61 bd
       -0.018996868 0.050866812 0.0698389 -0.05505453
0000d0 6b 92 8c bd 89 12 5c bd 04 2b bf 3d a5 05 58 bc
       -0.068638645 -0.053728614 0.093343765 -0.0131849395
0000e0 b8 9c 42 3d 3f 94 5c bd f0 50 be bd 8f ce 2d bd
       0.04751274 -0.053852316 -0.09292781 -0.042433318
0000f0 3e f1 e0 3b e9 67 b6 bd e8 be fd 3d d5 18 a5 3d
       0.006864696 -0.08906538 0.12389928 0.08061377
000100 53 96 66 bc 6d 42 70 bd f5 57 5a 3c 54 47 86 bd
       -0.014073926 -0.0586571 0.013326635 -0.065565735
000110 3a cb c2 bd 20 76 05 bc 89 d6 ed 3c a6 22 97 ba
       -0.09511419 -0.008145839 0.029032962 -0.0011530712
000120 9b 5d 76 3d ad d9 c1 3c 10 db 83 3d 2f 20 91 3d
       0.060147863 0.023663366 0.06438267 0.07086217
000130 9d 47 3d 3d 29 f1 6d 3d 73 ba 5f 3d bb 5a 81 bd
       0.046210874 0.058091316 0.05462117 -0.063161336
000140 ac 68 52 bd 72 7c bf bd 4d 8a ef bc 39 30 38 3d
       -0.051369354 -0.09349908 -0.029240752 0.044967864
000150 49 39 af bc 8c 17 38 3d 64 33 11 bd 59 55 03 be
       -0.02138962 0.04494433 -0.0354494 -0.12825526
000160 be a4 dc bd 12 81 9d 3d 2e a0 8f 3d 6e 02 2c bd
       -0.107736096 0.07690634 0.07012974 -0.041994505
000170 34 48 93 bd 0b 87 a4 bc 8d 77 6e bd fa 8c f1 bc
       -0.07191506 -0.020083925 -0.05821948 -0.029486168
000180 2d 38 88 bc f9 63 8c 3d 6b c5 18 bd 25 9a 72 3d
       -0.01662835 0.06855006 -0.037297647 0.059229035
000190 0f 26 94 bd 76 e6 ed bd 56 c7 d7 bd 18 9e dd 3a
       -0.072338216 -0.116162226 -0.10536067 0.0016908078
0001a0 8c 20 33 bd 4e eb 89 bd af 82 82 3c 2a d8 e9 bd
       -0.04373221 -0.06734334 0.015931455 -0.11418183
0001b0 6b 47 8d 3d 6d 29 dd 3d a3 7a e1 bd 84 30 78 bd
       0.068983875 0.10798917 -0.11009719 -0.060593143
0001c0 5a 5d 27 bd 68 76 b9 bd 7d ef e5 3d d0 1d 78 3d
       -0.04086051 -0.09055787 0.112273194 0.060575306
0001d0 54 e0 49 bd 7a ce 90 3d 60 6e d9 bd 49 cf 8c bc
       -0.0492862 0.07070632 -0.106167555 -0.017188685
0001e0 3a 8b a9 3d ea 4f 1d 3c 5f 0a df bd b0 a4 4c bc
       0.082785085 0.0096015725 -0.1089065 -0.012490436
0001f0 aa 80 97 bd b3 46 6e bd bf e0 8d b9 5c 37 5a 3d
       -0.073975876 -0.058172893 -0.00027061065 0.05327545
000200 6e f0 b6 bc 36 28 7b 3d 12 82 13 bc e0 86 a6 3d
       -0.022331443 0.061317645 -0.009003179 0.08131194
000210 be 0a 02 3e 4b 75 0e 3d 87 05 f1 3d 1c a8 91 bd
       0.1269941 0.034779828 0.117686324 -0.071121424
000220 4f 83 1f 3e f4 26 1c 3c fd de 11 3e 32 a1 02 3e
       0.15577434 0.0095307715 0.1424522 0.12756804
000230 24 e4 9e bd 36 db 62 3b 77 d2 6e bd 60 db 8a 3b
       -0.07758358 0.0034615523 -0.058306184 0.0042375773
000240 f8 d5 a2 3c 70 a4 8c bd d9 6b cb 3d 16 cc e5 3c
       0.019877419 -0.068673015 0.0993268 0.028051417
000250 8f a4 03 bd 98 86 9f bd 8e a9 02 bb a5 44 af bd
       -0.032139357 -0.077893436 -0.0019937488 -0.08558015
000260 07 05 67 3d 43 d8 b3 bd 79 d4 89 3d c5 f0 a6 3d
       0.05640128 -0.08781483 0.06729979 0.08151392
000270 73 d8 20 3d 8f c0 c0 3d 7a 6b 2f 3c e9 ef bc 3a
       0.039268922 0.09411728 0.010706777 0.001441476
000280 eb 9a 3f bd cc df ac bd 60 63 94 3c 68 55 39 bc
       -0.0467786 -0.08441123 0.018113792 -0.011311866
000290 71 e2 17 bd e0 34 79 3d 36 f0 bf bc bd 49 56 3b
       -0.037081186 0.06084144 -0.023429971 0.003269776
0002a0 36 5a 3c 3d c3 66 1b 3d dc 2f d8 3d a6 89 b4 bc
       0.04598447 0.037939798 0.105560035 -0.022038292
0002b0 27 84 de 3d b1 93 dc 3b 45 cb 07 3e 40 74 71 bd
       0.1086505 0.0067314734 0.13261135 -0.058948755
0002c0 b8 b0 c4 bd d9 51 5b 3d 92 60 1a bd 3d f5 43 3d
       -0.09604019 0.053544853 -0.037689753 0.0478413
0002d0 64 ef ae 3d b1 59 1b bc 9f 61 cb 3d 6c a8 1b be
       0.08541754 -0.009481833 0.09930729 -0.15200967
0002e0 76 12 be 3d 7a 31 05 3e f6 68 12 bd 12 68 c3 3b
       0.09280865 0.13007155 -0.03574463 0.005963334
0002f0 f5 10 7a 3d 44 1f 49 bd b3 e7 85 3d 1d cc b3 3d
       0.061051328 -0.049102083 0.06538334 0.08779166
000300 de 08 fa 3d 40 f5 5a 3d 89 b8 2c bd f9 c2 d1 3d
       0.122087225 0.053456545 -0.042168174 0.10242266
000310 1c da 8d bd 30 e4 bc 3d 61 81 27 3d ea bc ce bd
       -0.06926367 0.09223211 0.04089487 -0.10094626
000320 a2 78 8a bd 43 9c 86 bd 64 64 86 bd 2d 84 93 3d
       -0.0676129 -0.06572773 -0.06562117 0.07202945
000330 ae 53 90 3c d1 bc 56 bd 73 e3 81 3d 1a 15 40 bc
       0.017618027 -0.052426163 0.063422106 -0.011723781
000340 bd 9a 81 3c 77 90 ce 3d b3 c9 d8 3c 7e 21 a8 3d
       0.015820855 0.10086148 0.026463365 0.08209513
000350 2b 45 df 3b 15 ce 6e bc 0f 95 bc 3b 26 ac c3 bd
       0.0068136654 -0.014575501 0.005755074 -0.09554319
000360 a9 5d 8c 3d 29 b9 d0 bc f7 d1 5f 3d bf 45 82 bd
       0.06853802 -0.025478916 0.054643597 -0.06360959
000370 41 d5 bb bc 1e a3 9d 3d 6e cf c8 3c 45 e8 06 be
       -0.022928836 0.07697128 0.024512973 -0.13174541
000380 33 83 89 3d 10 49 31 3b 5a 7f c2 3b 48 66 b4 3d
       0.067144774 0.0027051605 0.0059355916 0.08808571
000390 8d 12 d2 bd 7a 71 45 3d 3f f9 d4 bd 81 6a aa 3d
       -0.102574445 0.048203923 -0.103991024 0.08321095
0003a0 2b 49 9e bd 3a f6 9e 3d ea 6a 37 bd ab 4e 81 3d
       -0.077287994 0.07761808 -0.044779696 0.06313833
0003b0 ed e5 dd 3d b4 10 31 3d cd f9 c9 3d 6b 93 ea 3d
       0.108348705 0.04322882 0.09862099 0.11453899
0003c0 71 f2 43 3c 71 63 aa bd 5c f9 99 3d 12 a1 59 bd
       0.011959658 -0.08319748 0.07518265 -0.053132124
0003d0 bf b5 9c 3d 8e b4 a7 3d 55 1c ca bd 86 32 b2 bd
       0.07651853 0.08188735 -0.09868685 -0.08701043
0003e0 23 fc 7b bd 1f 0f 44 bd 7b 29 2d bd 3f d7 3b 3d
       -0.061519753 -0.047865983 -0.042275887 0.04585957
0003f0 fb 5b 56 bd 29 34 83 bd 6b c2 66 3d 6e ff 95 bd
       -0.052333813 -0.06406433 0.056337755 -0.0732411

layers.4.bias f4 [4]
000000 f5 27 a8 3d b5 c0 9b bd 20 81 fa bc db d6 e7 bc
       0.08210746 -0.07605115 -0.03057915 -0.028300693
