trained_model.pt (torch, 241111 bytes, 6 tensors)

layers.0.weight f4 [512, 14]
00000000: 1532 1ebe fec5 81be d81a 2e3d 44c8 cf3d
00000010: d81e 743e 69e1 8f3e f441 97bd ad06 f43c
00000020: 138a 613d 403f ee3b cf4c 6bbd e5d1 6b3d
00000030: 27d2 bd3e 44af 4bbe 5912 a6be c618 673e
00000040: e8eb 033e 5824 d0be b229 523e cf17 64be
00000050: d287 fc3a 92a9 29be 12db be3d 606c 0a3c
00000060: 2db9 aebe 05c2 91be 4bbe 8f3c b0bd 9b39
00000070: b28a 483e 1215 143d 9fa9 6dbe e13f 823d
00000080: dba4 813e ac63 743e d6c8 1d3e 705c ab3d
00000090: df11 2abe 5c0b 233e beba 533e 196d 113e
000000a0: b1cd 133c 9ca1 333e 2860 3f3e 0f97 0b3e
000000b0: c22b ddbd 2990 943e d123 353e 6228 8dbe
000000c0: fc61 73be b172 c83e 5a0d 833e f963 35be
000000d0: 54a3 283e 0faa 603d 259c 00be 4d34 54bd
000000e0: 0b0b eebd 99ae b33d fa87 243e 65f1 20bd
000000f0: a2c0 1cbe 7267 54be 24bc aebe 874e 513e
00000100: 084b 823d 006e e7bc 4a7d 6d3e e926 293e
00000110: e7bd 183e 7dfc 8fbe cb22 983e e3e2 143e
00000120: b4fa 6a3e 6c44 92be c2a6 2b3e da64 2fbc
00000130: 2920 263e ac7f 8b3e 6a38 503e a864 6dbe
00000140: 80eb 89bc 6ede f13d a259 ce3c 63fa 063e
00000150: 620f f23d 9d75 23be b0da 25be b142 98be
00000160: a002 a23e 4d8b 7c3e 3f40 40be 4fac e53d
00000170: 96a1 bc3b fc6e af3d d5ca 193d 76aa c53c
00000180: e393 0b3e 8b16 71be d4bf a6be 0efb 343d
00000190: 20fd d93c 7a19 7bbe 81fa 4cbe 1996 90bd
000001a0: 5d2b 483d 3e84 d5bd bdce b73d a285 563e
000001b0: 304c 58be a831 48be c1d1 04be b1eb 813d
000001c0: e04b 98bd 3f85 06be b866 563d a845 a0be
000001d0: 5fd5 ceba 451c 803e c9f9 953e a309 493e
000001e0: af08 11be c88c b6bd 0bf5 c0bd 937b 7bbe
000001f0: 99d9 49be 96ea 253e c535 9ebe f678 2abe
00000200: de95 c8bd b9e0 9abe 5f52 00be 1c98 e2bd
00000210: 31e1 533d fd3c 52be 20c1 8abd 70d2 04be
00000220: 7198 c4be b0e3 363e c77d 64bd 44e7 123e
00000230: 300e 0d3e d80c 1ebe 683e 683e 8d9d 403e
00000240: 7f4a 873d 9c9c 043e 829f 98be 5e78 173e
00000250: 9249 91bd 4a2b 453e f1e1 813e 979a 9cbd
00000260: b4f0 f83d 1401 9abe 56be 843c 70ab 52be
00000270: bcf0 dc3d 9dd0 c33e 880e cc3c 53d0 b13c
00000280: 912b 65be 037c 843e cfcf b23d 3281 84bd
00000290: 9591 743e eee9 1cbe b1ef 403c dc8c 82be
000002a0: 805d a4be 9def 1e3e 56fa 133e fc24 b23d
000002b0: f4dd 603e 1a51 54be 1284 2c3e 2e10 153e
000002c0: 6006 a5be 2581 4cbe b826 6ebe 6afe 6f3e
000002d0: 4655 e53d 2b4f 5e3e 620e 01be 2a1f 29be
000002e0: 00cb 36bb 9718 7c3e eae6 e23d 48d2 71be
000002f0: 5a25 9b3d 0781 cbbd bbc8 613e 6430 b4bd
00000300: dc45 3abc d59d 6bbe f6d8 c93d e369 e2bc
00000310: f71d 083e 6e4e b8bc c298 15be da45 c13e
00000320: 08c5 ca3d 9619 963d bb2a 6fbe 1e44 ee3e
00000330: 4fe1 193e 63b8 79be 6be1 373e 710c 14be
00000340: 6c20 b63d 0b29 aabd 8da2 683e 05ae 96be
00000350: 865d 603e 4bad a53e 7976 283e a61b 8dbd
00000360: 76ac 98be 38b9 173e 58cd 90be 7287 87be
00000370: 77a5 593e 789b 36be f37b 84be cedf c8be
00000380: 61e0 31bd 6767 7f3e c27c 733e 3a37 6b3e
00000390: 2656 96be 29d0 9ebd 6887 0d3e 5077 a23e
000003a0: d910 2b3e cab9 15be 57c6 833e a377 0bbe
000003b0: a00f 393e 00e9 323e f124 b9bd d8e6 1bbe
000003c0: f989 87be 6c07 17bd a9b6 23be d372 71be
000003d0: f7fb 3b3e c29f 61be 5636 a83d 0029 ccbb
000003e0: 3e55 b7bc 2821 6c3c fa19 fabd 9635 eb3d
000003f0: b6a7 123e b9c2 ae3c 5bad 07be 49ba e13e
-0.15448792 -0.2534637 0.04250607 0.101456195 0.23839891 0.28101662 -0.073856264 0.02978834
0.05506332 0.0072707236 -0.057446297 0.057573218 0.37074396 -0.19891077 -0.32435873 0.22568044
0.1288296 -0.40652728 0.20523718 -0.22274707 0.0019266552 -0.16568592 0.09319128 0.00844869
-0.34125653 -0.28468338 0.017546793 0.00029705232 0.19584158 0.036152907 -0.23209237 0.0635984
0.25321087 0.23866147 0.15408644 0.083672404 -0.1660838 0.15922302 0.20676705 0.14201774
0.009021209 0.17542118 0.18689024 0.13631843 -0.10799362 0.29016235 0.17689444 -0.27569872
-0.23767847 0.39150003 0.25596124 -0.17713918 0.16468555 0.05484968 -0.12559564 -0.05180769
-0.116232 0.08773536 0.16067496 -0.03929271 -0.15307859 -0.20742586 -0.34127915 0.20440112
0.06361967 -0.028250694 0.23192325 0.1651875 0.14916192 -0.2812232 0.29714045 0.14539675
0.22947198 -0.28567827 0.16762832 -0.010705197 0.16223206 0.27245843 0.2033402 -0.23182929
-0.016835928 0.11810003 0.025189225 0.13181452 0.1181934 -0.15962835 -0.16196704 -0.29738382
0.31642628 0.24662514 -0.18774508 0.11214506 0.005756567 0.085660905 0.03754695 0.024129134
0.13630633 -0.23543756 -0.32568228 0.044184737 0.026609957 -0.24521437 -0.20017435 -0.07059879
0.04886948 -0.10425614 0.08974979 0.20949414 -0.21122813 -0.19550192 -0.1297064 0.06343783
-0.07436347 -0.13136767 0.052344054 -0.31303144 -0.0015780142 0.25021568 0.29292133 0.19632582
-0.14163469 -0.08913571 -0.09421738 -0.24558859 -0.19711913 0.16202769 -0.30900398 -0.16647705
-0.0979421 -0.30249575 -0.12531422 -0.11064169 0.05172843 -0.20531078 -0.06775117 -0.129709
-0.38397554 0.17860293 -0.055784013 0.14346033 0.13774943 -0.15434587 0.22680056 0.18810101
0.06606006 0.12950367 -0.29809195 0.1479201 -0.070941105 0.19254795 0.25367692 -0.07646673
0.121552855 -0.30078948 0.01620404 -0.2057321 0.10788104 0.38245097 0.024909273 0.021705782
-0.223799 0.25875863 0.087310426 -0.064699546 0.2388366 -0.15323612 0.011775897 -0.25498092
-0.32102585 0.15521093 0.14450964 0.086984605 0.21959668 -0.20734063 0.16847256 0.14556953
-0.32231426 -0.1997114 -0.23256958 0.23436895 0.11197905 0.21709888 -0.12603143 -0.16515794
-0.0027891994 0.24618755 0.110791996 -0.23615372 0.075754836 -0.099367194 0.22049229 -0.08798292
-0.011369195 -0.23009427 0.09855835 -0.027638381 0.1329268 -0.022498336 -0.14609054 0.37748605
0.09900862 0.07329099 -0.23356144 0.46536344 0.15027355 -0.24386744 0.17957084 -0.14457871
0.08892903 -0.083086096 0.22718258 -0.2942964 0.21910676 0.32358775 0.16451444 -0.06890039
-0.29819077 0.14816749 -0.28281665 -0.26470524 0.21254526 -0.17832744 -0.25875816 -0.3923325
-0.043426875 0.24941789 0.2377806 0.22970286 -0.293626 -0.07754547 0.13821185 0.31731653
0.16705646 -0.14621654 0.2573726 -0.13619857 0.18072367 0.17471695 -0.09040249 -0.15224779
-0.26472452 -0.036872312 -0.15987648 -0.23578958 0.18357836 -0.22033599 0.08213489 -0.0062304735
-0.022379514 0.014412202 -0.12211986 0.1148483 0.14321789 0.021333085 -0.13249724 0.44087437

layers.0.bias f4 [512]
00000000: a39f 1d3d f2e9 543e 7026 0f3e 0d9f 7b3c
00000010: 5ef8 393e fd00 4e3e b3ca 41be d798 223d
00000020: 9f70 b2bd aee0 0d3e 0cad 173e 9e63 413e
00000030: 2970 c7bd a854 febb d1b1 7d3e c01c 3cbe
00000040: b2b1 ba3c f713 65bd 52f9 be3d ad10 8ebe
00000050: 811c fc3d a58c ed3d acb3 123d 82ac acbd
00000060: 4451 b43d 57d3 bc3d 91a9 333c 36ce 6dbe
00000070: 9f34 28be 3fd0 22be 1584 3fbe d294 b8be
00000080: 888b 363e e034 14bc feaf 39be 3417 573e
00000090: b24f c53d 0e20 24be 0685 fb3c 8560 f93d
000000a0: a732 1e3e aedc 13be 62cc 443e 5283 c03c
000000b0: 9403 68be 0498 8e3d 2019 bf3d 4117 943d
000000c0: ec1d 04be e970 9c3e 4c6a c9bd 1032 92be
000000d0: 194a ad3e f561 50be 19ec 7fbd 0017 3f3e
000000e0: 5452 b2bb ef5c 07be 0ef2 98bd f2c4 6b3d
000000f0: 28df b83c 9841 88bd fa4a 1d3e ecb2 01be
00000100: 51ea d53d a9f0 ab3d b2a6 70be ad2a 4fbe
00000110: bd0a fa3c a091 10be 55c8 06be 6ac4 babd
00000120: c72d 2b3e dfaa b23e 92aa 5a3e b400 44bd
00000130: 36bd 173e 136f 093e a9b1 533e 3580 6c3e
00000140: 6aac 6e3e fc41 aa3d d09c 323e 809b 8abe
00000150: 0d0e 963c 234e 2dbe df27 8e3e 0c8f f5bc
00000160: 54e8 333d ec76 8cbe d258 60be 6976 523e
00000170: 152a acbd 797e 9fbe 8eb9 6c3c 80d8 04bd
00000180: 3bc5 8c3c de0e 853e f467 e2bd 0b22 1bbe
00000190: d9d2 763e f230 b0bd 0041 083e e1a4 13be
000001a0: 40d3 a13d db6b 203e bc6e 853e df65 213e
000001b0: 3745 563e d13f 3e3e 0e8b 8abe 30ca 913e
000001c0: e28b a63e 3166 5dbe b0b7 80be 9964 9bbe
000001d0: e385 8d3c dd9e aa3e 6e26 62bc 5329 47be
000001e0: 623d 4f3d 10a4 aabe 5fda a03e 33a3 0ebe
000001f0: 438f 693e e330 bc3e 4a45 21be 7545 47be
00000200: 76c9 19be d1fa e43d a165 f83d 87b1 a9bd
00000210: 9ec7 8abb 4e1a 933d 6a65 e23c 06b3 5e3e
00000220: 3689 2cbd 9517 c2bd 5707 2cbe 6594 06be
00000230: 76be fb3d 2eae 6dbe 1ab7 8dbe c540 0e3d
00000240: d463 a2bd 6575 65bd 41a4 0d3d 661c 423d
00000250: 9a9a 73be 707c d0bc 3fb2 a83b 65a7 d23d
00000260: 213f 3e3e 514b 2fbe db94 00bd cbd1 063e
00000270: 0b80 253e 8610 54bd c7a4 77bc 8eae 863e
00000280: 469a 1e3c 9a2c 923e 6432 6cbe e60b 18be
00000290: 4530 4f3e 910f e83d 2426 b1bd ff45 3ebe
000002a0: ca7f 0c3d 6200 663d a4a1 7ebe aad9 0b3e
000002b0: ea4d e7bd b8b3 c43a 1b12 5cbc acbc 0d3e
000002c0: b4cd 28be ba7a 033d d3d1 04be 0d03 2c3e
000002d0: 55f0 45be aa2b 5e3e 12f0 dabd 501d 383e
000002e0: bf95 e2bd e2ee 623e 95e2 eebd f56b 31be
000002f0: 2ee2 b43d 479b 4abe 26d6 2c3d 9d67 5fbe
00000300: 3de3 70be 902d 1fbe 8720 453e fee0 6d3d
00000310: bd70 053d d24e 7cbd 12ca 8d3e d699 7b3d
00000320: 3796 adbd a02b db3d 1e94 243e 6793 9abe
00000330: 75b4 5e3d 54b7 803e 485c 2bbe 88f7 0b3e
00000340: 002e 293e 897c 053e 6d4a 03be 25d3 5abe
00000350: 20d5 1a3e 046b 483c 2113 b0be 4aa1 1b3e
00000360: 0cb8 a83d 6bcf 4cbe 0c85 f83d c713 933c
00000370: f803 91be d176 763e 26bf 98bd 1a10 163e
00000380: 6b2c a83d 4dfc 1cbe 38e9 f3bd 9db5 b4bd
00000390: dc03 dd3c 720b c5bc 7d21 333e 50cc 54be
000003a0: a893 193e 5af8 983d c9af cb3d 7181 69be
000003b0: 2e32 99bd a4f9 d93d bb80 9d3e 96b5 b3bd
000003c0: 16c7 ec3d c4a2 18be 057d 8abd 48ec cc3d
000003d0: 55b4 54be 2de6 713c 16ad 3cbe f332 05bc
000003e0: 8347 123e 45d6 46bd a906 3bbd 4ca5 33be
000003f0: 19a0 8bbd 67c1 2c3e 95bd 54be 629a 02be
0.03848232 0.20792368 0.13979506 0.015357745 0.18161151 0.20117564 -0.1892498 0.03969654
-0.08712887 0.1385524 0.14812106 0.18885657 -0.0973819 -0.0077615567 0.24774863 -0.18370342
0.02278981 -0.055927243 0.09324898 -0.27747098 0.12310124 0.115990914 0.03581588 -0.08431341
0.08804563 0.092199974 0.010965721 -0.23223194 -0.16426323 -0.15899752 -0.18702729 -0.3605104
0.17826664 -0.0090458095 -0.18133542 0.21004945 0.09634341 -0.16027853 0.030703079 0.12176613
0.1544901 -0.14439651 0.19218591 0.023500118 -0.22657615 0.069625884 0.09330964 0.07230998
-0.1290204 0.30554894 -0.09834728 -0.2855382 0.33845595 -0.20349868 -0.06248102 0.18661118
-0.005441943 -0.13219045 -0.07468043 0.05756087 0.022567347 -0.06653136 0.15360633 -0.1266591
0.10445083 0.08395512 -0.23501089 -0.20231123 0.030522699 -0.14118052 -0.13162358 -0.09119494
0.16716681 0.3489599 0.2135413 -0.047852233 0.14818272 0.13421278 0.2067324 0.23095782
0.23307958 0.08313367 0.17442632 -0.27071762 0.018317247 -0.16924338 0.27764794 -0.029975437
0.043922737 -0.2743448 -0.21908882 0.20552982 -0.08406464 -0.31151178 0.014448537 -0.032433033
0.01718389 0.25987905 -0.11054984 -0.15149705 0.2410387 -0.086030856 0.13306046 -0.14418365
0.07901621 0.15666144 0.26061046 0.15761517 0.20924841 0.18579032 -0.27059215 0.2847457
0.32528597 -0.21621014 -0.25140142 -0.30350187 0.017275756 0.33324328 -0.013803108 -0.19449358
0.05059565 -0.33328295 0.31416604 -0.13929443 0.22808556 0.36756048 -0.15749088 -0.1946009
-0.15018257 0.11180652 0.12128759 -0.08285814 -0.004235222 0.071827516 0.027636249 0.2174798
-0.042123042 -0.09477154 -0.16799675 -0.13142546 0.12292187 -0.23210976 -0.27678758 0.034729738
-0.07929197 -0.05602016 0.034580473 0.047390364 -0.23789445 -0.025449961 0.0051482017 0.10285834
0.1857877 -0.17118575 -0.03139196 0.13165967 0.16162126 -0.05177357 -0.01511497 0.2630505
0.009680336 0.28549653 -0.23066097 -0.14848289 0.20233257 0.11331094 -0.08649853 -0.18581389
0.034301557 0.05615271 -0.24866349 0.13657251 -0.11294158 0.0015007174 -0.013432051 0.13841504
-0.1648472 0.032099463 -0.12970667 0.16798039 -0.1932996 0.21696344 -0.10690321 0.17979932
-0.11063718 0.22161439 -0.11664311 -0.17326339 0.08832203 -0.19785796 0.042196415 -0.21816869
-0.23524185 -0.15544724 0.1925069 0.058075897 0.03257822 -0.061598606 0.2769323 0.061426006
-0.08475917 0.1070168 0.16072127 -0.30190584 0.054371316 0.25139868 -0.16734421 0.13668644
0.16521454 0.13035788 -0.1282136 -0.21369608 0.15120363 0.012232546 -0.34389594 0.15198246
0.08238229 -0.20000999 0.12134752 0.017953767 -0.2832334 0.24068762 -0.07458334 0.1465458
0.08211597 -0.1533062 -0.11909717 -0.088237025 0.02697938 -0.02405331 0.17493244 -0.20781064
0.14997733 0.07469244 0.09945638 -0.22803284 -0.07480274 0.10643318 0.30762276 -0.08774869
0.1156141 -0.1490584 -0.06762127 0.100060046 -0.20771916 0.014764351 -0.18425402 -0.008129823
0.14285092 -0.048544187 -0.04566065 -0.17543525 -0.068176456 0.16870652 -0.20775445 -0.12754205

layers.2.weight f4 [100, 512]
00000000: 3732 d83d 2495 683d e18e 5a3d 214e 42bd
00000010: cb9e 433d 2c24 813c 0e6e cc3d df62 bf3d
00000020: 740d 543c 239a cf3d 74b3 e23d f432 d63c
00000030: e57d d23d 9e1f 023d 50be 363e a830 893d
00000040: bf24 933d d59e 053e 2bf3 de3c a82d 5abd
00000050: 3474 a13d 5c75 04bc d0c9 d83d cc91 cf3c
00000060: b59e 023d 1dc6 603d bf0a 043e 3b82 adbd
00000070: 42ff 053e fb1a 6ebd 80ff 023b 742e 403d
00000080: 5472 5c3d 7e93 9bbd 3aae 98bd a908 a03d
00000090: 487c 9b3d 6cc8 debc 1896 d83d cd26 07ba
000000a0: 391f 003d 8e33 c83d ebc6 e73d ea1e df3d
000000b0: 4d9e 4c3c 009c e13d 7021 503d 90f0 fb3b
000000c0: b9e9 ca3d b611 993d 1baa b13d 4444 e13c
000000d0: 113f 0d3e 5d7b bcbd f7dd cfbc fe2f c43c
000000e0: 867d c63d 75d0 e83c 7d5e 4cbd bf6e 92bd
000000f0: 07d5 973d 5849 2a3c febe 9d3d 6729 0abd
00000100: 778a c33d 6f1f 6b3d 7e11 d1bb aabc 39bd
00000110: bf0c 22bd 8247 1ebd 331b eebb 660f 5e3d
00000120: fe35 d13d 380f e53d 4eb1 fa3d 33d1 2b3c
00000130: c3ba 353d 5be1 763d 3596 d53c af9b e63b
00000140: 20fc 583d dd1a db3d 0ecf 693d 8b94 c1bd
00000150: 4984 3f3d 78eb 703c 92f2 963d 986c 5bbb
00000160: 483e 943d f583 d7bb b105 0f3e 84c2 903d
00000170: 6681 483c 7532 93bd ba4f e13d 3dda 8b3d
00000180: b7a3 593d 4827 153e 358b bcbd 3dcf 083c
00000190: f52d b43d 4eb7 76bd e8c6 8f3d 7d67 73bc
000001a0: 5464 e93d 2ae3 b73d 3c5f 9d3d 354c d23d
000001b0: 4b97 0c3e 8616 883d 4286 e93c 5388 023e
000001c0: a806 f73d 81a5 6f3b 7a7c 3d3c 3185 883d
000001d0: 730c c93d 8012 ec3d dc9c 543c 8781 01bd
000001e0: 7b1d 063d 0abc b93c 2ff9 513d 2b44 8cbd
000001f0: 859a 123e dc89 993d f3bd 0cbd f7b3 71bd
00000200: b42e 8eba 7989 a13d b6c4 073c b1ee 933d
00000210: 0e1e 403c 331c 143e 7512 233d 7c14 a53d
00000220: e3a8 a33d 55d5 3ebd 9119 4fbd 77fd da3d
00000230: caf0 6a3d df73 0e3d 4a1f 0ebd 2464 223d
00000240: 4efd 363d b705 9ebb 8984 563d 5905 513d
00000250: a073 023e 987e 733d 36fc ae3a cc38 ad3d
00000260: 3c45 e83d ec81 0cbd 4d5f 5dbc ea59 873d
00000270: 9cfc 013e 586f 613d 96ea 6c3c 8279 f13d
00000280: aa1b d53d e1b5 003e 3afd 0c3d 4270 e23c
00000290: d585 ee3d 7593 b03d 234d b43d c430 42bc
000002a0: 2aa6 183d cc3b 9b3c b508 1bbc 4a3a c03d
000002b0: 58d7 993c 45c4 2e3d ff4d 813d 86a6 e23d
000002c0: 8579 febb 2297 cc3c 0f5e f13b 41f8 403d
000002d0: fe33 c4b7 7e15 7f3d b84e 1cbc b201 673c
000002e0: a688 013d 6d7f e23d 34c2 9a3b 1178 07b9
000002f0: 554b 873c bbda bd3c de25 be3d 0246 f1bc
00000300: 6da6 afbd 5abe 653d d9c3 003d 4c8f 683d
00000310: 439e de3c e1f8 463d 56cb dd3d 980c c33c
00000320: 0cc9 c3ba da0d 0b3e 73ca 9f3d 9fec 4d3c
00000330: 1cff 8a3d af48 893d 267c d53c e8d4 bd3d
00000340: a7bf f93d fe5b a73d dc61 d53c c85a e43c
00000350: 5b5a e13d ea70 c83c 6a95 19b8 fdab c73d
00000360: 9982 753d 7236 6d3c b73e 0a3d 09db f53d
00000370: 3976 96bc 591c 3b3e e2d2 973d db31 693e
00000380: a4ab 3bb7 378a 29bc 68f7 bd3d 3213 31bd
00000390: 8a31 2a3d c537 613c ce06 133e f650 8f3c
000003a0: 2f9a 893d db97 d33d b8c4 433d b74d 243c
000003b0: 414f 913b 78dd a93d d207 233e 957b e23d
000003c0: 93d2 a93d e27e 243e d762 85bb 6a4e 443d
000003d0: 2f39 6abc 562c 34bd 5e94 b23b eb93 bb3d
000003e0: f2eb c43d 4201 a13d 9fa5 cc3b 8442 bf3c
000003f0: 0a65 7c3d a0d8 d8bb 0223 853b 308f 833d
0.10556453 0.056782857 0.053358916 -0.04743779 0.04775886 0.015764318 0.09981929 0.0934503
0.012942661 0.10136821 0.11069384 0.026147343 0.10277919 0.031768434 0.17846036 0.066987336
0.07184743 0.13048871 0.02721556 -0.053266197 0.07883492 -0.008084621 0.10585368 0.025338076
0.031889636 0.054876436 0.12894724 -0.08472105 0.13085654 -0.0581312 0.0019988716 0.0469193
0.05381997 -0.07596491 -0.07455106 0.07814152 0.07592064 -0.027195178 0.10575503 -0.0005155623
0.031279776 0.09775458 0.113172375 0.10894568 0.012488914 0.11016083 0.05081314 0.0076885894
0.0990786 0.07474081 0.08675023 0.027498372 0.13793589 -0.09203217 -0.025374396 0.023948666
0.096919104 0.028419713 -0.0498948 -0.071500294 0.074136786 0.010393463 0.077024445 -0.03373089
0.095478944 0.057403024 -0.006380259 -0.04534594 -0.039562937 -0.038642414 -0.007266426 0.054213904
0.10215376 0.11184543 0.122408494 0.010486889 0.044367563 0.06027351 0.0260726 0.007037602
0.05297482 0.10698483 0.05708223 -0.094521604 0.046757016 0.014704578 0.07370485 -0.0033481475
0.07238442 -0.00657701 0.13967015 0.07068351 0.012237882 -0.07187358 0.11001535 0.06828735
0.053134646 0.14565766 -0.09206239 0.008350191 0.08797828 -0.060233407 0.0702036 -0.0148562165
0.11396089 0.08978875 0.0768418 0.102684416 0.13729589 0.06644921 0.028506402 0.12747316
0.120618165 0.0036567154 0.011565322 0.06666029 0.098168276 0.11526966 0.012976851 -0.031617668
0.03274296 0.022672672 0.05126303 -0.068489395 0.14316757 0.07496998 -0.034360837 -0.05900952
-0.0010847659 0.07887549 0.008286646 0.07223261 0.011725916 0.14463882 0.039812524 0.08060548
0.07991197 -0.046590168 -0.05056149 0.10692876 0.05735854 0.034778472 -0.03469781 0.039646283
0.044675164 -0.0048224586 0.05237249 0.05103049 0.1273942 0.0594469 0.0013350311 0.08458099
0.113413304 -0.03430359 -0.013511491 0.066089466 0.12694019 0.055037826 0.0144602265 0.11790754
0.10405667 0.12569381 0.034421183 0.02764142 0.1164662 0.08621875 0.08803775 -0.011852447
0.03726784 0.018949412 -0.009462525 0.09386118 0.018779442 0.042667646 0.06313705 0.11066918
-0.007765951 0.02497441 0.007365949 0.047111753 -2.3389232e-05 0.062276356 -0.009540252 0.014099525
0.03162446 0.11059461 0.004722858 -0.00012919331 0.016515413 0.023175588 0.09284566 -0.029452328
-0.08576665 0.056089737 0.031436775 0.056777284 0.027175074 0.048577193 0.10829799 0.023809716
-0.0014937236 0.13579503 0.07802286 0.012568622 0.067869395 0.067033164 0.026060175 0.09269124
0.12194758 0.08171843 0.02604764 0.02787532 0.11003562 0.024467904 -3.6617195e-05 0.09749601
0.059939 0.014478313 0.033751216 0.12004668 -0.01836692 0.18272533 0.074132696 0.22772925
-1.1186032e-05 -0.010347894 0.092757046 -0.043231197 0.04155115 0.013746207 0.14358065 0.01749466
0.06718861 0.103316985 0.047795027 0.010028294 0.0044344966 0.08294195 0.15920952 0.11058728
0.08292117 0.16064027 -0.0040706205 0.047926344 -0.01429586 -0.043987595 0.0054498157 0.091590725
0.096153155 0.07861568 0.0062453295 0.023347147 0.061619796 -0.0066176206 0.004063011 0.06423795

layers.2.bias f4 [100]
00000000: 07e9 ec3d ca45 603c 8ea1 cf3c 6b62 1ebc
00000010: a748 28bd 4fd4 efba 4b0e 313d 64a0 5c3d
00000020: 5b0b 0abd eb08 80bc 2ea6 5dbd 9b04 693d
00000030: 4b18 a73d acd8 33bd 4202 2c3c f38f 33bd
00000040: 22a6 97ba e22f 3d3d 762d e9bc f9dd a5bc
00000050: e4c3 8b3c 12cd 4abd 06c9 b6bc 712a e2bc
00000060: 1382 ba3c 346e 93bc 8de6 133e 87ae 3b3c
00000070: cc7d 3abd 1b01 de3d dd7d 7bbd 8fdc 7fbd
00000080: 2d9e a93b ac11 62bc cc67 02bd 99fe a43d
00000090: d18d dd3c 8c1e a43d 401d c13d a803 d2bc
000000a0: 027f 55bc 013d 913d fc08 27bd 7042 d8bb
000000b0: 3543 173d 659e 9b3d 4d0a f23b b9ad 0cbd
000000c0: 7187 3abc 2f7a 5dbc 74e5 443d cf61 2dbd
000000d0: c713 afbc 4a3d 0a3e 2bce 843d e720 693d
000000e0: 3d4c c03d 7320 c2bc 33b0 2cbd dd9a 923d
000000f0: bb7e 503d 5c53 b6bc dbe4 f1bc 0b72 25bd
00000100: d762 2ebd 581e 443d 8ab0 5b3c 3b39 51bd
00000110: 50a0 b5bc 1297 75bd 0d58 ae3c 9b25 023d
00000120: a9a2 bc3d 8f28 05bd 58be 503a 8edf 463b
00000130: 9a36 1dbb 35e0 0ebd 0d3a 8f3b a15e 903b
00000140: c1e8 003d c59b 533c eaf9 a93d 5a3b 5b3d
00000150: 9b29 8abc b037 0bbd ddc1 9cbc de68 88bd
00000160: 1402 8bbb 285e 11bd 0934 bcbc c2b3 033d
00000170: ef53 633d 49c2 213d 1aa2 c03c fa8c 76bd
00000180: 3df8 7abc 0410 3239 e3e6 c8bc f065 3f3c
0.11567884 0.013688514 0.02534559 -0.009667019 -0.04108491 -0.0018297526 0.04322652 0.053863898
-0.033702236 -0.015629252 -0.05411356 0.056889158 0.081589304 -0.043907806 0.010498585 -0.043838453
-0.0011569897 0.046188243 -0.02846406 -0.020247446 0.017061181 -0.049511977 -0.022312652 -0.027608128
0.022767102 -0.017996885 0.14443417 0.011455185 -0.045530125 0.108400546 -0.06139933 -0.0624662
0.0051763267 -0.013798159 -0.03183727 0.08056373 0.027045162 0.08013639 0.09429407 -0.025636509
-0.013030769 0.07091714 -0.040780053 -0.006599717 0.036929328 0.07598571 0.007386482 -0.034345362
-0.011384831 -0.0135179 0.048070386 -0.042329606 -0.021371735 0.13499942 0.06484636 0.056916144
0.09389541 -0.023697114 -0.042160224 0.07158444 0.05090211 -0.022256546 -0.029528072 -0.040391963
-0.04257473 0.0478805 0.013408789 -0.05107997 -0.02217117 -0.059958525 0.02128222 0.031774145
0.092107125 -0.032509383 0.0007962934 0.0030345651 -0.0023988844 -0.03488179 0.004370934 0.004405812
0.03147197 0.012915556 0.082996204 0.0535234 -0.016865542 -0.033988655 -0.01913541 -0.06660627
-0.004242191 -0.035490185 -0.022974031 0.032153852 0.055499967 0.039491925 0.023514796 -0.06019304
-0.015317974 0.00016981369 -0.024524158 0.011682019

layers.4.weight f4 [8, 100]
00000000: 1e2d b2bd ac7f 05bd 9035 c0bd 136b 1cbd
00000010: d314 633d 8f4b 80bc c3ea 08be 368f bdbb
00000020: 6deb 6b39 bae0 ffbc 8921 833c 4a5f 503b
00000030: 638d dbbd 23d9 b9bc f8f9 c2bd 4fd3 863d
00000040: 98cd c73d 7951 f33c dd86 a0bd 969c 1139
00000050: af05 a1bc 4179 fb3c 218b 6f3c c266 26bd
00000060: ea87 15be b8b9 81bd 487c 90bd 801b afbd
00000070: e219 c93d 9577 aabc 5471 acbd a3d8 513d
00000080: 9509 7c3d f9d2 cdbd e836 28bd 66ba e9bd
00000090: 4f08 90bd 6fef 08be 695f 85bd 7990 6ebd
000000a0: 0761 9c3c 5889 0ebe f9a2 6e3d b40f c73c
000000b0: 90f6 00be 015c 563c 59e0 413d 8357 6cbd
000000c0: d4d3 5e3b 581b 6d3b 782b c1bd f412 1ebe
000000d0: bb4a 83bd e067 d0bd c169 f5bd 3771 a8bd
000000e0: fb93 96bd fb56 6fbd 29a7 1cbd 09a1 12be
000000f0: f318 6cba 5780 8cbd 6429 563c 85ff abbd
00000100: 0cde 233d 601b d8bc 3925 aa3c 3e3d 9e3d
00000110: 046e 923d 3cf1 1f3d e098 933c d84a ad3c
00000120: ef39 08be 9f1e 8e3c d56a 8ebd 5146 1abe
00000130: b505 85bd a7d1 833d c020 3f3d 31d1 383d
00000140: 8048 9b3a 2adf d4bb 546b 0ebe 51f0 f3bb
00000150: 771b 97bd bbf4 f93c cb96 a6bd 895c 513c
00000160: faa5 8e3c 83bc 5abd 3f79 81bd 9cbd c6bc
00000170: 07d1 01be e380 d2bd cf2e 8a3d 38ef 7f3d
00000180: 14ac e03c 2487 cebc 995c 8f3d d4ed 0f3d
00000190: 2ad8 00bc 218b d43a d243 bc3d 71ac 983d
000001a0: 1333 173c f30a 08bd 64c3 93bd 26c8 0fbe
000001b0: f8f7 a33d 1700 33bc cfbc f7bc 53ed cbbb
000001c0: ce21 0ebd c6c2 92bd c0ac b23d de92 01be
000001d0: 10fc 09bd 74d1 553d dddb 86bd e847 943d
000001e0: 8f5a 0c3d 057f 5bbd b079 e53d c81a dabc
000001f0: a7da b3bd 3811 6c3c fa71 783c f9ea 093d
00000200: a758 b4bd 1fa9 18bd bc19 a03c 9c5b 0ebd
00000210: 7a2c c8bd 338f 83bd bcf9 4abd d594 9cbc
00000220: c7a8 32bd 55ee f2bd febb eb3c a2af 5cbd
00000230: 6c44 ce3c 9320 e3bd 7e6d 863c 4e5e 01bd
00000240: bc88 213d 57ba eebd d3f7 afbb 8536 663d
00000250: ca81 e1bd 1804 21bd 8268 dc3d 8050 b5bc
00000260: e094 62bd 3cb5 19be 0e20 753c 6abb 5bbd
00000270: e4ed 64bd 8fdd 93bd cf10 01bd cff1 edbd
00000280: 2d62 dabd 84af 7dbb f22b a53b 76bc 723d
00000290: ee3d 333d 4958 d7bd 1713 91bd 629b 113c
000002a0: b240 a03d 5c94 c5bd 60a8 85bd 2587 1d3d
000002b0: 90a2 75bd 65f8 31bd 5325 d53c ec9d a13d
000002c0: 5d3c 84bd 944e 543d 2ac9 9f3d e80b 8abc
000002d0: 6636 f2bd 3324 813c 20fb 3bbc 0c4d 4a3d
000002e0: d268 3f39 e3f2 9a3d 4113 73bd 8e7f cc3c
000002f0: a377 a8bd bd3c 08be edae 0abe 5ef3 d93b
00000300: 83b6 06be 4084 933d 42b3 25bd fa6a babd
00000310: dc06 95bd 99d0 9fbd 07e6 553d 8d1f c83d
00000320: 058f 1fbe 546e 843d e3c5 36bd d063 34bd
00000330: 640d aebd 5b4e c23c 9056 e8bd bd45 30be
00000340: a974 c739 c179 7a3c 093b a8bd fce5 e43d
00000350: 6694 b0bd 14dc 91bd 9625 f23d 3217 77bd
00000360: 71cd e33d c1ef ddbd ee1b cd3d de1c 143d
00000370: 4388 3abd a256 a6bd 4126 b13d e7ef 403d
00000380: 8067 483c cb08 1cbe 4bbc 55be 8122 0abc
00000390: 1832 c93d 5977 72be adfb 363d 6cd6 843d
000003a0: 8964 abbd 985e c3bd 96d1 c43d 99f3 20bd
000003b0: e5da 84bd 0aa9 00bd 4bae 8c3d 90f0 3ebe
000003c0: 69dd 32bd e999 343d 2fd4 863d 23f7 9ebd
000003d0: 9d72 083c c62f 2bbe bf04 ce3d 94e0 6a3d
000003e0: 6d6a d8bd 81e5 d3bb bed2 9d3d 1a4b aabd
000003f0: 3a9c b2bd db8a 15be 8162 cc3b c2ac e13c
-0.08700012 -0.03259246 -0.09385216 -0.03818805 0.05543978 -0.01566103 -0.13370804 -0.0057848943
0.0002249905 -0.031235088 0.016007202 0.0031795078 -0.10720327 -0.022686547 -0.09520334 0.06583273
0.09756011 0.029701935 -0.07838223 0.0001388661 -0.01965603 0.030697467 0.014620573 -0.04062534
-0.14602628 -0.06334251 -0.07054955 -0.08550167 0.0981939 -0.020808974 -0.08420053 0.05123199
0.061532576 -0.100500055 -0.041067988 -0.11412506 -0.07032835 -0.13372587 -0.06512339 -0.05824325
0.019089235 -0.1391958 0.05826089 0.02429948 -0.12594056 0.013083459 0.047333095 -0.057700645
0.003400077 0.0036179628 -0.09432119 -0.15436918 -0.06410738 -0.101760626 -0.119830616 -0.08224719
-0.07352444 -0.05843256 -0.038245354 -0.14319243 -0.0009006403 -0.068604164 0.013071392 -0.08398346
0.040006682 -0.02638024 0.020769702 0.07726525 0.0714989 0.03904842 0.018017232 0.021153852
-0.1330335 0.017348586 -0.0695397 -0.15065886 -0.06495229 0.064364724 0.046662092 0.045121375
0.0011847168 -0.00649633 -0.1390813 -0.0074444194 -0.073782854 0.030512204 -0.0813423 0.01277841
0.017413128 -0.053402435 -0.06321954 -0.024260335 -0.12677394 -0.102784894 0.06747209 0.062483996
0.027425803 -0.025210924 0.070000835 0.03513892 -0.0078640375 0.001621578 0.09192623 0.074547656
0.009228486 -0.033213567 -0.07215002 -0.14041194 0.08006281 -0.010925314 -0.030241398 -0.0062233596
-0.034700207 -0.07166056 0.08724356 -0.12653682 -0.03368765 0.052201703 -0.06584904 0.072402775
0.03426605 -0.053587932 0.11204851 -0.026624098 -0.08781939 0.014408402 0.015163893 0.033671353
-0.088059716 -0.03727066 0.019543521 -0.034755334 -0.09774108 -0.064237975 -0.04955457 -0.019113937
-0.04361799 -0.118618645 0.028776165 -0.053878434 0.02517911 -0.110901974 0.016409632 -0.031584077
0.03943704 -0.11656635 -0.005370119 0.056204338 -0.110110834 -0.039310545 0.10762121 -0.022133112
-0.05531776 -0.15010542 0.014961256 -0.05364553 -0.055890933 -0.07219993 -0.03151017 -0.11618387
-0.10663257 -0.0038709352 0.005040639 0.05926176 0.043760233 -0.10514886 -0.07083719 0.008887144
0.0782484 -0.09647438 -0.065262556 0.038458962 -0.059969485 -0.043449778 0.026018774 0.07891449
-0.06456826 0.05183275 0.07802041 -0.01685138 -0.11826782 0.015764331 -0.011473447 0.049389884
0.00018254228 0.07565858 -0.059344534 0.024963167 -0.08225944 -0.1330442 -0.13543291 0.006651326
-0.1315556 0.07202959 -0.040454157 -0.091024354 -0.07276699 -0.07803459 0.052221324 0.09771643
-0.15581901 0.06466356 -0.044622313 -0.0440405 -0.08498648 0.023719003 -0.113446355 -0.17214103
0.00038043156 0.015287817 -0.08214385 0.111766785 -0.08622055 -0.07122055 0.11823575 -0.060324855
0.11123169 -0.10836745 0.10015093 0.036160342 -0.045540106 -0.08121993 0.086498745 0.04710379
0.012231708 -0.15237729 -0.2087261 -0.008431078 0.09824008 -0.2367834 0.04467361 0.0648621
-0.08368785 -0.09539527 0.09610288 -0.039294813 -0.06487063 -0.03141121 0.06869181 -0.18646455
-0.043668184 0.044092093 0.065834396 -0.07761981 0.008328107 -0.16717443 0.10059499 0.05734308
-0.10567174 -0.006466568 0.077062115 -0.08315106 -0.08721204 -0.1460375 0.0062373285 0.027548198

layers.4.bias f4 [8]
00000000: 1c7c 9fbc ce9d f6bc a484 d1ba cd11 323e
00000010: 7451 02bd f469 8a3d d53a 32bd fa45 8f3c
-0.01946836 -0.030104544 -0.0015984965 0.17389603 -0.03181596 0.0675849 -0.043513138 0.017489422
