trained_model.pt (torch, 224735 bytes, 6 tensors)

layers.0.weight f4 [512, 7]
00000000: 5936 bb3e 775e 9ebe c9c1 18be 0a28 1bbe
00000010: 31a2 83be 7e82 af3e 0129 73bd e3fd 833e
00000020: 2b93 c7be 086a db3d 6717 99bd 0e6b 333e
00000030: 6da4 463e 4c27 9f3e d375 183e f4a3 95be
00000040: face 153e 28f8 643e 1aa9 f3bd c9d2 98bd
00000050: fef8 28be bf5d b8bc 779e b3bd dedb 35be
00000060: 8f00 f33d f757 633e d619 54be cf71 00bd
00000070: e38a 98be 808f ad3d e0fd 8cbd 5b10 71bd
00000080: 5fa8 683d f9e1 d63d 2a12 3cbe 8dc2 793e
00000090: c4b6 603e f693 4ebe 22f5 d2bc 61bd e9bc
000000a0: 8652 b9be c42c 89be 91e5 cd3d d48c 793d
000000b0: 3dc9 823e 3ef4 823d 37e2 8cbe 1242 f4bd
000000c0: cb03 c1be db31 6abd b722 7cbe 6a39 4cbe
000000d0: e768 0dbe db3d c6bd bc26 aebe 2cbe 193b
000000e0: fe06 403d 8260 3ebe 6137 a63e ce98 cbbb
000000f0: 0919 893e 20f3 9cbd 1b08 08be 0b1c 99be
00000100: d1db 26be b136 c0be 9c0c 6abe 3747 243d
00000110: 1247 b63d ffae 333e 67b3 7f3e 58b6 c1be
00000120: a8be 2b3d e4e3 883e 4f8d a8be 59da 91be
00000130: 9332 97be c0b9 a0be d2ca 8dbe d5e9 ab3e
00000140: 915b 3fbe 2589 93be f74e 973e 38ac 08be
00000150: 34bc 873e 69bb 9d3e 0432 d73d 3edc 97be
00000160: 5f35 9abe 621e b7bd aab1 703e b99d 58be
00000170: da73 923e 1a71 383e 8d7e 4a3c ac29 8dbd
00000180: d092 533d ce90 c03e bbaa 583e e903 abbe
00000190: 90a7 f8bc 30e4 2abe 1da5 a4be b493 8f3e
000001a0: 05da 233e 2310 e33e cdcb b7bc 9e86 5b3e
000001b0: 953a 79be 3d33 5c3e 3440 31be 0d9a 9f3d
000001c0: 294e a23d cfa5 2fbe f69c 50be b85c 5f3e
000001d0: 9c84 1f3e b241 90be 860c 853d f7b4 973e
000001e0: db60 a93e 9e3c 6ebe 48ec 3fbe 9916 733e
000001f0: cdbd 283e d826 ab3e 6d29 303d f81a 213d
00000200: 25d0 76be f691 f33a 11e4 b83d 53e9 3cbe
00000210: 493e 49be 3b6b 833e 2d07 623e e207 99be
00000220: fae3 0dbd b90a bcbe ed32 96be 2ed0 bfbe
00000230: 3d7f 443e 5d5c f1bd ed46 babe 6308 763e
00000240: 1a67 a83d a926 95bd 7a3d 723d d31c 8e3e
00000250: 443b b8be d962 b33e c31a 8fbd 7ada 923e
00000260: 8125 a4be 4632 be3e b460 153e 9fde 80bd
00000270: 8308 1abe c426 fabc 1b74 9abd 4373 93bd
00000280: eea5 9e3c f1eb 933d ff09 6ebe dfd4 ab3e
00000290: a227 833e 523f 21be a90d 9e3e e32c 233e
000002a0: 2dbb 683d 2157 2fbe 9326 1cbe 54d0 853e
000002b0: 164f 763d 6a81 90be 7c8a 9abe e83c a5be
000002c0: a41c 5bbe 6f10 99be 715d 0f3e 177a 89be
000002d0: dac9 1c3e 4b0e b03b e62f 50be 64a1 893d
000002e0: e456 843d 2a76 4f3c da76 c1bc ffbb 6ebe
000002f0: af9c ad3d 58fb 3d3e ced9 4bbe 4494 c1bd
00000300: c7e1 8f3d 9ba5 ab3e f8fb c43e 50d3 b33e
00000310: ede0 0bbe 329e d5bd c9ce b5be 6237 913e
00000320: 702e 9dbe 336e c2be 049d 823e 78dd aa3e
00000330: a0cc b1be b04b 21bd 7363 953e 2051 c4bd
00000340: ebb0 99be 9dd6 aebe 2cb5 9f3e 7ff0 8fbe
00000350: 6729 ba3e 677b 95be 7174 4dbe b7ef e63d
00000360: 5f7f ccbd 223f 0e3e e0c1 aebe ca8c 523e
00000370: 73b4 2ebe 980c 1e3e 52fd cd3e d4a3 223e
00000380: f18b bfbe 1fc4 b83e 7f16 b83e d9b2 203e
00000390: 7039 26be 0c8c 683e b958 a13e 2b80 40bd
000003a0: a680 a9be 2e1d 493e a604 b33d 9de6 a93d
000003b0: 35ae aabd 0412 cebd e50a 093e 6e2b a53e
000003c0: 8ca3 b0bd 3f1d 813d 198f 8b3b a02f 9fbd
000003d0: 4af9 f13b 2b43 3abe a276 b43e 9cf3 b7be
000003e0: f367 5dbe 729b d3bd 009e 8d3e ebb5 ca3c
000003f0: ce49 dc3c e6fb 81be 7f2a 863e 41de 44be
0.365649 -0.30931446 -0.14917673 -0.15151992 -0.2570968 0.34279245 -0.059365276 0.25779638
-0.38979468 0.10713583 -0.07475167 0.17521307 0.19398661 0.3108467 0.14888696 -0.2922665
0.14629737 0.22360289 -0.11897488 -0.07462079 -0.16501233 -0.02250564 -0.08770459 -0.17759654
0.11865341 0.22201525 -0.2071298 -0.031358536 -0.29793462 0.08474636 -0.0688436 -0.05885349
0.056801196 0.104923196 -0.18366304 0.24390621 0.2194472 -0.2017363 -0.025751654 -0.028532686
-0.36195773 -0.26791966 0.10053552 0.06092532 0.25544158 0.06394242 -0.27516338 -0.119266644
-0.37698206 -0.057176452 -0.24622618 -0.19943777 -0.13809548 -0.09679767 -0.34013927 0.0023459299
0.04688167 -0.18591502 0.32464126 -0.006213284 0.26776913 -0.0766356 -0.13284342 -0.29904208
-0.16294791 -0.37541726 -0.22856373 0.04010698 0.08900274 0.17547224 0.2497078 -0.3783443
0.04192987 0.26736367 -0.3292031 -0.284869 -0.29530773 -0.31391716 -0.27693802 0.33576837
-0.18687274 -0.2881557 0.29552433 -0.13346946 0.26510775 0.30807045 0.105075866 -0.2966022
-0.30118844 -0.08941342 0.23505273 -0.21153916 0.28604013 0.18011895 0.012359274 -0.06892714
0.051653683 0.37610477 0.21158879 -0.3340142 -0.030353338 -0.16688609 -0.3215722 0.28042376
0.16001137 0.4434825 -0.022436047 0.21438071 -0.24338754 0.21503921 -0.17309648 0.07793055
0.07925064 -0.17153095 -0.20372376 0.21812713 0.1557793 -0.28175122 0.06496529 0.29630253
0.33081707 -0.23265311 -0.18742478 0.23739089 0.16478653 0.33428073 0.043008257 0.03933236
-0.24102838 0.0018582928 0.09027875 -0.18448381 -0.19652666 0.25667748 0.2207305 -0.29888827
-0.034641244 -0.3672693 -0.29335728 -0.37463516 0.19189163 -0.11785195 -0.36382237 0.24026637
0.0822279 -0.072827645 0.05914066 0.27756366 -0.35982716 0.35036352 -0.06987526 0.2868231
-0.32059863 0.3714773 0.1458767 -0.062924616 -0.1504231 -0.030536063 -0.075416766 -0.07199719
0.01936623 0.072227366 -0.23246 0.33560845 0.25616175 -0.15746811 0.30869797 0.15935092
0.05681913 -0.17123081 -0.1524909 0.26135504 0.060134016 -0.28223735 -0.3018378 -0.3227303
-0.21397644 -0.2989535 0.14000489 -0.2685096 0.15311375 0.0053727976 -0.20330772 0.06720236
0.064618856 0.01266245 -0.023616243 -0.23313902 0.08477151 0.18552911 -0.19907305 -0.094521075
0.070254855 0.33524784 0.38473487 0.35122156 -0.13660021 -0.10430564 -0.35509327 0.28362566
-0.30699492 -0.379747 0.25510418 0.33372092 -0.3472643 -0.03937882 0.29177436 -0.09585786
-0.3001779 -0.34148112 0.3119291 -0.2811317 0.36359712 -0.2919571 -0.2006395 0.11276191
-0.099852316 0.13891271 -0.3413229 0.2056152 -0.17061023 0.15434492 0.4023233 0.15882808
-0.37411454 0.3608713 0.35954663 0.15693225 -0.16232848 0.22709674 0.31513003 -0.04699723
-0.33105963 0.19640037 0.08741121 0.08295939 -0.083340086 -0.1006203 0.13383062 0.32259697
-0.08624944 0.063044064 0.004259002 -0.077727556 0.007384454 -0.18189685 0.3524676 -0.35928047
-0.21621685 -0.10332383 0.27659607 0.024744948 0.026890662 -0.25387496 0.26204297 -0.19225408

layers.0.bias f4 [512]
00000000: a73d 68be d2b2 9a3d 9292 3ebd 40be f9bd
00000010: 81c5 583e 4e88 7c3d be1b b0be 3315 c93d
00000020: 97f6 82be 1f75 28be da70 30bd ea0c a9be
00000030: d217 a33e 25a2 c53e ae66 cb3d e765 8f3e
00000040: 7b92 d83d f656 6fbc 86c3 9fbe 3039 9ab8
00000050: 2a16 6d3d 02d4 55be b44a 113d d452 93be
00000060: 0545 ba3c ce09 b73e 3259 a9be 0553 53be
00000070: 7421 64be 32f2 48be b951 6f3c a78b 93be
00000080: 156b 813e ed29 aa3e 683a bbbe 88ea 9cbe
00000090: 1e76 a0be 16fd 543d f61b 3ebe b59e 483e
000000a0: 6f9f 1a3e ff5d c2bd 2d89 43be d521 843d
000000b0: 3d13 983e 8503 b6bd 0af4 81be b877 80be
000000c0: d0d1 0f3d 0ec7 7f3e d381 833e 7954 6bbd
000000d0: 6213 aebe ab2a a5be 967a 423d a16e 47be
000000e0: b605 5abe 449a 92be 2841 bbbd 9d18 973c
000000f0: 36ab 543e 45aa fcbd 5ed9 ab3e 366b afbe
00000100: ca17 70be f958 94bd f1fc 73be b15d 74be
00000110: e5c0 8bbe 20c6 123e 95f5 fe3c 0529 b73d
00000120: fa79 813e ae9d a73e 4c71 3d3e 636c b33c
00000130: 1288 ad3e bfed 8b3d 28d5 473d 2a99 b63d
00000140: feb7 8dbe 3b53 12be c5d7 91be ae97 a8be
00000150: cd08 833e a95b 7a3e 9737 4dbe e2bb 8fbe
00000160: 7309 b93e f326 d83d f635 0abe 544e a83e
00000170: edbc a23e b864 8ebd 24cd 803d 32d8 6b3d
00000180: 1605 463e fd52 f0bd 9484 c33e 6e2b ee3d
00000190: 125d 9e3d 9ac1 cc3b c0be 463e 2c33 7f3e
000001a0: b6a1 05be 6f9c 67be 7ef8 8b3e 0b4f 5a3e
000001b0: c988 9a3e 55f9 033d ecd8 743e 2225 a53e
000001c0: 2f0b 8d3e 321f c2be a011 73bd abbb 55be
000001d0: 80cf b6be c359 5a3e 7bc6 9e3e 4ecf 87be
000001e0: ef4a 973e b763 a63e 0a55 9e3e c378 3fbe
000001f0: 047c 99be e3dd a6be d6c8 b3be b68c ccbd
00000200: 517a 07be 82aa a53e 33d4 3e3e 47d6 0f3d
00000210: a209 31be cc48 87bc b127 b23d 9e48 b1be
00000220: 7695 b6be 3c75 0e3d 0328 a3be 0cde abbc
00000230: cecb 9abe 8509 a2be a443 34be c17c 6c3e
00000240: cf29 b13d 900f 233e 38ff b73d 5ce4 8d3e
00000250: 6a06 04be 0acd 18be 187c 0cbe 462b d2bd
00000260: 594e 373e fdde 25be 372e 933d e12a 70be
00000270: b718 3b3c 5e3b 11be 9364 9b3e 3b19 183d
00000280: a3ec 953d 4f89 3abe ced1 1ebe 8665 3d3d
00000290: 29b4 59be 4e63 6abe 7d45 8cbe e4c0 953e
000002a0: 185f e03d f63d a4be b941 9b3e ff2b 853e
000002b0: 6d0d 88be df1a b5be 6723 03ba a532 99be
000002c0: 6d05 3c3e 95cb 84be fd69 b2be 82e1 c73e
000002d0: 2287 0b3e f649 313e 170b 29be 888f e2bc
000002e0: 60f7 80be e851 40bc 1a99 563e 44bf 83be
000002f0: b754 73be 1e78 643d 44b4 38be 1e0a 923d
00000300: 8511 763e 60d2 bc3a 3fe5 9abe 4220 fe3d
00000310: 0ebd 7fbe b447 6abe b2ab 923e df89 c1be
00000320: 0fe4 89be dc9d dcbd 6a96 27be 036c 083e
00000330: cbb6 b83e ca88 3abd e35d 04be 9292 93bd
00000340: a375 333e d775 6abe 3bdb 1a3d 846f c83e
00000350: 1dc3 43be 258c 4bbe 9938 96bd 765a 693e
00000360: 8e2f 283e 3669 04bd a237 a2be f5b7 9fbe
00000370: 410c 52be ca69 c23e 6123 923e 0266 b53e
00000380: 2935 363e 7ede 4bbe 9f23 2c3b 404e e93d
00000390: fa3f 913e 2a5a 3a3e 6c94 58be e69a 603e
000003a0: ecd9 9ebe 6b53 ad3c ab75 c53e 916e ac3e
000003b0: 6576 d63d f8e6 ee3b b4cd 8e3e fe81 6b3c
000003c0: 6068 c2be 6010 6bbe c696 513e def1 363d
000003d0: a382 96be 3bcb bd3e 69d7 b8bd 4f14 70be
000003e0: a969 3b3e 036d 8e3e 14af 97bd 93e2 c83e
000003f0: 5c31 aebd 8d62 85bd e80b 123d 8d84 51bd
-0.22679769 0.075536385 -0.0465265 -0.121944904 0.21169092 0.061653428 -0.34396166 0.098184966
-0.25578758 -0.16450928 -0.043076374 -0.33017665 0.3185411 0.3860027 0.09931694 0.28007433
0.10574814 -0.014608135 -0.3120386 -7.353944e-05 0.057882465 -0.20881656 0.035471633 -0.2877413
0.02273799 0.35749668 -0.33075863 -0.20637138 -0.22278386 -0.1962364 0.014606887 -0.28817484
0.2527701 0.33235112 -0.36567998 -0.30647683 -0.31340116 0.051999174 -0.18565354 0.19591792
0.15099882 -0.094905846 -0.19095297 0.064517654 0.29702178 -0.0888739 -0.253815 -0.25091338
0.035112202 0.24978277 0.25684986 -0.057453606 -0.33999163 -0.32259116 0.04748019 -0.19475795
-0.21291241 -0.2863332 -0.09143287 0.018444354 0.20768437 -0.12337164 0.33564276 -0.34261483
-0.23446575 -0.07243533 -0.23826958 -0.23863865 -0.27295604 0.14333391 0.031122962 0.08943371
0.25288373 0.32737488 0.1850025 0.021902269 0.33892876 0.06832456 0.048787266 0.089159325
-0.27679437 -0.14289562 -0.28484932 -0.32928222 0.25592652 0.24449028 -0.20040737 -0.2807303
0.36140022 0.10554304 -0.13497147 0.3287226 0.31784764 -0.06952804 0.062891275 0.057579227
0.19337878 -0.11734579 0.38187087 0.11629377 0.077325955 0.006248665 0.19408703 0.24921864
-0.13049969 -0.22618268 0.27338022 0.21319215 0.30182484 0.032220203 0.23910874 0.32254893
0.27547595 -0.37914425 -0.05934298 -0.20872371 -0.35705185 0.21323304 0.31010804 -0.26525348
0.29549357 0.3249795 0.30924255 -0.1869841 -0.2997743 -0.3259116 -0.35114163 -0.09987776
-0.13230254 0.3235665 0.18635635 0.03511646 -0.17288831 -0.016514204 0.08698977 -0.34625715
-0.35660905 0.034779772 -0.31866464 -0.020979904 -0.30233616 -0.31647888 -0.17603928 0.23094465
0.086505525 0.15923905 0.08984226 0.27713287 -0.12893072 -0.14921966 -0.13719213 -0.1026216
0.17900981 -0.16198345 0.07186549 -0.23453857 0.011419467 -0.14182803 0.3035017 0.037133437
0.073205255 -0.18216442 -0.15509722 0.0462394 -0.21260132 -0.22889444 -0.27396765 0.29248726
0.10955638 -0.32078522 0.3032358 0.2601013 -0.26572743 -0.35372064 -0.0005002529 -0.2992145
0.18361445 -0.2593657 -0.34846488 0.39039236 0.13625768 0.1731337 -0.16508137 -0.027656332
-0.25188732 -0.011738278 0.20956841 -0.25731862 -0.23762785 0.055778615 -0.18037516 0.07130836
0.2403012 0.0014405958 -0.30253026 0.124084964 -0.24974462 -0.22878915 0.28646618 -0.378005
-0.26931807 -0.10772297 -0.16365972 0.13322453 0.3607696 -0.04554061 -0.1292644 -0.072056904
0.17525344 -0.22896515 0.03780673 0.3914758 -0.19117399 -0.1987768 -0.07335014 0.22788414
0.1642439 -0.0323269 -0.3168307 -0.31195036 -0.20512487 0.37971336 0.28542617 0.35429388
0.17793716 -0.19909093 0.002626635 0.11391878 0.28369123 0.18198457 -0.21150368 0.21934089
-0.31025636 0.02115794 0.38566336 0.33678105 0.10471801 0.007290717 0.27891314 0.014374254
-0.37970257 -0.22955465 0.20467672 0.044664256 -0.29396543 0.37069115 -0.09025461 -0.23445247
0.18302025 0.27817544 -0.074064404 0.39235362 -0.08505508 -0.06512938 0.035655886 -0.0511518

layers.2.weight f4 [100, 512]
00000000: d29d ba3b 2002 73bb 369c e13c 56c0 91bc
00000010: 44c6 5bbb c3a8 aa3b 70ee 86bc 328f 95bb
00000020: ded0 0e3d cff9 9f3c d7d8 e33b 4f33 4abd
00000030: 41ba 88bd be84 0d3d d046 2fbd 3169 99bd
00000040: 73cf 383d c7c5 4f3d 5e4d 173c 05cc 0ebc
00000050: 2b09 163c 731d f9bc 3d8c 703c 5357 2b3d
00000060: 4527 b5bb 319b 1b3d e590 803c 27f2 1a3c
00000070: 8493 8e3a fd13 223c bf26 ceba 5330 32bd
00000080: f8dd 983c 03f8 673c fd9c 353d f447 03bd
00000090: 74d5 24bd 0075 f1bc 8218 bb3a 3b27 223d
000000a0: 55d1 5ebd 2014 5abb 4e92 673d 8bdd eabc
000000b0: 41a0 bb3c 599a 583d 78fc 803c 646e 05bd
000000c0: 9827 f3bb 79cb 013d 5060 5b3d 91cb d4bc
000000d0: 4713 3a3d 3b74 9cba ddfa 1eba 84a9 48bc
000000e0: 3745 e33c 0e56 c13c 5c0d ba3a bf2c 35bc
000000f0: 8f7c 85ba 8a0d 873b 9ea4 2e3d 2073 183c
00000100: 2102 a63c 1498 0d3d 821f 1bbd 1221 ef3c
00000110: bd31 e73b 5c7e 213d 1e7a 683c 3dd9 24bd
00000120: fdf6 c4bc d074 04bd c432 03bb 635c 743d
00000130: 9f82 82bd e68d 13bd 1572 183d 0bf9 983c
00000140: 00a7 da3b 48a5 e4bb d646 b53c 91c7 283d
00000150: 101a c6bb ae12 fc3b 56b1 c03c 4baf f5ba
00000160: e7ca 7e3c 5b37 94bc 0357 2d3d ce71 013d
00000170: 8d7a f1bc 7766 533d 6771 893c c59e 773d
00000180: 0778 013d e2aa 833c 3fad 023d 9ddb 10bd
00000190: 66e1 91bd 0cde 9f3a 9037 583d eb3c 9ebc
000001a0: adfd b13b 2824 c03b 9b9b eabc 5e82 9cbb
000001b0: 31de 97bd a14a 45bd 148c 8b3c cd4b ac3c
000001c0: 443c 493d 0da8 6d3c c9e7 8fbc 75e1 023d
000001d0: 530c c43c 1b3a 9abc c594 983c 0602 dabc
000001e0: 4acd c0bc 6a30 033d f4ac ab3a f98e 11bd
000001f0: a999 023d 0559 a9bc 6ccd ae3c e563 6f3d
00000200: 0783 3d3d c765 1abd 1db0 303c 092d 9f3c
00000210: 67e1 9f3c e702 cebc 572d 4f3d f4f8 0b3d
00000220: 3b35 ec3c 84c8 953c 87f7 12bd d92c afbc
00000230: f4f5 1bbd 2ab3 c83c 7243 03bd 6411 ea3c
00000240: b939 683c b08e f0bc fde9 cb3b 5805 cabb
00000250: 8e4f 59bc 3847 313c ba12 9a3c 180d 0abd
00000260: e8b9 443d 5b01 193d 0693 a63c 6216 c6bb
00000270: e559 ce3c 0c9e d4bc 3611 6dba 67b5 cfbc
00000280: 2bdb 56bd b12e 003d b0e6 1dbd 210a 1f3d
00000290: a81d 283d c31c ec3c 5a9a a2bc 88f1 153d
000002a0: 819d 9fbc b1cc c0bb 9a67 b3bc f50c a53c
000002b0: fc8e 403a 136a d3bc afc6 91ba 3160 d13c
000002c0: 73fb 8fbc 7f0b 4c3d 0a42 0a3d c96b e9bc
000002d0: a76b 4bbd 1d10 4ebc 4006 4abb db38 bfbc
000002e0: 5bf5 90bc d60e 04bd 9fad 43bd b95b a63c
000002f0: 8e16 72bd 8419 14bd 2b97 bfbc 18ec 2c3d
00000300: 523d 05bd 6f0e cf3c 23e2 0e3d d370 313b
00000310: feb2 54bc 6f60 133d 2614 c5bc 05ed 7c3c
00000320: ecca 873d aa18 a43c c8bb aebc 490f 22bc
00000330: bdc5 73bb ce0f cb3c 7ce8 563d 229e cf3c
00000340: 795e b3bc 006f e2bc 2fee abbc 0d76 2b3a
00000350: 3002 47bc 9232 d2bc d1c3 fc3c c59d f23c
00000360: 1773 283d 8731 b1bd 3783 603d 827e 0f3d
00000370: 13ed f33a f958 873c 38c3 b1bb bdd0 403d
00000380: 3ac0 4dbd 0db1 863c 9367 34bc f3a8 f4ba
00000390: fa62 dabc 6f00 cebc 041f b03c 10a6 e4bc
000003a0: 3026 52bb 6279 043c 6b33 273d 84e9 e0bc
000003b0: de2f 6d3c a93d 02bc 0b0f 1fbc 5078 d03c
000003c0: c54c 1ebc 90ce 63bd 9458 b53c aaf6 023c
000003d0: 62e2 adbc 9dae 9dbc 1fdd dd3b 2f28 a53c
000003e0: 71d4 b93c b442 17bc 8592 8ebc d1af 8abc
000003f0: f1d5 dcbc 4a10 b5bc 7ee8 ab3b f826 19bd
0.005695083 -0.0037080124 0.027540307 -0.017791908 -0.0033534924 0.0052081062 -0.016471118 -0.0045641894
0.03486716 0.019528298 0.0069533396 -0.049365338 -0.0667615 0.03455042 -0.04279214 -0.07490767
0.045119714 0.050725725 0.009234754 -0.008715634 0.009157459 -0.03040955 0.014681873 0.041831326
-0.005528363 0.0379898 0.015694091 0.009457148 0.0010877703 0.009892461 -0.00157281 -0.043503117
0.01866053 0.014158252 0.04433917 -0.03205104 -0.040242627 -0.029474735 0.0014274272 0.039588194
-0.054398853 -0.0033276156 0.05653601 -0.028670093 0.022903563 0.052881572 0.015745386 -0.03257598
-0.0074204914 0.031688187 0.053558648 -0.025975974 0.04542854 -0.0011936495 -0.0006064603 -0.012247447
0.027742965 0.023600604 0.0014194655 -0.011058032 -0.0010184216 0.004121487 0.04263746 0.009304792
0.020264687 0.03456886 -0.037871845 0.029190574 0.00705549 0.039427146 0.014189271 -0.040246237
-0.024043554 -0.032337964 -0.0020019272 0.05965842 -0.0637257 -0.036023997 0.037218172 0.01867344
0.00667274 -0.006977711 0.022128504 0.041205946 -0.0060455874 0.0076926565 0.02352206 -0.0018744258
0.015551305 -0.018092802 0.04231931 0.031602673 -0.029477382 0.05161139 0.016777707 0.06045415
0.031608608 0.016072694 0.0319035 -0.03536569 -0.071230695 0.0012196912 0.052787364 -0.019316157
0.005431852 0.005863685 -0.028638652 -0.004776283 -0.074154265 -0.048166875 0.017034568 0.021032238
0.04912974 0.014505398 -0.017566578 0.031953294 0.023931658 -0.018826535 0.018625626 -0.026612293
-0.02353539 0.032028593 0.0013097809 -0.03553674 0.031884823 -0.02067233 0.021338187 0.058444876
0.046267536 -0.03769472 0.010784176 0.019430654 0.01951666 -0.025147868 0.05058035 0.034172967
0.028833976 0.01828409 -0.03588059 -0.02138369 -0.038076356 0.024499495 -0.032046743 0.028572746
0.014173918 -0.029364914 0.006222962 -0.006165188 -0.013263596 0.0108202025 0.018807758 -0.033703893
0.048028857 0.03735481 0.020333778 -0.0060451487 0.02518935 -0.025954269 -0.0009043397 -0.025355054
-0.05245511 0.03129453 -0.03855008 0.03882802 0.041043907 0.028822308 -0.019848991 0.036607295
-0.019484283 -0.005883776 -0.021899987 0.02014778 0.0007345525 -0.025807416 -0.0011121834 0.025558563
-0.017575955 0.04981565 0.033754386 -0.028493779 -0.049663212 -0.012577084 -0.003082648 -0.02334254
-0.01769512 -0.03224071 -0.047773 0.020307409 -0.05910354 -0.036157146 -0.023387512 0.042217344
-0.032529183 0.025275437 0.03488363 0.0027075305 -0.012982128 0.035980638 -0.02405746 0.015437369
0.06630501 0.020031292 -0.021329775 -0.00989134 -0.0037196719 0.02478781 0.052467808 0.025343958
-0.021895634 -0.02764082 -0.020987598 0.0006540723 -0.012146518 -0.02565888 0.030855091 0.029616246
0.041125383 -0.08652025 0.054812636 0.035032757 0.0018610082 0.016521918 -0.005424883 0.04707407
-0.05023215 0.016441846 -0.011011022 -0.0018666073 -0.026658524 -0.025146691 0.021499164 -0.027911216
-0.0032066219 0.008085581 0.04082052 -0.027455099 0.014476744 -0.007949271 -0.009708176 0.025447994
-0.009661858 -0.055616915 0.022136964 0.00799338 -0.021226112 -0.019248301 0.0067707445 0.020160763
0.022684308 -0.009232212 -0.01740385 -0.016929539 -0.026957484 -0.022102494 0.005246221 -0.03739068

layers.2.bias f4 [100]
00000000: 0677 773c 91f0 513c 83f0 a4bc 8a2a 0fbb
00000010: bece a13c ba54 4f3d c3e4 86bc fc70 243d
00000020: 8e9e 10bd 7b47 5c3c 2536 60bc 9239 f3bc
00000030: a1a0 a0bc 33fe 15bc 0581 eb3c 0edf c4bc
00000040: f7a0 89bc a762 c8bc b750 0e3d acfa 39bc
00000050: 1664 10bd 0634 543d bca5 30bc 2c82 7cbc
00000060: 03ac 9fbc 5bf3 a13c bae1 1b3c dfb2 eb3c
00000070: e289 4a3b a1ac 88bc 42c0 8a3b 82f1 83bb
00000080: 6be4 253d 79f4 46bc 1538 10bb 18a7 d7b9
00000090: 24e1 c0bc 2c6f 3dbc 7370 673c 5c22 e0bb
000000a0: a5a0 083c 138c bebc 9195 b83c 86c2 393d
000000b0: 5e92 01bd 8aec 9e3c 19f7 763c 617d 203d
000000c0: b599 8e3c a3fa 49bd 3dd6 0c3d 33e9 74bc
000000d0: 86bc d43b fe3f 873c ac13 9f3c e06d 0dbc
000000e0: 8ba5 33bd b4c3 2cbd 4776 c83c 283e cdbc
000000f0: 8478 53bb 0d8b 21bd f5cc 4a3d be36 babc
00000100: ebb9 b9bb c046 0b3c 86f3 813d ab23 49bd
00000110: c97a 3dbd e80b 003c c7af 0abb c5ed 5d3b
00000120: ecb3 0b3d eed4 033c 6c1b 04bc cd55 8c3a
00000130: 6776 133d 2f02 85bb 9f38 d0ba e9f9 c7bc
00000140: 76eb 543d 5385 04bd 68dc 193d ed30 97bc
00000150: 35e7 0fbd 62a2 db3c 1695 b83c 6106 26bd
00000160: aef1 243d 5aef 38bc 7eb1 bd3c cd06 053d
00000170: 5ddb 20bd 7a51 573c 244b 99bc 8c54 debc
00000180: f2e8 77bc d2c8 ce3b 19ca 16bb f517 dabb
0.015104061 0.012813703 -0.020134216 -0.0021845424 0.019751903 0.05061791 -0.016466504 0.040146813
-0.03530746 0.013444777 -0.013684784 -0.029690538 -0.019607844 -0.009154844 0.028748045 -0.024032142
-0.016800387 -0.024461104 0.034744944 -0.011351269 -0.0352517 0.051807426 -0.010781702 -0.015411895
-0.019491201 0.019769361 0.009514267 0.028771816 0.0030904938 -0.016683878 0.0042343447 -0.0040265927
0.04050104 -0.012143248 -0.0022006084 -0.0004113249 -0.023544855 -0.01156215 0.014125931 -0.0068400335
0.008339082 -0.023260152 0.022532256 0.045351528 -0.031633727 0.0193999 0.015073561 0.03918207
0.017407278 -0.04931129 0.034384 -0.014948177 0.0064922003 0.016510006 0.01941856 -0.008632153
-0.043859046 -0.042178825 0.024470462 -0.025054052 -0.0032267878 -0.03943925 0.04951187 -0.022731181
-0.005667915 0.008500755 0.063452765 -0.04910628 -0.046259675 0.007815339 -0.00211619 0.0033863646
0.034107134 0.008046372 -0.0080631785 0.0010706723 0.03600159 -0.004059098 -0.0015886015 -0.024411159
0.051982366 -0.03235371 0.03756371 -0.018455947 -0.035132606 0.026810829 0.022532027 -0.040533427
0.040269546 -0.011287535 0.023155924 0.03247719 -0.0392717 0.013141984 -0.018712588 -0.027139924
-0.015131222 0.0063105607 -0.0023008643 -0.006655688

layers.4.weight f4 [2, 100]
00000000: 2254 aebb d72c 22bd 59d2 6abd 1741 d73b
00000010: 8a3b 413d b82f 67bd 22b3 c03d bbd1 b7bc
00000020: d0a8 df3b 019b 723d 2b8f 333d f051 3c3d
00000030: 4466 a63d f56a b9bc f03c 673d 5496 033c
00000040: edcc 5abd 7045 1cbd 190d 013d 28e6 953d
00000050: 1dff 35bd 35e9 a7bd c0b9 d6bc c7aa 51bd
00000060: b37e 783d 907c 053a 5227 8e3d b561 883d
00000070: 6830 f83c 7552 b0bd 71f2 afbd ae96 debc
00000080: b8f2 ddbc f2eb a03d 57cb 70bc c092 89bd
00000090: 0ece 763d fb24 cbbd 3739 4fbc 1b92 243d
000000a0: 51da c13d f856 8c3d fe5b a5bc 0e9c c53d
000000b0: f270 83bd 24fe 4dbd 1b39 4c3d 893c 8fbd
000000c0: f11c 993d 9f47 ba3c ee32 bfbd 121c 603b
000000d0: b43a 7fbd 2131 64bd ff75 b03b c23f 273d
000000e0: 56bf 853d 24fc c7bc 057f efbc d5a8 2fbb
000000f0: 28ac 48bd c9e1 15bd 6e31 b2bd 5389 ccbd
00000100: bd00 7abd 11f1 ab3d 294d 9d3c dbb6 bd3d
00000110: ad25 953d f77e 7cbc de61 9b3d 354f 7ebc
00000120: 230c efbb ba09 a73d 6dfb 7dbd 7109 75bc
00000130: 670c d8bd 2445 9bbd 6312 10bd aaeb a1bd
00000140: 705d 9e3b c93e 9ebd 85d9 983d 9dce 89bc
00000150: 894a dfbc 81bd 473b b922 7bbd 4362 74bd
00000160: 47fb 973d 14ad 3c3c 822f 98bd 074b 41bd
00000170: 5b75 aa3d fc9b 813d 71b5 9bbd e55e f6bc
00000180: 378c fd3c 2762 ab3d daac b6bd d4df 4ebd
00000190: 204d 6e3d 056d 993d a065 273d 3358 183d
000001a0: 3ef5 aabd 7c18 5a3d d86f 37bd bfc1 3ebd
000001b0: 565a 5b3d 51f4 b83d 69fd 103d 485f 423d
000001c0: cd58 403c 513d df3c 52a0 d03c e880 a1bd
000001d0: 009f b7bc 686a 793c d5e5 9b3d cd4d a9bd
000001e0: 251c 68bd 7179 183d a774 a93d a736 e43b
000001f0: 593d 4a3d 0013 40bd 2fc9 e03b 8367 41bc
00000200: 6d6a 7f3c 1d4f a8bd 8ffd bc3b 2665 d33d
00000210: 9b8f 1ebd 15cc c6bd 3b97 7a3d aab4 563d
00000220: 2825 063b 4c3a fabc 4711 2abc c65e b9bd
00000230: a31e f73c 4344 423c 8c53 96bd 158c 4f3c
00000240: ac34 98bd 1793 bcbd 9dd2 333d 02d3 92bd
00000250: 6557 c3bd 2c87 0bbd 4d28 833d 0e5b 8f3c
00000260: be58 76bd a1f0 9abd 33ba 2dbd 063f 0e3d
00000270: f45a bcbd a1f6 7c3b fc5d a3bd cc85 f5bc
00000280: 493f acbd f5a5 85bd 36d2 66bd a005 f2bc
00000290: e387 60bd cc71 ee3c edc7 a9bd c774 cf3d
000002a0: 288c 1f3c 7cc5 11bd 8a9a ecbc a43e 1cbc
000002b0: 518d bcbd 1c47 6d3d 9a84 443d 3ac2 443d
000002c0: d7ee 353d 4fad 873c f569 39bc a40d 12bd
000002d0: f844 0d3c ef97 7dbd 077e ca3c 26ef 0f3d
000002e0: 3c86 293c 8218 c5bc 4337 37bd 6087 70bd
000002f0: 4f3e d8bc 443a b4bc af1b c13d 60d5 bdbc
00000300: 672f 27bd 98d8 5cbc 52d0 ce3c ec18 d33b
00000310: 5869 f5bb 1f58 a9bd 8ed9 4abd e606 c6bb
-0.005320088 -0.039593544 -0.05732951 0.0065690386 0.04717592 -0.056441993 0.09409167 -0.022438874
0.006825544 0.059229854 0.043837707 0.04597658 0.08124974 -0.022634009 0.0564546 0.0080314465
-0.05341809 -0.03815216 0.03150663 0.073192894 -0.044432748 -0.081987776 -0.02621162 -0.051188257
0.060667705 0.00050921086 0.069410935 0.06659261 0.03029652 -0.086094774 -0.08591164 -0.027171459
-0.027093276 0.07857503 -0.0146969175 -0.067174435 0.060255103 -0.09919163 -0.012647918 0.0401784
0.09465469 0.068525255 -0.020185467 0.09648906 -0.06418027 -0.050291196 0.049859148 -0.06993968
0.07476223 0.02273923 -0.09335886 0.0034196419 -0.062311843 -0.055710915 0.00538516 0.04083229
0.06530635 -0.024412222 -0.029235372 -0.0026803513 -0.048992306 -0.03659228 -0.08700834 -0.0998713
-0.06103586 0.08395589 0.019201832 0.092633925 0.07282577 -0.01541113 0.07587026 -0.015521814
-0.007295148 0.08156152 -0.062007356 -0.014955864 -0.105492406 -0.07581547 -0.035173785 -0.079062775
0.004832916 -0.07726819 0.074633636 -0.016822154 -0.02725722 0.0030477943 -0.06131241 -0.059664022
0.07420974 0.011515874 -0.074309364 -0.047190692 0.08323165 0.0632858 -0.076029666 -0.030074546
0.030950649 0.083683304 -0.089196876 -0.050506428 0.05817902 0.07491497 0.0408684 0.03719349
-0.083475575 0.053246006 -0.044784397 -0.04657149 0.053552948 0.09030975 0.03539792 0.04745415
0.011739922 0.027250918 0.025467072 -0.07885915 -0.022414684 0.015223123 0.07612196 -0.082667924
-0.056667466 0.03722519 0.08274203 0.006964523 0.049374912 -0.04689312 0.0068599205 -0.011804464
0.015589339 -0.08218215 0.005767531 0.10322027 -0.03871117 -0.09706894 0.06117938 0.05241839
0.0020468924 -0.030545376 -0.010380096 -0.0905128 0.030165976 0.011857095 -0.07340154 0.0126676755
-0.07431921 -0.09207743 0.04390203 -0.07169153 -0.095381536 -0.034064457 0.06404171 0.017499473
-0.060143225 -0.075654276 -0.0424139 0.034728073 -0.091970354 0.003859915 -0.079769105 -0.029971026
-0.08410508 -0.065257944 -0.056352817 -0.029543698 -0.05481709 0.029106997 -0.08290086 0.101296954
0.009738006 -0.035588726 -0.028882284 -0.009536419 -0.092066415 0.057929143 0.04797802 0.04803679
0.04441723 0.016562132 -0.011316766 -0.03565754 0.0086224 -0.061912473 0.024718298 0.03514018
0.010346945 -0.024059538 -0.044730436 -0.058722854 -0.026396899 -0.02200044 0.09429108 -0.023173034
-0.04081669 -0.013479374 0.02524582 0.00644218 -0.0074893646 -0.08268761 -0.049523883 -0.006043303

layers.4.bias f4 [2]
00000000: de1c 7ebc ae61 6f3d
-0.015509812 0.058442764
