trained_model.pt (torch, 312671 bytes, 6 tensors)

layers.0.weight f4 [512, 20]
-0.0925469 0.13472804 -0.16818789 -0.16974427 0.059804484 -0.1979267 0.009023202 -0.18904968
0.21835655 0.19190416 0.018228127 -0.09676933 0.12024635 0.07586575 0.05166096 -0.20013413
0.014738691 0.04508595 0.064445846 0.12366883 -0.16696773 -0.1088565 0.03858143 0.086509734
0.0893673 0.11953047 -0.17762892 -0.11074846 -0.0048989803 0.14924523 -0.04277961 0.008977562
-0.11919743 -0.19375433 -0.0821697 0.058506608 0.04678777 -0.12400769 0.14928123 -0.21990947
0.15088323 0.2202147 0.21755093 -0.19060501 0.06645399 -0.15200269 -0.18961327 -0.10482459
0.003757 0.11800781 -0.08370125 0.07622436 -0.173848 0.1699172 -0.0291311 0.1743871
0.11024961 -0.10635027 -0.12496565 -0.16903389 -0.032416344 0.22144738 -0.06925188 0.0029716343
0.051835388 -0.0739539 0.070742965 0.13040778 -0.177248 -0.13728619 0.20484596 0.21402746
0.013649851 0.18789068 -0.22198664 -0.12910485 0.078192174 -0.05867453 0.055900663 -0.11511282
0.14536156 -0.08900328 -0.21847671 0.18679535 0.20883536 -0.0839295 0.20640093 -0.09978702
0.029629376 -0.21142656 -0.14165121 0.17253521 -0.013690099 0.095063865 0.15898651 -0.17325178
-0.084912606 0.16220121 -0.077390745 0.15381965 0.041457653 -0.061359122 -0.06351447 0.18094891
0.0016456395 0.08372232 -0.010047123 0.00084398687 0.21618515 0.19059598 0.107387304 0.1548475
0.14651084 0.16457194 0.10866588 -0.16847196 -0.16870083 0.18533161 0.11912057 -0.044052437
-0.010785696 -0.0902663 0.04422596 0.2272627 0.1011178 -0.11291231 -0.11070133 -0.02799502
-0.14363922 0.15710144 -0.14322631 0.020072578 0.15971622 0.061405096 0.015598468 -0.1117653
0.12734921 0.15189907 -0.048482344 -0.05515838 -0.045567773 0.004514975 -0.056706876 0.18693994
0.0056757517 0.109304436 -0.1199744 0.06806409 0.13919091 0.13588524 0.15342769 0.092573345
-0.05960694 -0.052362315 0.048085 -0.084936894 0.09213507 -0.2162228 0.01424743 -0.012423447
-0.15910646 0.18917637 0.13073608 -0.22438754 -0.18461831 0.14490208 -0.1850646 -0.17463817
0.10851784 0.19208199 0.04373443 -0.0074322284 -0.019878045 0.042090524 0.18875432 -0.14605084
-0.021737192 -0.21407695 0.0051523387 0.20992972 0.095944285 -0.17856291 -0.019645482 -0.013840735
0.19758886 0.17327017 0.14530396 0.005513802 0.095844805 -0.16962096 -0.0025746524 -0.0034649074
-0.109262705 -0.02186878 0.08870369 -0.044923082 -0.20039739 0.119980276 0.1837621 0.035954565
-0.090410784 0.07581726 -0.05442016 0.046607018 0.1234242 -0.048275366 -0.06491342 -0.09544343
0.12674186 0.20016253 0.20439687 -0.12980393 0.07906005 -0.19849822 0.17038742 0.21881112
-0.084965274 0.12476984 0.20541865 -0.10896589 -0.22186029 0.18628997 0.022536397 -0.029387176
0.1268532 -0.19491045 -0.10876699 0.15888715 -0.060494453 -0.11694958 0.19639489 -0.17497587
-0.019707099 -0.036800697 -0.12522015 0.15879786 0.10659124 -0.1558557 -0.13457227 -0.09978214
0.20458898 0.1786372 0.0076269507 -0.119284645 0.20352566 0.12169093 -0.20806307 -0.06665969
0.103461266 0.1888543 -0.1041669 0.09958112 -0.017613217 -0.08004953 -0.19264169 0.19617736
00000000: 3b89 bdbd 26f6 093e 7239 2cbe 71d1 2dbe
00000010: 8cf5 743d 4cad 4abe 0dd6 133c 3d96 41be
00000020: dc98 5f3e 8682 443e 2753 953c 002f c6bd
00000030: b843 f63d 815f 9b3d 719a 533d f6ef 4cbe
00000040: 8d7a 713c 0cac 383d 2ffc 833d 1546 fd3d
00000050: 97f9 2abe 28f0 debd 9007 1e3d 042c b13d
00000060: 3406 b73d 64cc f43d 5be4 35be 17d0 e2bd
00000070: a087 a0bb bed3 183e ac39 2fbd a016 133c
00000080: c81d f4bd 8967 46be 9648 a8bd a0a4 6f3d
00000090: 88a4 3f3d bef7 fdbd 2edd 183e f32f 61be
000000a0: 2281 1a3e f67f 613e acc5 5e3e f62d 43be
000000b0: 0819 883d 98a6 1bbe fb29 42be 46ae d6bd
000000c0: 0038 763b 14ae f13d 906b abbd 841b 9c3d
000000d0: 3605 32be c6fe 2d3e 58a4 eebc 8892 323e
000000e0: 8cca e13d 2cce d9bd feed ffbd 3817 2dbe
000000f0: 00c7 04bd 1ac3 623e eed3 8dbd c0bf 423b
00000100: 5851 543d 2475 97bd b0e1 903d 9e89 053e
00000110: 8080 35be c094 0cbe 24c3 513e 042a 5b3e
00000120: a0a3 5f3c 6a66 403e 7750 63be 1034 04be
00000130: 3823 a03d b454 70bd 18f8 643d 45c0 ebbd
00000140: a9d9 143e 5a47 b6bd 5cb8 5fbe 4847 3f3e
00000150: f0d8 553e 3be3 abbd c45a 533e 235d ccbd
00000160: 4eb9 f23c 3480 58be 040d 11be 12ad 303e
00000170: 704c 60bc d8b0 c23d 5ccd 223e ea68 31be
00000180: a9e6 adbd 1318 263e 0a7f 9ebd e682 1d3e
00000190: 80cf 293d b453 7bbd e013 82bd ac4a 393e
000001a0: 80b2 d73a 9c76 ab3d b09c 24bc 003f 5d3a
000001b0: a45f 5d3e 982b 433e e0ed db3d 5890 1e3e
000001c0: f006 163e 8c85 283e 388c de3d ea83 2cbe
000001d0: e9bf 2cbe 92c7 3d3e 7cf5 f33d 5470 34bd
000001e0: 7db6 30bc 8add b8bd 4826 353d 8eb7 683e
000001f0: d916 cf3d 923e e7bd 61b7 e2bd d055 e5bc
00000200: 2916 13be 33df 203e eba9 12be 3f6f a43c
00000210: a68c 233e e983 7b3d b790 7f3c 35e5 e4bd
00000220: d567 023e 6e8b 1b3e 6c95 46bd c1ed 61bd
00000230: 46a5 3abd 5bf2 933b 7845 68bd 2f6d 3f3e
00000240: a8fb b93b 01db df3d 23b5 f5bd 3065 8b3d
00000250: 1088 0e3e 8025 0b3e 261c 1d3e 1897 bd3d
00000260: 6826 74bd de79 56bd c7f4 443d 65f3 adbd
00000270: 50b1 bc3d 8269 5dbe 0d6e 693c b78b 4bbc
00000280: ceec 22be 73b7 413e aedf 053e d9c5 65be
00000290: 950c 3dbe 3661 143e 9381 3dbe 59d4 32be
000002a0: 9a3e de3d 24b1 443e e022 333d 0d8a f3bb
000002b0: 48d7 a2bc 1d67 2c3d d048 413e 5a8e 15be
000002c0: 3212 b2bc fd36 5bbe f3d4 a83b d1f7 563e
000002d0: 707e c43d 32d9 36be 90ef a0bc 40c4 62bc
000002e0: bc54 4a3e bc6d 313e 90ca 143e 20ad b43b
000002f0: 484a c43d 1eb1 2dbe 80bb 28bb 8013 63bb
00000300: 20c5 dfbd 2826 b3bc 48aa b53d 4401 38bd
00000310: f934 4dbe 38b8 f53d 222c 3c3e 1845 133d
00000320: 4a29 b9bd 1446 9b3d ace7 5ebd 00e7 3e3d
00000330: d4c5 fc3d 64bc 45bd 54f1 84bd d877 c3bd
00000340: 9ec8 013e 68f7 4c3e 6a4d 513e 52eb 04be
00000350: 3cea a13d 1e43 4bbe 0a7a 2e3e 0610 603e
00000360: 4602 aebd 5487 ff3d 4459 523e 8229 dfbd
00000370: 582f 63be ccc2 3e3e 409e b83c 60bd f0bc
00000380: cee5 013e 9b96 47be 3ac1 debd 50b3 223e
00000390: 08c9 77bd 4383 efbd be1b 493e e02c 33be
000003a0: c870 a1bc 54bc 16bd b639 00be e89b 223e
000003b0: 824c da3d a398 1fbe 50cd 09be 945a ccbd
000003c0: c67f 513e acec 363e 80eb f93b 824b f4bd
000003d0: 0869 503e 1839 f93d 7c0e 55be e084 88bd
000003e0: 80e3 d33d 0663 413e 7555 d5bd 30f1 cb3d
000003f0: 9849 90bc 02f1 a3bd dd43 45be b8e2 483e

layers.0.bias f4 [512]
0.108142644 0.15644458 0.062831044 -0.08064701 -0.18635328 -0.06854816 -0.07961209 -0.040043123
0.13890679 -0.04631111 -0.22305064 0.14346752 -0.04290764 0.00786382 -0.2079072 0.17637609
-0.1364086 -0.1018894 -0.009602555 0.09866014 -0.22009976 -0.12950821 0.20774162 -0.2183426
0.15817243 0.17425323 -0.15822881 0.07602207 0.023047313 0.16402465 0.17309345 -0.21593687
-0.07513215 -0.19661978 0.19989006 0.017555188 0.0889906 -0.12975064 0.06658886 0.10688753
-0.14218698 -0.15894875 0.13458613 -0.21147124 0.1352686 0.20931725 0.11931622 0.20614213
-0.08729032 -0.00029070675 -0.17724912 0.05994473 0.18997617 -0.21762346 0.21306887 0.20341812
-0.07855138 0.019597024 -0.01300678 0.149319 -0.13884667 0.1562641 0.02949214 0.059470177
0.17986067 -0.1440841 0.17035984 0.18674223 -0.0030245131 0.17655368 0.1340062 0.077680886
0.13692215 0.1947436 -0.16136661 -0.19078878 -0.06910479 0.055642545 -0.0986024 -0.14797208
-0.034007087 -0.07095613 -0.20523524 -0.098004416 -0.21236433 -0.020237839 -0.056732357 0.20930187
0.17662105 0.15827805 0.097240776 -0.21526736 -0.18987961 -0.04142868 0.16943759 -0.008686081
0.07563114 -0.13989456 -0.16325065 -0.14416885 -0.1325193 0.1786766 -0.06000604 -0.18285005
-0.19011784 0.12922496 0.0232788 -0.10262165 0.1650025 -0.21899234 0.18666902 0.13724345
0.15470874 0.11795457 -0.09077248 -0.08951128 0.06764872 -0.21902665 -0.13068175 -0.053865388
0.12572095 0.0769568 -0.19979632 0.059074167 0.05052811 -0.055383295 -0.16987133 -0.011026368
0.012295789 0.040754795 0.012721333 -0.16528895 -0.20294532 0.05497515 -0.10290958 -0.09459831
-0.20520358 -0.14838263 0.1051687 0.17636251 0.102281876 -0.11149837 0.15664762 -0.1482477
-0.18360245 0.056486756 0.18170904 -0.010910098 -0.14764658 0.20977697 0.18224996 -0.12445061
-0.036980286 -0.16316555 0.010649102 -0.042161662 0.07222319 0.16904469 -0.07887204 -0.11883741
-0.00030224017 0.005822516 -0.10885779 0.041086502 0.11397067 -0.12955518 0.08258632 0.21114929
0.19742855 -0.033991665 0.13781767 0.116450414 0.18720573 0.04418117 -0.16865538 -0.10631366
0.20485325 -0.08253467 0.054613862 0.055850495 -0.13650507 0.07338357 0.028073803 0.20129992
0.20262943 0.06838902 0.01550589 -0.050806403 0.011665879 -0.18536828 0.04981703 -0.17920536
-0.120294906 -0.10788233 0.15826046 0.13336533 -0.11694782 -0.13496336 -0.11134971 0.15884462
-0.19689511 0.096419565 0.089159384 0.03399416 0.1006071 0.21783485 0.16464543 0.05152736
-0.20302753 -0.015797704 0.053742666 0.11050907 -0.18329242 -0.11018882 -0.084621444 -0.11660433
0.15310518 0.18009457 0.04542014 -0.03410656 0.15954995 0.21805045 0.19251439 -0.00809963
-0.19278723 0.1169363 0.04223232 -0.076591685 -0.06295234 -0.051270157 0.025834883 -0.12840173
0.018653376 -0.17826724 -0.22105397 -0.008345813 -0.10073646 0.103320174 0.13447784 -0.19211523
0.17265643 0.13701662 -0.03521634 -0.027733851 0.13538109 -0.15510613 0.20373493 -0.20308465
0.09070951 -0.031198474 -0.108781084 0.20823997 0.076916665 0.0077010565 -0.021815091 -0.016611423
00000000: e479 dd3d 0233 203e 90ad 803d 422a a5bd
00000010: 65d3 3ebe fa62 8cbd aa0b a3bd 4204 24bd
00000020: 953d 0e3e b8b0 3dbd 6367 64be 26e9 123e
00000030: ecbf 2fbd 40d7 003c a0e5 54be ef9b 343e
00000040: b2ae 0bbe 64ab d0bd 0954 1dbc 540e ca3d
00000050: d561 61be cd9d 04be 38ba 543e 3495 5fbe
00000060: f4f7 213e 706f 323e bc06 22be 76b1 9b3d
00000070: b8cd bc3c 14f6 273e 693f 313e 8e1e 5dbe
00000080: e2de 99bd b256 49be fbaf 4c3e e6cf 8f3c
00000090: b440 b63d 5add 04be bd5f 883d d9e7 da3d
000000a0: 7799 11be 76c3 22be f2d0 093e eb8b 58be
000000b0: da83 0a3e 4357 563e 105c f43d ec16 533e
000000c0: 44c5 b2bd 006a 98b9 cb80 35be 9b88 753d
000000d0: 1d89 423e afd8 5ebe ba2e 5a3e d74c 503e
000000e0: 8cdf a0bd f089 a03c 641a 55bc 14e7 183e
000000f0: d22d 0ebe b203 203e 8099 f13c 0097 733d
00000100: 652d 383e c88a 13be cf72 2e3e 5b39 3f3e
00000110: e936 46bb 7dca 343e ec38 093e 2817 9f3d
00000120: 5235 0c3e de6a 473e 4a3d 25be 225e 43be
00000130: d086 8dbd 70e9 633d 0ef0 c9bd fe85 17be
00000140: 044b 0bbd 7351 91bd 3029 52be 8ab6 c8bd
00000150: 0976 59be d3c9 a5bc 3060 68bd 3b53 563e
00000160: 26dc 343e a413 223e 2c26 c73d 0c6f 5cbe
00000170: cd6f 42be 1fb1 29bd 0c81 2d3e 1050 0ebc
00000180: 80e4 9a3d 8540 0fbe 2e2b 27be 00a1 13be
00000190: 24b3 07be 00f7 363e e5c8 75bd 0b3d 3bbe
000001a0: 40ae 42be 8c53 043e 2fb3 be3c 4d2b d2bd
000001b0: 6af6 283e 873f 60be 2a26 3f3e 8c89 0c3e
000001c0: f86b 1e3e 2a92 f13d ece6 b9bd b151 b7bd
000001d0: 6a8b 8a3d 8648 60be 70d1 05be f4a1 5cbd
000001e0: febc 003e 879b 9d3d 6897 4cbe c1f7 713d
000001f0: 90f6 4e3d 98d9 62bd c0f2 2dbe f0a7 34bc
00000200: 4774 493c 80ee 263d 236d 503c 8241 29be
00000210: e6d0 4fbe 9f2d 613d 42c2 d2bd c2bc c1bd
00000220: e320 52be 9ef1 17be b062 d73d 6098 343e
00000230: 2979 d13d 4259 e4bd 3c68 203e 3fce 17be
00000240: 4802 3cbe a85e 673d ef11 3a3e 45c0 32bc
00000250: aa30 17be c6cf 563e bc9f 3a3e f6df febd
00000260: a478 17bd df14 27be 9279 2e3c b5b1 2cbd
00000270: c0e9 933d 0d1a 2d3e aa87 a1bd 0761 f3bd
00000280: fd75 9eb9 ceca be3b d5f0 debd 524a 283d
00000290: 7469 e93d 1daa 04be 0423 a93d 8537 583e
000002a0: b62a 4a3e d83a 0bbd 1320 0d3e 8e7d ee3d
000002b0: dcb2 3f3e 51f7 343d ffb3 2cbe faba d9bd
000002c0: 0dc5 513e f007 a9bd c9b2 5f3d 7dc3 643d
000002d0: fcc7 0bbe 204a 963d 08fb e53c 9121 4e3e
000002e0: 177e 4f3e 8b0f 8c3d 6b0c 7e3c 601a 50bd
000002f0: 3e22 3f3c 2fd1 3dbe f10c 4c3d 9c81 37be
00000300: 2d5d f6bd 69f1 dcbd 080f 223e ec90 083e
00000310: 5782 efbd d633 0abe 510b e4bd 2aa8 223e
00000320: df9e 49be 9f77 c53d 3299 b63d 763d 0b3d
00000330: 180b ce3d 1910 5f3e d098 283e 5a0e 533d
00000340: 73e6 4fbe 306a 81bc 4521 5c3d 9452 e23d
00000350: 02b1 3bbe adaa e1bd 024e adbd 40ce eebd
00000360: 9bc7 1c3e b66a 383e 780a 3a3d 52b3 0bbd
00000370: 1061 233e 9e48 5f3e 7e22 453e 4fb4 04bc
00000380: 046a 45be 4d7c ef3d ccfb 2c3d 1adc 9cbd
00000390: 28ed 80bd a800 52bd ada3 d33c be7b 03be
000003a0: f7ce 983c b08b 36be f95b 62be e0bc 08bc
000003b0: eb4e cebd 8799 d33d 8fb4 093e dbb9 44be
000003c0: d9cc 303e 164e 0c3e 023f 10bd 1a32 e3bc
000003d0: 57a1 0a3e 24d4 1ebe e49f 503e 6cf5 4fbe
000003e0: e8c5 b93d f193 ffbc 9ec8 debd dc3c 553e
000003f0: 7c86 9d3d 2559 fc3b 90b5 b2bc ae14 88bc

layers.2.weight f4 [128, 512]
-0.009278223 -0.020025253 0.015863411 0.021047365 -0.0415178 0.023705129 -0.019945322 -0.032163
-0.005291514 0.01808628 0.0007384233 0.011377104 -0.041009493 0.04133768 0.022563811 0.024139453
-0.0054416023 -0.017074488 0.025585558 -0.024525687 -0.014797874 -0.0060380735 0.0420296 -0.00735756
0.023410339 -0.02090225 0.011881471 0.026470829 -0.0061124526 0.009929944 -0.0377558 0.013382893
0.022055816 -0.019172017 -0.030860685 -0.034017615 -0.011565939 -0.03280835 -0.035007346 -0.02559506
0.04275975 -0.03669144 0.009069007 0.030187074 0.029150259 -0.038270682 -0.0026915558 -0.023029048
-0.008103494 0.016356617 -0.04411042 -0.034456953 0.042234596 -0.024545807 -0.03394958 -0.009036712
-0.037487805 -0.040869493 -0.04355277 0.007806156 -0.0034866072 -0.03574571 -0.0060202964 -0.013045808
0.0023167543 -0.039777905 0.03933524 0.013702787 0.02143604 -0.03257727 -0.0012522973 0.00090885535
0.0151227005 0.016640134 0.028052766 -0.028424855 -0.010631114 0.017246727 -0.024919402 -0.018008051
0.024763536 -0.04376671 0.008669026 0.027610023 -0.01309354 -0.010612443 -0.0142926555 0.015203528
-0.0075463876 0.0317433 -0.02302377 0.0056240708 -0.024993772 -0.0052509643 -0.038774095 0.03945485
-0.019401131 0.019432407 0.006772939 0.020207662 0.0025885105 -0.0047364645 0.009548891 -0.03026256
0.03521538 -0.019730747 -0.010351218 0.014470853 -0.029672619 -0.0031022243 -0.009316299 -0.007899098
0.039944652 0.014783472 0.0028293133 0.040332165 0.016480546 0.033750255 0.002539415 -0.0050706305
0.023942877 -0.042595036 0.008191984 0.018796902 0.03615712 0.032841343 0.004187867 -0.03517509
0.028613511 -0.030791217 0.041254994 -0.006382771 0.006114997 0.012490913 -0.0011033006 -0.032184973
-0.029554915 0.032203984 -0.02512382 -0.022899905 0.02883679 0.009372111 0.035896253 -0.036939714
-0.03363623 -0.019138562 0.013228457 -0.02636621 -0.0083951205 0.023059603 0.0018927269 0.031366523
0.024306428 0.016816888 0.023005258 -0.037622098 -0.038041413 -0.0061583146 -0.018379355 0.038634885
0.029215638 0.015661918 -0.009869181 0.036332916 -0.021389684 -0.008102559 -0.038409017 0.042729404
0.029345717 0.032828514 -0.026782325 0.019140135 0.028335396 0.017509196 0.01464485 0.031194303
-0.0004352592 -0.02217569 -0.025731245 0.03674307 0.009112928 0.0057791583 -0.030012824 -0.039859455
0.0105353 -0.019402528 0.019394223 -0.022831548 -0.030356262 -0.007727731 -0.009812873 -0.0024395138
-0.02719801 -0.021467723 0.0010750182 -0.029967468 0.008570872 0.0021984167 0.0052680075 0.01436656
-0.032503407 0.016437747 -0.03639687 -0.038921144 0.03926036 0.015545115 0.018867265 0.023747656
0.023258965 0.024774726 0.0025166348 -0.016677229 -0.012654487 -0.031981915 0.027600545 0.039654385
-0.010805536 0.04205582 -0.011224985 -0.028123038 0.024071101 0.024751503 -0.024822533 0.0037303604
0.02192631 -0.025959713 0.04324009 -0.028991526 -0.007238306 -0.0065461844 0.010876536 -0.017081063
0.03948396 -0.011976454 -0.040154483 0.013716392 -0.031621773 0.016265884 0.0005146079 -0.008736018
-0.033912867 -0.023769516 0.0014662035 0.038752344 -0.002058588 0.03698295 -0.011208281 -0.028521556
-0.0030640773 0.008559197 0.026587177 0.011772752 -0.027967595 -0.030189492 -0.017893592 0.022061463
00000000: b003 18bc 000c a4bc fcf3 813c 866b ac3c
00000010: 920e 2abd 4231 c23c 5f64 a3bc 5abd 03bd
00000020: 7064 adbb ae29 943c c092 413a 0867 3a3c
00000030: 92f9 27bd b351 293d bed7 b83c 1ac0 c53c
00000040: 784f b2bb ccdf 8bbc ce98 d13c 18ea c8bc
00000050: c872 72bc 08db c5bb 3b27 2c3d b017 f1bb
00000060: 0ac7 bf3c 323b abbc 80aa 423c 5ad9 d83c
00000070: f84a c8bb 34b1 223c d3a5 1abd ec43 5b3c
00000080: 66ae b43c a20e 9dbc 8ccf fcbc 0e56 0bbd
00000090: 107f 3dbc 0c62 06bd dd63 0fbd bbac d1bc
000000a0: d924 2f3d c349 16bd 2c96 143c e24a f73c
000000b0: 86cc ee3c b8c1 1cbd d064 30bb 6aa7 bcbc
000000c0: 84c4 04bc 50fe 853c 21ad 34bd bc22 0dbd
000000d0: 2ffe 2c3d 4a14 c9bc b70e 0bbd b80e 14bc
000000e0: d08c 19bd c566 27bd 6464 32bd c8ca ff3b
000000f0: 907f 64bb 186a 12bd e845 c5bb 16be 55bc
00000100: b0d4 173b 28ee 22bd fd1d 213d a881 603c
00000110: a29a af3c be6f 05bd 2024 a4ba 4040 6e3a
00000120: 34c5 773c e450 883c eace e53c 3edb e8bc
00000130: 202e 2ebc 0249 8d3c c623 ccbc 9f85 93bc
00000140: e6dc ca3c b944 33bd 8808 0e3c 6a2e e23c
00000150: 4a86 56bc d0df 2dbc be2b 6abc 3818 793c
00000160: b047 f7bb 4305 023d 589c bcbc 204a b83b
00000170: bdbf ccbc 4810 acbb 96d1 1ebd 699b 213d
00000180: 1fef 9ebc b630 9f3c 88ef dd3b 8a8a a53c
00000190: 00a4 293b 5834 9bbb f472 1c3c 30e9 f7bc
000001a0: 013e 103d 60a2 a1bc 2898 29bc 2817 6d3c
000001b0: fe13 f3bc b04e 4bbb 64a3 18bc 386b 01bc
000001c0: 019d 233d 6036 723c 006c 393b 5733 253d
000001d0: 3602 873c b53d 0a3d 506c 263b 8827 a6bb
000001e0: da23 c43c 2278 2ebd ac37 063c f6fb 993c
000001f0: 7d19 143d a584 063d 603a 893b c113 10bd
00000200: e266 ea3c dd3d fcbc fffa 283d 9026 d1bb
00000210: 5060 c83b b0a6 4c3c a09c 90ba 64d4 03bd
00000220: 261d f2bc 53e8 033d 78d0 cdbc 9598 bbbc
00000230: 223b ec3c 7c8d 193c f307 133d 194e 17bd
00000240: 25c6 09bd 79c8 9cbc 2cbc 583c f3fd d7bc
00000250: b08b 09bc 7ee7 bc3c 6015 f83a 2f7a 003d
00000260: 461e c73c 92c3 893c 8675 bc3c a119 1abd
00000270: 50d1 1bbd b0cb c9bb 4d90 96bc 9d3f 1e3d
00000280: a255 ef3c 6c4d 803c 58b2 21bc d3d1 143d
00000290: 6b39 afbc 98c0 04bc c652 1dbd 0705 2f3d
000002a0: 6e66 f03c 3177 063d 9b66 dbbc c6cb 9c3c
000002b0: a21f e83c 726f 8f3c f4f0 6f3c 328b ff3c
000002c0: 8033 e4b9 cba9 b5bc 55ca d2bc e77f 163d
000002d0: 644e 153c 185f bd3b 74dd f5bc ab43 23bd
000002e0: 409c 2c3c 0df2 9ebc a2e0 9e3c 3a09 bbbc
000002f0: b2ad f8bc e838 fdbb 2cc6 20bc 40e0 1fbb
00000300: 5cce debc 14dd afbc a0e7 8c3a 567e f5bc
00000310: d86c 0c3c 5013 103b 409f ac3b b861 6b3c
00000320: 4b22 05bd 74a8 863c e214 15bd c76b 1fbd
00000330: 79cf 203d f0b0 7e3c 868f 9a3c 728a c23c
00000340: 9689 be3c 5ef4 ca3c 20ee 243b af9e 88bc
00000350: c454 4fbc 78ff 02bd 8a1a e23c a36c 223d
00000360: b409 31bc b942 2c3d 00e9 37bc 4962 e6bc
00000370: c230 c53c aac3 ca3c a058 cbbc 1079 743b
00000380: ce9e b33c 77a9 d4bc 851c 313d a37f edbc
00000390: 502f edbb 6081 d6bb 8033 323c 96ed 8bbc
000003a0: efb9 213d e438 44bc 0779 24bd b8ba 603c
000003b0: d585 01bd 0840 853c c0e6 063a 8421 0fbc
000003c0: 38e8 0abd 4ab8 c2bc a02d c03a c7ba 1e3d
000003d0: 60e9 06bb 6f7b 173d f0a2 37bc 0aa6 e9bc
000003e0: b0ce 48bb e03b 0c3c 5acd d93c 80e2 403c
000003f0: 4c1c e5bc f44f f7bc 9595 92bc 3eba b43c

layers.2.bias f4 [128]
-0.00678597 -0.020816576 -0.047828507 0.02093764 0.020062879 0.018969815 -0.008264444 -0.01725528
0.008497667 0.040516168 0.029819636 -0.020347856 0.014650094 0.02627946 0.043801185 0.017716084
-0.031899933 0.015570632 -0.027232813 -0.0143288355 -0.040986523 0.021010336 0.01461806 0.0092357
-0.020992007 0.035124537 0.037704896 -0.021874325 -0.032884825 -0.035333753 0.014840569 0.017828986
-0.0021493249 0.03614718 0.041018184 0.008690429 0.00668388 0.019484652 0.018037217 -0.009561576
-0.018914487 -0.041562755 0.03107803 -0.0017642326 -0.016462758 0.035598498 0.008768551 0.03207692
-0.020496508 0.018284185 0.01282556 -0.03337171 0.03354987 0.0009822844 -0.010887269 -0.043429997
-0.0025180494 0.038070142 0.01065516 -0.036048915 -0.0070224144 0.03799801 -0.018359415 0.0299175
-0.017780196 0.031113988 -0.00026247164 -0.020049082 -0.012132181 0.0010223081 -0.02769169 0.01535454
-0.038252834 0.00064028986 0.0011135712 -0.037606098 -0.015529887 0.0361268 -0.0050499695 -0.028062688
-0.0381933 0.00085653365 -0.027338767 -0.027243575 -0.027757756 0.027503941 -0.01864652 -0.034158405
0.033146497 0.044612844 -0.00157311 0.0008322038 -0.009930149 -0.029381331 -0.037675314 -0.03404385
0.019491103 0.013813426 -0.047760364 0.0019999775 -0.04522033 -0.0027365808 -0.0075811744 0.041607592
-0.011577781 -0.0015163869 -0.021577103 0.025917675 0.016357511 -0.018728321 -0.011574749 0.041418396
0.033965115 0.0070780106 0.009473801 -0.0021408654 -0.0020921107 -0.038820915 -0.032221988 -0.034982607
-0.017034728 -0.033856176 -0.017951911 0.040030617 0.012106525 0.019304814 -0.015915269 -0.0018894823
00000000: d85c debb 8687 aabc d3e7 43bd 6a85 ab3c
00000010: e85a a43c 9666 9b3c 9767 07bc f25a 8dbc
00000020: cc39 0b3c 48f4 253d 4f48 f43c 8cb0 a6bc
00000030: f306 703c 0648 d73c df68 333d 5221 913c
00000040: 81a9 02bd f71b 7f3c 5917 dfbc 7ec3 6abc
00000050: 7ce1 27bd de1d ac3c 9680 6f3c 5551 173c
00000060: 6ef7 abbc bfde 0f3d 7370 1a3d c931 b3bc
00000070: 3db2 06bd 20ba 10bd dc25 733c 180e 923c
00000080: b0db 0cbb 110f 143d af02 283d 4d62 0e3c
00000090: 7304 db3b 479e 9f3c c9c2 933c 28a8 1cbc
000000a0: 8ef2 9abc b53d 2abd 5a97 fe3c d33d e7ba
000000b0: e8dc 86bc bbcf 113d f8a9 0f3c 1763 033d
000000c0: 4be8 a7bc b7c8 953c 4c22 523c c6b0 08bd
000000d0: 976b 093d ffbf 803a 8460 32bc a7e3 31bd
000000e0: dc05 25bb 70ef 1b3d fb92 2e3c 07a8 13bd
000000f0: 481c e6bb cda3 1b3d 7c66 96bc 8c15 f53c
00000100: c6a7 91bc c3e2 fe3c 599c 89b9 f93d a4bc
00000110: 0ec6 46bc f8fe 853a afd9 e2bc 9c91 7b3c
00000120: 01af 1cbd 20d9 273a 40f5 913a da08 1abd
00000130: 1171 7ebc b2f9 133d 377a a5bb b9e3 e5bc
00000140: 9470 1cbd 0089 603a 8df5 dfbc eb2d dfbc
00000150: 3c64 e3bc f24f e13c 96c0 98bc afe9 0bbd
00000160: 9fc4 073d f5bb 363d d030 ceba 4028 5a3a
00000170: 10b2 22bc 1eb1 f0bc 6e51 1abd 9071 0bbd
00000180: ceab 9f3c b551 623c 5fa0 43bd 0e12 033b
00000190: f438 39bd 3558 33bb 806b f8bb b96c 2a3d
000001a0: bcb0 3dbc 80c1 c6ba 77c2 b0bc 4e51 d43c
000001b0: 3000 863c 236c 99bc 04a4 3dbc 56a6 293d
000001c0: 011f 0b3d a8ee e73b 0038 1b3c c34d 0cbb
000001d0: cb1b 09bb ae02 1fbd 34fb 03bd ec49 0fbd
000001e0: 6a8c 8bbc c6ac 0abd e30f 93bc 25f7 233d
000001f0: 725a 463c 2125 9e3c bd60 82bc 81a8 f7ba

layers.4.weight f4 [9, 128]
-0.017511964 -0.078077495 -0.07448602 -0.06812971 -0.02609634 0.073280044 -0.062830515 -0.06731196
-0.012647818 -0.07863292 -0.045926236 -0.046247832 0.06657503 0.0132438075 -0.058113534 0.01974198
-0.0068232045 -0.0666673 -0.033361778 -0.011370284 0.072834246 0.020083278 -0.01689249 0.009209741
-0.02888706 -0.04862034 0.059205435 -0.06989098 -0.069084376 0.02712132 0.03453522 -0.053831346
0.019800507 -0.054240797 0.041452046 0.054942805 -0.025100898 0.012774969 -0.0052205296 0.07079503
-0.044941887 0.029167421 -0.051652666 -0.052907635 0.0341525 0.08443055 0.07258072 -0.06914377
-0.012722023 -0.057136558 0.068356894 -0.033900023 -0.037282646 0.008459973 -0.0042062253 0.029454995
0.0049977712 0.016171312 -0.0715212 -0.013495439 0.061767973 -0.023345456 0.01781781 -0.07868007
0.036839463 -0.051449586 0.04785146 0.07248641 -0.045833968 -0.034392793 0.07897996 0.013928752
0.03876779 -0.033034604 0.03782267 0.022203784 -0.024365962 -0.013258198 0.009067623 -0.07490274
-0.0555618 -0.022569016 0.010955868 -0.031165063 -0.05237678 0.04761769 -0.07610091 0.00063974026
-0.004406087 -0.026846118 -0.0030032727 0.03114637 0.01561954 -0.043651912 -0.038010884 -0.033869103
-0.056161076 0.012523558 -0.04656056 -0.042977516 -0.024169864 0.031670164 -0.08440192 -0.04718073
-0.016028507 -0.0830732 0.06143414 -0.066198334 0.018586837 0.017952116 -0.036141306 -0.044132933
0.03091303 -0.03448377 -0.032459162 -0.03527839 -0.060322538 0.06468601 -0.08587523 -0.0060287393
0.039152645 0.006515252 0.031931188 -0.06894666 -0.040770467 0.08135427 -0.014344574 0.07310685
0.07621863 -0.077648394 0.06349232 0.08283251 0.00612791 -0.08484668 0.081029326 -0.04737306
0.0005919647 0.0801989 0.047504913 -0.052097846 0.03526652 -0.051402424 0.085834585 0.0725086
-0.066629015 0.05051082 -0.060000215 0.04336287 0.019988861 -0.038098484 0.026160492 0.05330366
-0.012543514 0.023996867 -0.037704237 0.05457082 0.041054554 -0.06377583 -0.07614536 -0.06477714
-0.08029539 0.037034515 -0.06217251 -0.066831954 0.012111081 0.07480507 -0.046774913 -0.07423343
-0.073442735 -0.07676734 0.083751805 0.01645046 -0.035596162 -0.01841359 -0.033201106 -0.048848912
0.021868736 0.086256735 -0.034684557 -0.07522543 0.01891416 -0.011731734 0.06908321 0.06495963
0.027987136 0.033865303 0.056139342 0.024347967 0.082077436 0.02432752 -0.038564343 0.038872007
-0.05452443 0.087658465 -0.038895402 -0.022421904 -0.041558508 0.07326651 -0.039936695 0.044993218
-0.034217834 0.071742065 0.08301725 0.06856411 -0.026058316 0.08235846 0.06921279 -0.06500762
0.058923848 0.01048407 0.041631624 -0.06329061 0.08074225 0.030229967 -0.046658017 -0.06911268
0.075989 0.0062452033 0.027443616 -0.056457672 0.06459406 -0.0051763207 0.066586725 -0.019621314
-0.031756185 -0.059875857 -0.020408047 -0.031637378 0.00032557157 0.063595586 0.08996154 0.07996703
-0.044949703 0.02928623 0.042671386 0.032850854 -0.035398293 0.027942656 -0.0586653 0.07177159
0.06991907 0.061929874 -0.064308584 0.049953476 0.066082515 -0.07908383 -0.037719943 0.010389068
-0.07407615 -0.048819166 0.086095266 0.045907117 0.060161725 -0.068906255 -0.020714514 0.022284014
00000000: 4075 8fbc 18e7 9fbd 208c 98bd 9787 8bbd
00000010: fec7 d5bc d913 963d 49ad 80bd dada 89bd
00000020: cb38 4fbc 4c0a a1bd 261d 3cbd 5e6e 3dbd
00000030: 7d58 883d 8efc 583c 7508 6ebd efb9 a13c
00000040: 3095 dfbb de88 88bd 5ca6 08bd 6d4a 3abc
00000050: 1f2a 953d b085 a43c 1f62 8abc 74e4 163c
00000060: 8ea4 ecbc 1f26 47bd 6681 723d 0123 8fbd
00000070: 1c7c 8dbd 882d de3c ce74 0d3d 427e 5cbd
00000080: ac34 a23c 992b 5ebd 9fc9 293d b50b 613d
00000090: 66a0 cdbc 1b4e 513c fa10 abbb fcfc 903d
000000a0: fc14 38bd 84f0 ee3c bf91 53bd adb5 58bd
000000b0: 7ee3 0b3d ede9 ac3d 33a5 943d 409b 8dbd
000000c0: 0870 50bc 0608 6abd b3fe 8b3d c0da 0abd
000000d0: b0b5 18bd b39b 0a3c 60d4 89bb 9a4b f13c
000000e0: 58c4 a33b b379 843c b579 92bd f91b 5dbc
000000f0: 6a00 7d3d f83e bfbc a8f6 913c 0423 a1bd
00000100: fae4 163d cdbc 52bd e4ff 433d c173 943d
00000110: 66bc 3bbd 75df 0cbd 3fc0 a13d 6c35 643c
00000120: f9ca 1e3d 4b4f 07bd f2eb 1a3d b6e4 b53c
00000130: 209b c7bc ea38 59bc 5e90 143c 9c66 99bd
00000140: c594 63bd a8e2 b8bc 3e80 333c e04d ffbc
00000150: 0989 56bd c40a 433d cbda 9bbd 3eb4 273a
00000160: f060 90bb 64ec dbbc 8ed2 44bb ac26 ff3c
00000170: 19e9 7f3c 59cc 32bd 4db1 1bbd 54ba 0abd
00000180: 2809 66bd 9c2f 4d3c 49b6 3ebd 3109 30bd
00000190: e1ff c5bc 93b8 013d eada acbd 9540 41bd
000001a0: 374e 83bc 4822 aabd 5da2 7b3d fe92 87bd
000001b0: 6c43 983c 5110 933c e808 14bd bcc4 34bd
000001c0: 533d fd3c db3e 0dbd e6f3 04bd 1380 10bd
000001d0: c414 77bd 197a 843d 5adf afbd bb8c c5bb
000001e0: 865e 203d e57d d53b 47ca 023d e833 8dbd
000001f0: effe 26bd 119d a63d 8105 6bbc 0bb9 953d
00000200: 8318 9c3d 1f06 9fbd 4308 823d 17a4 a93d
00000210: a3cc c83b 19c4 adbd b4f2 a53d 410a 42bd
00000220: 142e 1b3a 523f a43d 8394 423d 8d64 55bd
00000230: a073 103d 598b 52bd 0bca af3d 647f 943d
00000240: cb74 88bd 6fe4 4e3d c9c2 75bd 449d 313d
00000250: aebf a33c 280d 1cbd 874e d63c f054 5a3d
00000260: 5083 4dbc 1495 c43c c26f 1abd a785 5f3d
00000270: d228 283d e79c 82bd 19f2 9bbd e1a9 84bd
00000280: e971 a4bd 81b1 173d 9aa8 7ebd 31df 88bd
00000290: 8e6d 463c 6733 993d 0d97 3fbd b207 98bd
000002a0: 2569 96bd 3238 9dbd 1186 ab3d 1dc3 863c
000002b0: 48cd 11bd 19d8 96bc e2fd 07bd cc15 48bd
000002c0: 1026 b33c 5fa7 b03d 6511 0ebd ca0f 9abd
000002d0: def1 9a3c 7536 40bc 7f7b 8d3d 8e09 853d
000002e0: 4745 e53c 58b6 0a3d 5ef2 653d 6375 c73c
000002f0: 3718 a83d 824a c73c a5f5 1dbd 4138 1f3d
00000300: 0255 5fbd 4886 b33d c950 1fbd 24ae b7bc
00000310: 4139 2abd c10c 963d a994 23bd cf4a 383d
00000320: 0028 0cbd 81ed 923d f304 aa3d 576b 8c3d
00000330: 4078 d5bc 8dab a83d 6fbf 8d3d b722 85bd
00000340: 225a 713d 60c5 2b3c ec85 2a3d 829e 81bd
00000350: 315c a53d d6a4 f73c 7a1c 3fbd f38a 8dbd
00000360: 1fa0 9b3d 90a4 cc3b 6fd1 e03c 2940 67bd
00000370: e449 843d 209e a9bb 9f5e 883d e1bc a0bc
00000380: c612 02bd 6340 75bd c72e a7bc 3296 01bd
00000390: 7ab1 aa39 673e 823d c23d b83d c1c5 a33d
000003a0: 2e1d 38bd ade9 ef3c 31c8 2e3d 9e8e 063d
000003b0: cdfd 10bd ffe7 e43c 074b 70bd fcfc 923d
000003c0: bb31 8f3d 2eaa 7d3d 38b4 83bd 049c 4c3d
000003d0: 4556 873d b4f6 a1bd 3a80 1abd e936 2a3c
000003e0: 3db5 97bd 9bf6 47bd b752 b03d 1a09 3c3d
000003f0: 246c 763d b91e 8dbd 7cb1 a9bc f78c b63c

layers.4.bias f4 [9]
0.04774827 0.07120794 0.087578386 0.02845668 0.026649505 -0.05038601 0.0876943 0.026079688
-0.026216112
00000000: b193 433d 78d5 913d 4c5c b33d fc1d e93c
00000010: 1050 da3c 9061 4ebd 1299 b33d 12a5 d53c
00000020: 2cc3 d6bc
